models/GeneratedData/scc2034_kilifi_all_contacts_across_households/state_dict.pt (torch_old, 505536 bytes, 10 tensors)

embedding.weight f4 [29, 10]
000000 07 54 6f be f7 3e 84 3f 97 76 95 3d 5f c6 a9 be
       -0.23371898 1.0331715 0.0729801 -0.33159158
000010 d7 34 0d 40 4c 9c 4b be 63 8f 29 3d 00 a5 cc 3f
       2.20635 -0.19883841 0.04139651 1.5987854
000020 e2 a9 ce 3d 96 b8 af bf ea d1 5e 3e 73 82 ca 3e
       0.10090996 -1.3728206 0.21759763 0.3955265
000030 19 84 11 3f ff 29 1d c0 8d d9 0c bf 1e 40 38 3f
       0.5684219 -2.4556882 -0.55019456 0.71972835
000040 92 ab fd bf 8d 09 87 be 1f 49 02 bd 20 37 3f 3e
       -1.9817984 -0.26374474 -0.031808015 0.18673372
000050 a1 49 f1 3e aa e1 03 c0 1b 52 d8 bc 90 ac 0b bf
       0.47126487 -2.0606484 -0.026406338 -0.54560184
000060 9a 28 21 3f 1e 2f 40 bf e3 3c 9f 3f 72 7a 8d 3f
       0.6295258 -0.75071895 1.2440456 1.1052992
000070 5c 6a b6 be 41 b1 08 c0 85 ed 94 3f f2 b8 01 bd
       -0.3562802 -2.1358187 1.1634985 -0.03167052
000080 3a 3d 8e 3f 8f e4 1a be ac b4 0b 40 b0 f1 26 bf
       1.1112435 -0.1512625 2.1829023 -0.65212536
000090 80 fd 03 bd 0f 15 a5 3e 1d 9b b5 3e de 4c 87 3f
       -0.03222418 0.3224263 0.35469905 1.0570333
0000a0 da 8d 16 bf 1a 0c ee bf 4f 4b c5 bd 29 ab f4 be
       -0.588102 -1.8597443 -0.096335046 -0.47786835
0000b0 1d a7 34 bf 0c fc 76 3f 50 8a be bf 79 0b 66 bf
       -0.70567495 0.96478343 -1.488596 -0.89861256
0000c0 64 31 d0 3f 16 32 81 be 65 e1 38 3f 61 96 69 bf
       1.6265073 -0.25233525 0.72218925 -0.91245085
0000d0 5d cc 53 be ba 5a 18 bf 9b 62 b6 3e 74 89 b5 be
       -0.20683427 -0.5951344 0.35622105 -0.3545643
0000e0 7b 25 4e bf ef fb 83 3f e5 32 0c c0 57 af d2 3d
       -0.8052594 1.0311259 -2.1906064 0.1028735
0000f0 4d e5 90 be d2 8c 85 bd cf 2e 8e bf d8 b3 15 3f
       -0.28299943 -0.06521 -1.1108035 0.58477545
000100 8b 3e 03 be 02 82 e8 be 5d 94 28 40 81 4c 29 3f
       -0.12816827 -0.45411688 2.6340554 0.6613236
000110 1b 05 a7 be ff c6 e6 bf 4c 30 b6 3e f6 b8 f7 3e
       -0.32621083 -1.8029479 0.35583723 0.48383301
000120 42 56 7a 3c 78 a2 d2 3f ad 06 7f bf d3 d7 8c bf
       0.0152793545 1.6455832 -0.9961956 -1.1003364
000130 dd f6 99 3f bc 9c b0 3f 1e 01 76 3e d8 c0 7e bf
       1.2028462 1.3797832 0.24023864 -0.99513006
000140 1a 70 d7 bc 2c f0 74 3f 84 5c 97 bf a8 3c 91 bd
       -0.026298571 0.95678973 -1.1825109 -0.070916474
000150 ec 16 0a bf a2 88 09 c0 2a c1 ac bd b3 a2 ee bf
       -0.53941226 -2.1489644 -0.084352806 -1.8643402
000160 1b c9 35 bf ea 8b 15 3f ea 9c 5b bf dd fd 4e bf
       -0.7100999 0.58416617 -0.85786307 -0.80856115
000170 1a 7a f4 3d fd 47 74 bf 9f 00 cb bf e9 88 35 3f
       0.119373515 -0.95422345 -1.5859565 0.70912033
000180 e3 c4 34 3e 62 cc 32 3f 77 e8 de bf 34 f7 54 bf
       0.17653231 0.69843113 -1.7414693 -0.831897
000190 f8 c3 a5 be 7e c7 f9 3f 1a c2 dc 3e 75 5f 9e bf
       -0.32376075 1.9514005 0.43116838 -1.2372881
0001a0 1f 3e 71 bf 3d ad 80 be 6c ee 9d bf ef 68 fa 3f
       -0.94235414 -0.2513217 -1.2338386 1.9563273
0001b0 42 f2 e8 bf 5b b6 f5 bf b9 df d0 3d 0a 2e 5c bf
       -1.8198931 -1.9196275 0.10198922 -0.8600775
0001c0 c8 3e a2 3e 27 9e b6 be 28 a1 22 bf e5 62 05 bb
       0.31688523 -0.35667536 -0.63527155 -0.0020353135
0001d0 9b c3 74 be 3f de 05 3d aa 8d 8c be fb df 1b c0
       -0.23902743 0.032682654 -0.2745183 -2.4355457
0001e0 e0 c3 5b be ec 10 93 3f 69 5d e8 bf 06 ed 08 bf
       -0.21461439 1.1489539 -1.8153507 -0.5348667
0001f0 14 fa bc bf a5 61 d1 3d b4 5b f6 3c e1 34 5b bf
       -1.4763818 0.10223702 0.030073024 -0.8562756
000200 e4 37 8c bf 61 14 f6 bf f8 96 e8 3f e9 74 9b be
       -1.0954556 -1.9224969 1.8171072 -0.30362633
000210 45 6d c7 bf d6 9c ac 3f 30 1c 42 be db d3 39 3d
       -1.5580221 1.3485363 -0.18956065 0.045368057
000220 a3 5a 84 bf c2 f3 f2 3e d5 0f 92 bf 4b 95 bb be
       -1.034016 0.47451597 -1.1411082 -0.3663734
000230 80 f2 9b bf da a6 26 3f f4 ae 79 3f f1 79 88 3f
       -1.218338 0.65098345 0.9753258 1.0662214
000240 71 8b cb be d2 d4 6b 3f 7d 79 73 be 3b 9b 5d 3e
       -0.39754823 0.92121613 -0.23776813 0.21641247
000250 9a dc c3 3e 54 0e a4 3e da 34 2b bf 91 47 28 3f
       0.38254243 0.32042181 -0.6687752 0.657342
000260 fc 7a a1 bf e6 fc 15 c0 0b 8d d8 bf eb c7 f2 3e
       -1.2615657 -2.3435607 -1.6918043 0.4741815
000270 2f fe 8d be a5 5e b0 3e 87 45 9c 3f fd 4d 6a be
       -0.2773299 0.34447208 1.2208718 -0.22881313
000280 8a f0 54 3e 55 67 6f 3f c8 08 de 3f a1 4c df 3f
       0.20794883 0.9351705 1.734643 1.744526
000290 bb 99 f4 be 4c 74 19 3f 16 fe c5 3f 8c a2 47 40
       -0.47773537 0.5994308 1.5468166 3.119296
0002a0 fd f1 15 bf 95 2a f1 3f 49 1d 05 bf 5f a0 90 3f
       -0.5857237 1.884112 -0.5199781 1.1298941
0002b0 2e ab 94 bf 64 a7 f9 bd 13 71 b4 bd 51 89 a6 3f
       -1.161474 -0.1219013 -0.0881063 1.3010656
0002c0 9c 2b 90 bf 3c e9 f6 be 65 5b 24 c0 27 2b 3b 3f
       -1.1263309 -0.4822482 -2.5680783 0.7311272
0002d0 35 6f ac bf 90 bc e8 3f d0 44 85 3f 98 33 8b bf
       -1.3471438 1.8182545 1.0411625 -1.087512
0002e0 10 9f b8 3e 15 cb 27 40 f6 ea b4 3f 0c ce 97 be
       0.36058855 2.6217701 1.4134204 -0.2964939
0002f0 13 01 07 bf 86 eb 39 3d 3b b2 cf 3f 5d d1 c8 be
       -0.52736014 0.04539063 1.6226267 -0.39222232
000300 98 53 15 be b2 a4 b3 3f 8e 2f e3 bf 14 83 b7 be
       -0.1458267 1.4034636 -1.7748888 -0.35842192
000310 a3 ea 0c c0 16 2e ce 3d 88 33 8f 3f a2 f8 25 3e
       -2.201821 0.10067384 1.1187601 0.16208127
000320 4a 42 95 3f 69 40 80 be 8f 3a b7 bf 01 ee f3 3e
       1.1660855 -0.2504914 -1.4314746 0.4764252
000330 96 24 d7 3e f3 51 24 bf ba fb e6 3e f8 12 c2 be
       0.420201 -0.64187545 0.45113927 -0.37905097
000340 38 0d 96 3f 2f 6b 72 3f 44 20 20 bf 30 5e 1a 3d
       1.1722784 0.946948 -0.62549233 0.03768748
000350 7c 99 92 be 35 65 b4 bf e8 fd 4e bf ad 9f c4 3e
       -0.28632724 -1.4093386 -0.8085618 0.38403073
000360 f8 21 39 40 75 f0 22 bf d3 6e 58 40 a4 d4 34 3f
       2.8926983 -0.6364816 3.3817642 0.70636964
000370 ca 99 8a 3c b2 19 03 40 1b d3 04 40 c5 1e 01 40
       0.016919035 2.0484433 2.0753849 2.017503
000380 e0 7e c9 3e a5 51 13 be ea 4e 07 bf 65 e6 11 be
       0.3935461 -0.14386614 -0.5285479 -0.14248045
000390 50 97 7d 3f a7 ec 1c bf 8a a9 a0 bf 13 96 ef 3e
       0.9905901 -0.612986 -1.2551739 0.46794185
0003a0 c6 de cc 3f 35 ad 42 bf bd d5 8c bf 39 82 46 3d
       1.6005485 -0.7604554 -1.1002728 0.048464034
0003b0 2b c8 a1 3f 17 1c 6c 3f c0 e5 0d 3f 79 a9 9d 3f
       1.2639211 0.9223036 0.55428696 1.2317344
0003c0 37 45 9b 3e c5 a2 97 3f bd b1 0e be 42 36 2c 3f
       0.30326244 1.1846548 -0.1393499 0.6727029
0003d0 df f6 d3 3e be 91 05 c0 ba 2b 88 be b4 61 21 bf
       0.41399285 -2.0870204 -0.2659586 -0.6303971
0003e0 f2 2d 49 3f 04 ac 8f 3c 49 50 0f bf 47 b0 25 bf
       0.7858573 0.017538078 -0.5598188 -0.647221
0003f0 7e 7f ba 3f b3 c7 bd 3e 07 55 cb bf 1f 06 45 3e
       1.4570158 0.3706642 -1.5885323 0.19240616

lstm.weight_ih_l0 f4 [400, 10]
000000 0a 6f 86 3d e1 ed 21 be d0 69 54 3d d9 aa 9a 3c
       0.06564148 -0.158134 0.051858723 0.018880295
000010 2f 5f b7 bc e4 fa e6 3c d6 c2 f7 3d 6a 74 c6 bd
       -0.022384254 0.028195806 0.12097709 -0.09690173
000020 60 37 ef 3d a2 f3 8b bd 97 83 4c bd 16 7b b4 3d
       0.11680484 -0.06833579 -0.04993018 0.08812539
000030 c2 c0 94 bc 80 87 7b be 80 26 02 3e 8d 1e f4 3d
       -0.01815832 -0.24563408 0.12709999 0.119198896
000040 97 8c a9 bd 12 ca 8a be 7d 58 3f 3e 37 45 8d be
       -0.082787685 -0.27107292 0.186861 -0.2759187
000050 8f 1d 9f be 3a a1 99 bd 76 45 d2 bd f5 44 dc be
       -0.3107724 -0.07501455 -0.10267155 -0.4302136
000060 46 15 1b bc bd d3 eb 3c 63 5c e5 bc f0 03 ba bd
       -0.009465521 0.028787488 -0.027998155 -0.09082782
000070 22 61 87 be eb 48 85 be 24 7a a3 3e 8e f2 82 3b
       -0.26441294 -0.26032194 0.31929123 0.0039962
000080 f1 fc c3 3e a0 5c 1d be a8 6b 78 3d 31 7e fc bd
       0.38278916 -0.15367365 0.060649544 -0.123287566
000090 d8 29 99 bc 12 d1 12 3d a0 32 17 3e 89 1a b7 bd
       -0.01869671 0.035843916 0.14765406 -0.08940608
0000a0 9b 2f 7e 3e 7e f2 50 be 61 24 a6 be 30 d3 8f be
       0.24822848 -0.20405003 -0.3244963 -0.2809081
0000b0 3c e6 a1 bd 7c 55 7b 3d 69 e9 42 be 08 1f 6d be
       -0.07905242 0.06136082 -0.19034351 -0.23156369
0000c0 ed 5a 2a be ac 38 c2 be 29 25 fd 3b e9 41 e8 bd
       -0.16636248 -0.37933862 0.007725377 -0.11340696
0000d0 fd 02 bb bd aa 83 87 bd b2 f9 01 3e 9f 3f f7 bd
       -0.09131429 -0.0661691 0.12692907 -0.12072682
0000e0 25 1b 47 3c 2c 19 7c 3e dd be 99 bd e2 27 4b bc
       0.012152468 0.24618977 -0.075071074 -0.0123996455
0000f0 76 35 25 3e 62 b8 91 3c d4 a3 9f bd c5 23 51 3e
       0.16133675 0.017788116 -0.077949196 0.20423801
000100 bb 62 39 3e f0 c5 6a 3c c5 47 2a 3e 79 02 8d 3e
       0.18104069 0.014329419 0.1662894 0.2754095
000110 0c 63 ea bd 9c 22 b6 bc 4e 7f 97 bd 71 8e 67 3d
       -0.11444673 -0.0222333 -0.07397328 0.056532327
000120 26 e8 88 be 96 54 55 bd 6b 09 84 be 8a d1 37 be
       -0.26739615 -0.05208262 -0.25788435 -0.17951027
000130 f2 8c e0 bd cd 70 80 be d7 b9 c2 3d 02 70 06 bf
       -0.10964383 -0.2508606 0.095081024 -0.5251466
000140 e4 bc 34 be 0e 5f d0 3c 52 7f b3 3e c1 67 95 be
       -0.17650181 0.02543595 0.35058075 -0.2918072
000150 4e f2 d7 bd 23 69 1d 3f 65 65 4a 3e 93 6f 15 3e
       -0.10544263 0.6148855 0.19765241 0.14593343
000160 31 d7 77 3e 86 0f 48 3e fe 8c 9d bc e4 e2 db bd
       0.24203183 0.19537172 -0.01923227 -0.10736635
000170 62 ce f9 bd fc f6 90 bd 13 a4 73 3e 5a f0 ad 3e
       -0.121975675 -0.070783585 0.23793058 0.33972436
000180 e9 90 8c be 12 f0 17 be 8f d4 38 bc 90 39 cb 3d
       -0.27454308 -0.14837673 -0.011281147 0.099230886
000190 3e 36 31 be 58 c9 28 bd af 84 30 be 1f 24 09 be
       -0.17305848 -0.04120764 -0.17238115 -0.13392685
0001a0 2d 7a 98 3d bb 73 dc 3d b4 1f 1d be 66 e8 91 bd
       0.07445178 0.10764261 -0.15344125 -0.071244046
0001b0 05 5a ec bd 33 87 70 be e4 c7 9c 3d 37 c7 96 bd
       -0.11540607 -0.23489074 0.076553136 -0.07362216
0001c0 1f f4 6c be 50 4d 49 3d 1c c1 17 3d 2f 7f 1f be
       -0.2314 0.049145997 0.037049398 -0.1557586
0001d0 f4 0b 2a be fc b0 c1 3d f2 db 44 be 9f 8b 33 bc
       -0.16606122 0.09457585 -0.19224527 -0.010958581
0001e0 fd a7 48 3d f3 07 3e be 7c 8c bd 3d 4b 0d f8 3c
       0.04898833 -0.1855772 0.09255311 0.030279776
0001f0 d2 42 a8 3d fd be 7e bd b7 75 12 be bd 45 ce bd
       0.0821587 -0.06219386 -0.14302717 -0.10071895
000200 b1 77 85 bd a3 1d 08 bd 87 06 1f bd d3 63 07 3e
       -0.0651697 -0.03323139 -0.038824584 0.13221674
000210 c6 81 e8 bc e9 e4 07 be d7 08 42 3e a8 7d 87 bc
       -0.028382193 -0.13270916 0.18948685 -0.01653941
000220 44 60 4e 3e 84 9c 18 bd 1d 2d 03 be db ed 8e bd
       0.2015391 -0.03725864 -0.12810178 -0.06978961
000230 54 f7 f9 3d 87 fe 30 be 62 42 8f 3d 13 59 e4 3d
       0.12205377 -0.17284594 0.069950834 0.11149802
000240 e3 67 f3 3e c0 af 98 3e ee d7 d7 bd 6d 94 dd 3d
       0.47540197 0.29821587 -0.10539232 0.108193256
000250 ba 94 ad be 1d 63 80 3e 52 38 de 3c ad 09 b6 3d
       -0.33902532 0.25075617 0.027126465 0.08888564
000260 20 37 46 bd cb 68 b9 bd eb 5d d4 3d e8 5f 6e bd
       -0.048392415 -0.09053191 0.10369476 -0.058196932
000270 5a f6 ee 3d 28 bd 7e be 38 de 6e bc c0 e5 f7 bd
       0.116680816 -0.24876845 -0.014579348 -0.12104368
000280 39 2e 9b be 46 a5 fd 3c 21 66 3b be d8 b5 6a 3c
       -0.30308703 0.030962598 -0.18300678 0.0143255815
000290 d1 67 ae bd 76 c4 d4 bd 24 98 4f bd 71 97 b6 be
       -0.08515895 -0.103890345 -0.050682202 -0.35662416
0002a0 b3 9c 25 3d 75 a2 fb bd 99 ec 8b be f7 93 0a bd
       0.040432643 -0.122868456 -0.27328947 -0.033832517
0002b0 74 b2 06 bb 5b a9 09 3e d2 de 0d be 37 fe e8 3e
       -0.0020553144 0.1344351 -0.1385453 0.4550645
0002c0 04 d8 56 bd 6b fc 27 3e bd 09 df be e3 59 2b be
       -0.052452102 0.16404884 -0.43562117 -0.16733508
0002d0 29 1e c6 3c 5a 84 24 3c 2d 04 96 be e9 4c fd bc
       0.024184303 0.010041321 -0.2930006 -0.030920463
0002e0 b0 04 9e 3d 7f 97 d0 bc f1 35 25 3e d4 e7 84 bc
       0.07715738 -0.025462864 0.16133858 -0.016223826
0002f0 5d f3 c0 be 88 17 fe bd cd 55 00 3f c7 d0 56 3e
       -0.3768567 -0.12406832 0.5013092 0.2097808
000300 41 6f 9a 3d 3b 32 a2 3e 8f 11 96 bd f8 87 2e be
       0.07540751 0.31678948 -0.07327568 -0.17044055
000310 0d 78 b1 3d 40 dd 1b 3e 32 9b 4e be 23 de 3e 3e
       0.08665476 0.15221119 -0.2017639 0.18639426
000320 bb 10 5e be 88 9e 69 be ba bc 00 bf 6a 65 4f be
       -0.2168607 -0.22814381 -0.50287974 -0.2025353
000330 c2 fd b3 bd 2d 1f 77 3e a0 e9 9e bc 5e 72 eb bb
       -0.08788635 0.24132986 -0.01939851 -0.0071852645
000340 11 f5 9e bd 9d b2 3f bf e1 e1 d2 bd cf a4 26 3e
       -0.077615865 -0.7488192 -0.10296989 0.16273807
000350 ac d2 08 bd 3b 84 3e bd cf 4f 58 bc 8c 32 1b 3e
       -0.033404037 -0.046512824 -0.013202622 0.15156001
000360 5d a5 2f be cc 33 ad be 8d ac 16 3f eb 44 85 3d
       -0.17152925 -0.3382858 0.5885704 0.06507286
000370 1a 8f 46 be b7 96 1f be 2a 59 d4 bd af 9c 61 bc
       -0.19390526 -0.15584837 -0.10368569 -0.013770266
000380 bd bb 84 be 4a d3 28 3e 18 c5 7a be 38 e4 8e be
       -0.25924483 0.1648685 -0.24489248 -0.27908492
000390 61 1b ef 3c b1 1d 1d bc 5c fe 07 be af b2 38 3e
       0.02918786 -0.0095895985 -0.13280624 0.18036912
0003a0 9d 3d 40 be dd 43 4b be 18 14 9d 3c 3d 80 3b 3d
       -0.18773504 -0.19850107 0.01917462 0.045776594
0003b0 60 17 ac be e6 79 35 be ce 1e f2 3d 33 60 61 bd
       -0.33611584 -0.17722282 0.11822282 -0.055023383
0003c0 09 92 a3 3d b9 92 26 bc 45 0d 83 be 1e 01 e0 bc
       0.07986838 -0.010166817 -0.2559606 -0.027344283
0003d0 d7 05 89 3d 06 fb b3 bd 6d 86 1a bd 39 e2 fb bd
       0.06690567 -0.08788113 -0.037725855 -0.12299008
0003e0 c2 69 0b 3e 18 59 08 be cf 58 f3 bd 85 e9 85 3b
       0.13614562 -0.13315237 -0.11882173 0.0040866756
0003f0 59 17 8b 3d ef 4e a8 bd 8d e1 ca 3d 16 45 25 bd
       0.067915626 -0.082181804 0.09906302 -0.04034909

lstm.weight_hh_l0 f4 [400, 100]
000000 6d a4 d5 3e a9 30 b9 be ed 8a 38 3e 3a 69 9f be
       0.4172701 -0.36169937 0.18021746 -0.3113497
000010 f5 e0 d5 3e b4 ff 91 bd e6 b7 0d be a0 fb af 3e
       0.4177319 -0.071288496 -0.13839683 0.34371662
000020 d9 b8 76 bd 9f b2 30 bd 7c 6d b9 bc ac c5 55 be
       -0.06023488 -0.043139096 -0.022635214 -0.20876187
000030 b5 77 d0 be d3 5f ce be a8 23 e7 3d 3c f3 f9 3d
       -0.4071633 -0.40307483 0.11286098 0.122045964
000040 b5 ef bf be 3c 47 12 3d 0a 23 8c be b2 1a 94 3e
       -0.3748757 0.035712466 -0.27370483 0.28926617
000050 5e cd 05 be 46 4c eb 3d 71 b3 88 3c 25 02 b6 3e
       -0.13066623 0.114891574 0.016687127 0.3554851
000060 42 46 1a 3e 5d f7 73 be 44 ad 2c 3e a8 5f c0 3e
       0.15065864 -0.2382483 0.1686297 0.3757298
000070 b8 a0 f0 be 59 b9 a7 3e 8e 38 40 3c b8 f1 2f 3e
       -0.4699762 0.32758597 0.011732234 0.17182052
000080 13 97 a4 3e 55 d5 08 bf 17 1d e1 bd e8 44 59 be
       0.3214651 -0.5345052 -0.109918766 -0.21217692
000090 b3 5b dd 3e 12 5c 1a bd 83 ce 79 bd 4f 37 90 3e
       0.43234023 -0.03768546 -0.06098796 0.28167197
0000a0 32 d4 ab be 9a 81 ae be 99 aa 98 3e e8 7e b8 3d
       -0.3356033 -0.34083253 0.29817656 0.090085804
0000b0 d1 e3 f9 be f2 e4 53 3d 51 e3 66 3e 78 9e a9 3c
       -0.48806623 0.05173201 0.22547652 0.020705447
0000c0 51 1d 45 3e eb 32 e6 bd f4 47 07 bf ba ca 8c bd
       0.19249465 -0.112401806 -0.52844167 -0.068746045
0000d0 e7 44 85 be 96 ef ac be 77 1f 17 bd 68 57 b7 be
       -0.2602913 -0.3377654 -0.03689524 -0.35808873
0000e0 69 cb 85 be c0 a8 00 bc 44 2a 66 be 1f ef 64 bc
       -0.26131752 -0.007852733 -0.2247706 -0.013973027
0000f0 b4 83 53 3d 34 78 0e be 84 50 89 be 24 71 87 bd
       0.051639274 -0.13913041 -0.2681924 -0.06613377
000100 f1 74 25 3e 68 cc f7 be 86 0b 6e bd 43 a3 5f be
       0.16157891 -0.48398137 -0.05811646 -0.21839623
000110 ad 68 99 3e 09 db c6 be 5b 83 bc be 78 ab dd 3e
       0.29962674 -0.38838986 -0.36818966 0.43294883
000120 16 b6 a6 bd 65 62 4d 3e bc f6 08 3e 7b 33 66 3d
       -0.08140199 0.20057066 0.13375372 0.05620144
000130 b8 e0 a5 bc 66 e5 b3 bd 7e a0 ae 3d c1 d0 45 be
       -0.020248756 -0.08783989 0.08526705 -0.19317915
000140 b4 96 28 3f 17 1f 2a be ae ee 4e 3e a1 d8 f6 bd
       0.65854955 -0.16613422 0.20208237 -0.120530374
000150 87 75 c4 3d 04 bc 02 3f ed 60 e5 be 2e 40 09 bf
       0.09592729 0.5106814 -0.4480051 -0.53613555
000160 ac 92 0c bf 0d 59 5a 3d 67 a8 5d 3e a8 d1 34 3e
       -0.54911304 0.05330758 0.21646272 0.17658103
000170 e0 dc 96 3c a1 cb 72 3f 9e 21 e1 bc e0 3d a7 be
       0.018415868 0.94841963 -0.02748185 -0.32664394
000180 be f0 96 3d e0 ba c7 be 74 1f 79 bd 91 f8 01 bf
       0.07370137 -0.39009762 -0.06082101 -0.5076991
000190 f4 d9 d7 3b c7 32 dc bc 6f 61 d1 3d f6 cb 8f 3e
       0.0065872613 -0.026879681 0.10223662 0.28085297
0001a0 50 87 1d be c2 6e 42 bd 9e 3d 03 be 9c 2a 88 bd
       -0.15383649 -0.047468908 -0.12816474 -0.06648752
0001b0 58 57 03 3d a9 2c 0f 3d 63 02 c0 bc a5 b2 fd 3d
       0.03206572 0.0349547 -0.023438638 0.12387589
0001c0 62 4d 88 3e 6e 56 9c 3d dd 65 dd bc bc d7 7c bd
       0.26621538 0.07633673 -0.027026111 -0.061729178
0001d0 71 f6 ae bd bb ca a3 bd c3 fe b6 3d e8 73 83 bd
       -0.08543099 -0.07997652 0.08935311 -0.06418592
0001e0 cc 61 19 3e 8b 8e a5 3a 16 3f 9e bb fc 5e 5e bd
       0.14978713 0.0012630982 -0.004829298 -0.054289803
0001f0 b7 dc 42 3e 05 fa 69 bd 1d 12 8b bd 15 6c aa bd
       0.19029509 -0.057123203 -0.06790564 -0.08321396
000200 34 b7 ad 3d 19 4b 9d 3c 21 6d 54 3d 15 47 d2 bc
       0.08482209 0.019200848 0.051861886 -0.02566866
000210 17 b0 80 be 53 03 cb bc 6e 0d 8f bd 54 78 0c 3e
       -0.25134346 -0.024781859 -0.069849834 0.13717777
000220 db 8e 54 bd b1 6d 9a 3b fe 1a 0f 3e 03 96 a6 3d
       -0.05189405 0.0047127833 0.1397514 0.08134081
000230 a9 0f d0 3e 51 7c ce bd 4c 04 c6 3d 03 c6 55 be
       0.40636948 -0.10082305 0.09668788 -0.20876317
000240 7c 01 c0 3d 2c 43 70 3e 53 85 13 3d 5a c2 be bb
       0.09375283 0.23463124 0.03601582 -0.0058215084
000250 03 83 7b be 7f 5c b2 3c b1 b8 eb 3d aa 90 61 3d
       -0.24561696 0.021772621 0.115098365 0.055069603
000260 e9 64 ab 3c e6 9d 63 3e f2 6c a2 bd 24 96 cb 3d
       0.020922141 0.22228202 -0.07930936 0.099407464
000270 c5 d3 0c 3e 4d f8 93 be a0 56 39 be a4 ea 7c be
       0.13752659 -0.28900376 -0.18099451 -0.24698883
000280 30 52 8b 3e 4f cb 0a be 58 73 00 3e 38 fc cc 3b
       0.27211142 -0.13554119 0.12544 0.0062556528
000290 b8 20 a7 bd 45 d1 35 3e 61 06 00 3f 3f 8e fb bd
       -0.081605375 0.17755611 0.50009733 -0.12282991
0002a0 13 8c 42 3b 89 79 84 bd 21 1b d0 3c ab b6 5c 3e
       0.0029685542 -0.064684935 0.025403561 0.21554057
0002b0 c3 a5 f3 bc e3 58 43 3d f1 2e fd bb 16 d0 e9 bc
       -0.029742127 0.04769219 -0.007726543 -0.028541606
0002c0 d8 78 bb bd e2 05 53 3e 18 59 be bc 99 e6 4f 3e
       -0.091539085 0.20607713 -0.023235843 0.2030281
0002d0 05 66 8e 3d 23 f4 96 bd 11 92 98 bc cd 92 bb be
       0.069530524 -0.07370784 -0.018624337 -0.36635438
0002e0 85 b4 05 be ea 03 4e 3d e4 af cd 3d df 07 09 3e
       -0.13057144 0.0502967 0.10043314 0.13381909
0002f0 cc 88 a5 3d 2e a2 a3 3c 1b a2 d8 bd 1e b2 96 3d
       0.080827326 0.019974794 -0.10577794 0.07358192
000300 98 fa a6 39 34 76 8c be 6f 9d d9 bd b4 b3 47 bd
       0.00031848694 -0.27433932 -0.10625731 -0.048755363
000310 f6 63 f0 3d 6f d4 e9 bd 2d 59 90 3d af 69 92 bd
       0.11737816 -0.114174716 0.07048259 -0.07149064
000320 6e a6 3d bb 67 f6 47 3e 30 f8 24 be 98 8d d5 3c
       -0.002893831 0.19527589 -0.16110301 0.026068494
000330 c6 98 7a 3d 28 82 81 3e 3e 89 b2 3e f4 f2 1f 3d
       0.061180852 0.25294614 0.34870332 0.039050058
000340 6a 25 d2 3e 8d 76 e8 bd f5 da 3b be 83 c1 44 be
       0.4104417 -0.11350737 -0.18345244 -0.19214444
000350 74 be af be 1a f3 18 3f 16 ea 1e bf 24 2a b3 3d
       -0.34324992 0.59745944 -0.62075937 0.08748272
000360 65 6e c3 be 8d 2f ea bd 47 77 36 3e 32 28 58 3e
       -0.38170162 -0.11434851 0.17818938 0.21109083
000370 1b 34 c6 be 62 2c 9a 3e 8f a7 6b bd d9 b7 ea be
       -0.38711628 0.30111986 -0.057532843 -0.4584339
000380 2d b1 bc 3d da 11 5d 3e b4 cb 7d bc fe 7a 1c bd
       0.09213481 0.21588841 -0.015490461 -0.038203232
000390 2f 72 27 3d ae 4b 00 3e e5 11 08 be d2 d8 30 bc
       0.04088038 0.1252887 -0.13288076 -0.0107938815
0003a0 6f 1e b4 3e b0 58 ef be 33 73 89 be b0 9c f5 3c
       0.3517947 -0.4674735 -0.26845703 0.029981941
0003b0 d7 af 03 be 98 ce a9 be 46 3f 15 bd 69 bd 29 bf
       -0.12860046 -0.3316543 -0.036437295 -0.6630464
0003c0 ac d7 00 bf 45 6e 99 be 3b d3 8b 3d 87 fd 3e 3d
       -0.5032909 -0.2996694 0.068273984 0.0466285
0003d0 53 3e d5 bc a9 80 65 be ef 16 80 be cd 28 4e be
       -0.026030695 -0.22412361 -0.25017497 -0.20132752
0003e0 ef 5d 05 be 13 6c 1d bf 46 1a 0e bd 2d e1 a0 bd
       -0.13024114 -0.61493033 -0.034693025 -0.07855449
0003f0 75 4b 39 3f c5 51 88 be 56 06 6e be 04 35 32 be
       0.72380763 -0.26624885 -0.23244604 -0.17403036

lstm.bias_ih_l0 f4 [400]
000000 5e c6 e8 bd f5 84 92 bb d2 e1 75 be 34 45 9a 3c
       -0.113659605 -0.004471416 -0.24011925 0.018831827
000010 31 4e ec 3c 10 90 f8 3b ee cd 77 bc 01 04 0f bd
       0.028845878 0.007585533 -0.015124781 -0.034915928
000020 ae ff bf 3c b1 e7 5d bd 61 98 cb bd 9a f9 98 3e
       0.023437347 -0.054176036 -0.09941173 0.2987793
000030 c7 61 70 3e 7f 8d c0 3d 1e e5 4b bb 3a c9 34 bd
       0.23474799 0.09401988 -0.0031111906 -0.044137217
000040 22 25 0b be a7 98 07 be 6b be 4c 3d 16 73 71 3d
       -0.13588384 -0.13241826 0.049986284 0.058947645
000050 4a a3 0e 3b ae ba 71 be a9 74 8b 3d 70 cc 2f 3d
       0.0021764808 -0.23606369 0.068093605 0.042919576
000060 92 fc cb bd a4 49 e0 3c c9 21 4a bd 9c 31 a6 bd
       -0.09960283 0.027378865 -0.049348626 -0.08114931
000070 cf a8 b4 3c 78 f0 ef 3c af 4c 48 bd 3a 4b 42 be
       0.02205315 0.02928947 -0.048901256 -0.18974009
000080 dc c0 03 3c 96 c9 35 3e 63 3c 15 bd 27 9e 2a 3e
       0.008041587 0.1775268 -0.036434542 0.16661893
000090 26 89 9e bd ec ce e4 bd 93 a8 4d bd 28 67 ef bd
       -0.07741003 -0.1117228 -0.050209593 -0.11689597
0000a0 c2 21 01 3d c3 b4 a0 bc 04 5e c1 bd fe e5 8b 3c
       0.031526335 -0.019617444 -0.0944176 0.017077442
0000b0 af c8 42 be 51 89 9a bd 0d 13 5e be 08 e6 95 3d
       -0.19021867 -0.07545722 -0.21686955 0.073192656
0000c0 85 6c 20 3e 29 83 c5 3d c2 57 f9 3b 29 fd 14 3c
       0.15666397 0.096441574 0.0076093385 0.009093561
0000d0 2a 1b 80 3d 83 58 0d 3e 42 7c fc bd 67 15 1f 3e
       0.06255181 0.13803296 -0.12328388 0.15535508
0000e0 b1 fa a1 3e 34 80 da bc fa 33 c8 3d a8 3d 29 3e
       0.31636575 -0.02667246 0.09775539 0.16527426
0000f0 ed 79 13 be 9b 5a 20 bc 17 5f 8f 3e 49 51 c7 3d
       -0.1440198 -0.009787227 0.28002235 0.09732301
000100 d9 3a 12 bc ea b6 19 3e 9a 39 04 bd 79 0e 22 bd
       -0.008925163 0.15011182 -0.032281496 -0.039564583
000110 13 7b e1 bd a2 b0 c7 bb 99 53 c6 3d 2c f7 ca bc
       -0.11009803 -0.0060940543 0.09683914 -0.024776064
000120 5b 79 96 ba fe f3 3c be 9a 10 8a bd c3 48 a0 bc
       -0.0011480259 -0.1845245 -0.06741448 -0.019565945
000130 b3 8b aa 3d f6 f4 ce bc d4 54 dc 3d 15 a6 c5 3d
       0.08327427 -0.02526329 0.10758367 0.09650818
000140 62 4a fe bc c8 d4 73 3d 8c 31 0e bd af d7 ae bc
       -0.031041328 0.059529096 -0.03471522 -0.02134308
000150 07 23 e0 3e ee e0 82 bd cb b7 da 3e bd b4 9c bd
       0.43776724 -0.06390558 0.42718348 -0.076516606
000160 59 c0 08 be 21 49 01 be 28 43 72 3e b2 f0 d2 bd
       -0.13354625 -0.12625553 0.2365843 -0.10299815
000170 aa 52 b7 3d 80 30 68 3e 7a df 21 be db ce 8d bd
       0.08951314 0.22674751 -0.15807906 -0.0692422
000180 dd bf af 3d 8b 72 b6 3e 51 bd 22 3d 9c d3 a8 bd
       0.08581517 0.35634264 0.039731327 -0.08243486
000190 e6 90 ea bd 2c 19 e4 bc 8b 02 44 be ef 1b 73 3d
       -0.114534184 -0.027844034 -0.19141595 0.05935281
0001a0 e3 f5 1d bd ca d6 81 bd f1 57 de 3c af d2 04 be
       -0.038564574 -0.06339796 0.027141543 -0.12970994
0001b0 90 1d f8 bd 08 c8 92 bd da a0 2d bd 74 a5 d8 bd
       -0.121150136 -0.07167059 -0.042389728 -0.10578433
0001c0 61 00 e0 3c a4 57 b1 3c 0f 13 b1 bd 48 fb 08 3b
       0.02734393 0.021648236 -0.08646213 0.0020901728
0001d0 9b c7 ae bd 4f c7 f8 bd 8c ae 18 bd 0b 71 7e bd
       -0.085341655 -0.1214739 -0.037275836 -0.062119525
0001e0 23 97 e8 bd 30 fd 57 be 65 52 2f be da d6 28 bb
       -0.11356952 -0.21092677 -0.17121275 -0.0025762827
0001f0 1a 99 04 be 83 b6 ac bd 08 ee 5f 3d a4 14 07 be
       -0.12949029 -0.08433249 0.054670364 -0.13191468
000200 54 0a b5 bd 55 1e 98 bd ac 60 f6 3c 94 3b 0a be
       -0.088398606 -0.074276604 0.030075394 -0.1349929
000210 15 86 9b bd 75 79 e4 bd 39 3e e9 bd 11 a3 a7 3a
       -0.075939335 -0.111559786 -0.11388821 0.0012789686
000220 05 61 86 3d 3d 6e 89 bd a2 ea 99 bd 25 78 08 3d
       0.06561474 -0.067104794 -0.07515456 0.033317704
000230 25 49 75 bd c7 19 eb bd 19 d9 87 bd 57 a5 f6 bd
       -0.05988421 -0.11479526 -0.06633205 -0.12043255
000240 3f d8 c6 bd 3a ec 13 3d 18 f5 5e bc 9c a7 48 be
       -0.097092144 0.036113955 -0.01360824 -0.19595188
000250 e2 c4 44 be 0b e0 19 be e0 90 c4 bd 1e cd 02 bd
       -0.1921573 -0.15026872 -0.09597945 -0.031933896
000260 82 37 a2 bd 70 4e 54 be 87 fd 81 be f6 7b 6f bc
       -0.079207435 -0.20733047 -0.2538874 -0.014616957
000270 43 f3 3e be b4 be e2 bd 3a 54 5e bd ca 5c 5d be
       -0.18647484 -0.1107153 -0.054279543 -0.21617427
000280 8b c4 4f be 0b 5d d3 bd 89 1e 2b be dd cf 80 be
       -0.20289819 -0.10320481 -0.16710867 -0.25158587
000290 42 23 42 3d 1e c8 ae bd 4d 8b b5 be a2 60 a4 bc
       0.047396906 -0.08534263 -0.3545784 -0.02006561
0002a0 c2 66 3b be 98 0f c0 3d ba af 29 3c b3 06 05 be
       -0.18300918 0.09377974 0.010356838 -0.12990837
0002b0 14 12 49 bd a1 c7 ce bd 7c 63 bb 3d 19 0b bb bd
       -0.049089506 -0.1009667 0.091498345 -0.09132976
0002c0 5a 7b 63 3d 53 58 0b be 93 3f 1c be fc 76 b5 3d
       0.05553756 -0.13607912 -0.15258627 0.08860585
0002d0 16 07 ba b9 57 89 2f be e8 4f 3c bd 83 41 80 bd
       -0.00035481964 -0.17142235 -0.045974642 -0.06262495
0002e0 69 1e bf be 5f 7e 08 bd e6 94 2c 3e a7 ff 09 3e
       -0.3732789 -0.033323642 0.16853675 0.1347643
0002f0 7a 7a 92 bd e1 fe 36 bd 56 79 9b 3d 1a e1 9e bd
       -0.07152267 -0.044676665 0.07591502 -0.077577785
000300 47 f8 dd 3c 45 d1 28 be 22 40 9f bd 68 7e ff bd
       0.027095927 -0.1648608 -0.07775904 -0.12475282
000310 e7 36 03 be 8b 37 c4 be ff ef 80 3c 45 2f 66 be
       -0.12813912 -0.38323626 0.015739439 -0.2247897
000320 66 d8 98 bd 9c 7b d6 3d 75 8c f0 3d 32 99 3d bd
       -0.0746315 0.10472795 0.1174554 -0.046288677
000330 97 bf 19 3d 86 16 96 3d 21 1e 84 3d 6e 57 07 3d
       0.03753623 0.07328515 0.06451059 0.033042364
000340 08 e7 75 3d dc f6 c5 bc 8f 95 bb bd 18 89 96 3d
       0.06003478 -0.024165563 -0.091593854 0.07350367
000350 be d1 af 3d d2 73 0a bc 87 c7 d2 3d ca 27 95 3d
       0.08584927 -0.008450465 0.10291963 0.0728298
000360 aa 57 12 3e 17 24 67 3d 65 7c cd 3c 2a c2 bd bb
       0.14291254 0.056430902 0.02508373 -0.0057909684
000370 a2 92 58 3c c2 ff 9e 3d b6 53 0a bd 24 d2 8b bc
       0.013218554 0.07763626 -0.03377124 -0.017067976
000380 d8 92 bd bd 3b 18 29 bc 57 36 8b 3d 85 a6 bb bb
       -0.09256524 -0.010320718 0.06797474 -0.005726638
000390 23 59 6c 3d c4 93 c6 bc f3 a2 f6 3c ae ce b8 3d
       0.057702195 -0.024240382 0.030106997 0.09023796
0003a0 24 ec c6 3d 00 0c c4 bd bc 3f 63 3c 3d 34 c7 3d
       0.09713009 -0.09572601 0.013870176 0.097267605
0003b0 49 34 b3 bb 5f e5 16 bd ad 2d 83 3d 75 f7 46 bd
       -0.0054688794 -0.03683984 0.06405196 -0.048575837
0003c0 6c 34 8e bd 74 b0 2e 3c 33 eb 18 3d 68 80 ce bc
       -0.069435924 0.010662187 0.03733368 -0.025207713
0003d0 f9 2d e1 bd 69 f1 b1 3c 31 63 31 3c d9 df 86 3d
       -0.10995097 0.021721559 0.010826872 0.06585664
0003e0 92 1e 81 3d c0 dc ce 3d 6a bc 20 3b 94 45 81 bc
       0.06304659 0.101006985 0.0024526366 -0.015780248
0003f0 e2 4e 0c be 2d eb 36 bd b9 10 6a bd f8 6d 05 3d
       -0.13701966 -0.044657875 -0.057144854 0.032575577

lstm.bias_hh_l0 f4 [400]
000000 74 d3 2c bd e1 a4 45 3b 8d 04 9c be c6 34 cd 3d
       -0.042193845 0.003015809 -0.30472222 0.10019831
000010 86 3e fd 3d fc e8 5a 3c 9f 14 7c bd 4d 0e b7 3c
       0.12365441 0.013361212 -0.061543103 0.022345686
000020 62 f5 28 3e 3a 8d 0f be cf 9e 01 be a7 94 8e 3e
       0.16499856 -0.14018717 -0.12658237 0.27847788
000030 9b f0 71 3e 48 2e f1 3a 93 66 db 3c 83 7b e4 3c
       0.2362694 0.0018400634 0.02678231 0.027890926
000040 28 e7 91 bd 47 52 ab bd ea 7f 87 3d 90 bc 67 3d
       -0.07124168 -0.083653025 0.066161945 0.05657631
000050 52 d5 25 3d 0b f7 c2 bd c8 75 51 3e d4 12 27 bd
       0.04048664 -0.09519776 0.20455086 -0.04078944
000060 9c b7 34 3d 2c a4 18 be d3 60 09 be 4b d0 0c bc
       0.044120416 -0.14906377 -0.13415842 -0.008594583
000070 2d f9 67 bc c7 b7 27 3d 24 fe 02 bc 8b 70 86 bd
       -0.014158529 0.040946748 -0.007995162 -0.065644346
000080 17 c5 f1 bd 96 01 f1 3d 82 a2 e4 bd 62 ef 3b 3e
       -0.1180517 0.117678806 -0.111638084 0.18353036
000090 ad 50 e2 3c dc 52 bd bd 64 31 af bd 6e de 8b bd
       0.02762636 -0.0924432 -0.085543424 -0.068295345
0000a0 bc 70 a1 bd 95 ac 49 3a 26 e2 15 3d 25 79 af 3d
       -0.078828305 0.0007693258 0.036592625 0.08568028
0000b0 a6 37 02 be 2d a8 20 be 75 5c 2a be 93 53 83 bc
       -0.1271654 -0.15689154 -0.16636832 -0.016031062
0000c0 c0 24 b6 3d eb 51 11 bd 43 2d bb bd 0f e0 79 bd
       0.08893728 -0.035478514 -0.09139492 -0.061004695
0000d0 02 ec 26 bd a0 b5 0e 3d fc 37 f7 bd 58 57 a3 3d
       -0.04075242 0.03484118 -0.12071225 0.07975644
0000e0 e1 e1 a0 3e 00 d1 4b 3d 9f 38 ce 3d 26 1c 18 3e
       0.31422332 0.049759865 0.10069393 0.14854488
0000f0 96 df dc bd 5a c0 15 be 8f 78 b6 3e 54 34 6a 3e
       -0.10784833 -0.14624158 0.35638854 0.22871524
000100 07 79 ce 3d f9 e9 ba 3d 56 70 af 3d de a2 ac bd
       0.10081678 0.09126658 0.08566348 -0.08429502
000110 b4 5f 03 be 9b bb 06 bd 62 56 c5 3c 7d 7b 09 3d
       -0.12829477 -0.03289376 0.024089042 0.033565033
000120 a7 f1 1b be 5d ee 69 be 76 9c 58 3d 04 50 a3 bc
       -0.15228902 -0.22844835 0.052883588 -0.019935615
000130 67 b5 cc 3d a3 b7 8d bd 94 c7 5f 3e 53 4e 3d 3d
       0.09995537 -0.069197915 0.21853477 0.046217274
000140 ec a0 a2 bd b9 23 f7 3d 34 5a 97 3d 85 a2 35 3d
       -0.0794085 0.120673604 0.07390252 0.044344444
000150 ce a2 cf 3e d2 46 78 3d 4d ca a9 3e c2 78 a2 3c
       0.40553898 0.060614415 0.33162156 0.019832972
000160 37 75 cf 3c 8e d9 a1 3c e8 6a 72 3e 01 56 26 bd
       0.025324447 0.019757058 0.23673594 -0.040609363
000170 88 99 a3 3b d8 f9 36 3e 9e 99 48 bd ce a1 e7 bd
       0.0049926676 0.17868745 -0.048974626 -0.11310159
000180 4f a0 39 bb cd 04 e1 3e 34 3c 8c bd 5a 3f f1 3b
       -0.002832431 0.43948975 -0.0684742 0.0073622884
000190 e1 99 d7 bd d6 ef 9c 3a b8 86 a5 be 21 2e d7 3d
       -0.10527397 0.0011973332 -0.32329345 0.10506845
0001a0 dd 88 c8 bd 00 92 de bc d3 cc 88 bd 75 4e 8d be
       -0.097917296 -0.027169228 -0.06679692 -0.2759892
0001b0 05 6b 83 be 38 72 29 be c7 d9 6d 3b e3 3d 8e be
       -0.25667587 -0.16547477 0.0036293135 -0.2778159
0001c0 82 66 5a bd 96 7c ab bd 56 f2 98 3c 8f b6 18 bd
       -0.053320415 -0.08373372 0.018670242 -0.037283476
0001d0 60 2e 65 be e8 81 ba bd 02 7e 68 bd 52 21 03 be
       -0.22380972 -0.09106809 -0.056760795 -0.1280568
0001e0 71 33 37 be bf 11 55 be 0e b9 54 bd 52 33 ce bd
       -0.17890717 -0.20807551 -0.051934294 -0.10068382
0001f0 58 4d b2 bd 94 50 38 be 95 27 04 3d 74 ef e8 3b
       -0.087061584 -0.17999488 0.03226431 0.007108623
000200 26 08 ab bd db 0a 2a bd c4 54 fb bd 1d 61 1d be
       -0.083511636 -0.04151426 -0.12272027 -0.15369077
000210 54 2f d3 bd fe ed 4f be e3 d6 99 3b c1 4e 12 be
       -0.103117615 -0.2030563 0.004694806 -0.14287855
000220 6c 7a 4d 39 ff fc 9d bd d5 c9 c6 ba 40 5f 04 3c
       0.00019595929 -0.07714271 -0.0015166352 0.00807935
000230 60 e8 af bd 10 d8 4b be 68 69 96 bd cc 28 68 bd
       -0.08589244 -0.1990664 -0.073443234 -0.056679532
000240 f8 9c 20 bc 7d ce 95 bd cb 0b 27 be 0d 6b 2b be
       -0.009803049 -0.07314775 -0.16313092 -0.16740055
000250 56 72 71 bd 38 00 dc ba c7 dc da bd 36 75 82 3d
       -0.05894693 -0.0016784733 -0.10686641 0.063700125
000260 13 4e f4 bd 12 25 2e be af 8e 45 be 25 e3 26 be
       -0.11928954 -0.17006329 -0.1929271 -0.16297586
000270 31 a4 6f bd 06 22 0b be 64 33 08 be 81 d2 d8 bd
       -0.058506195 -0.13587198 -0.13300854 -0.105870254
000280 d6 34 27 be 4d 63 f4 bd 11 86 2b be 45 c9 56 be
       -0.16328749 -0.119330026 -0.16750361 -0.20975216
000290 a5 fd 58 3d 6f 99 3b be d4 d5 c2 be ed f7 ae 3d
       0.05297627 -0.18320249 -0.38053763 0.08543382
0002a0 9e 66 b8 bc ac 07 9a bd e2 5a 97 bd 42 59 52 bd
       -0.02250987 -0.075209945 -0.073903814 -0.051354654
0002b0 03 95 af bd 0f d2 8c bd 9e f7 d5 bb 91 c4 50 be
       -0.085733436 -0.06876003 -0.0065297624 -0.20387484
0002c0 1f 24 f1 3c 26 32 67 bd ca f6 b0 bd 36 92 fc 3b
       0.02943617 -0.05644431 -0.08640821 0.0077078594
0002d0 4f ef c2 bd 22 bb fa bd 31 07 bd 3d f5 83 86 bd
       -0.09518301 -0.12242724 0.09229887 -0.065681376
0002e0 a8 4a e3 be e3 63 ec bd ee 86 da b9 cb 1f 04 3b
       -0.44392896 -0.115424894 -0.0004168073 0.0020160552
0002f0 82 dc cb bd 51 04 c5 bd 04 45 dd 3d 8f 87 bd bc
       -0.09954168 -0.09619964 0.10804179 -0.023135928
000300 1b 6f 13 3d 33 c2 40 be 50 82 8c 3d ce a3 26 be
       0.03599463 -0.18824081 0.06860793 -0.16273424
000310 ad 9e a8 bd be 81 c6 be 81 21 f2 3c de e6 8a be
       -0.0823339 -0.3877086 0.029556992 -0.27129263
000320 79 fc 4a 3d 10 3e 67 3d 07 ed 62 3b 46 4a a8 bd
       0.049557183 0.05645567 0.0034626143 -0.082172915
000330 ac 1e 5d bc eb 2c a6 3c ea c5 4d 3d c8 ce 09 be
       -0.013496082 0.02028509 0.050237574 -0.13457787
000340 78 75 13 3e 53 aa e1 bb b4 08 c2 bd 2f 6d 5a 3d
       0.1440028 -0.0068867593 -0.09474316 0.05332678
000350 12 86 ed 3d e3 54 91 bd 33 11 9d 3d 1c 2a e6 3d
       0.115978375 -0.07096269 0.07669296 0.112385005
000360 91 2e 47 bd 8b b7 77 bd 90 86 75 3d 20 c9 c0 3c
       -0.048628394 -0.060477775 0.059942782 0.023533404
000370 8b aa 5b 3c 60 92 08 3d 0e b5 0e be e6 b2 5c 3d
       0.01340736 0.03334272 -0.13936254 0.05388155
000380 e0 fd c4 bd ee 9e 14 be d9 e7 8c bd 4f 0b a9 3d
       -0.09618735 -0.14513752 -0.06880159 0.0825411
000390 fa b4 56 bd 88 0f ba bc 2d 67 75 bc f4 26 00 3e
       -0.052418686 -0.022712484 -0.014978212 0.1251486
0003a0 5d 22 f4 bc f7 c0 4a 3d 60 c4 eb 3c 2f 9e 42 3e
       -0.029801542 0.049500432 0.028780162 0.19005655
0003b0 c3 b6 17 be a4 47 07 be 28 e5 8c 3d 68 b0 d2 bc
       -0.14815812 -0.13210922 0.068796456 -0.025718883
0003c0 2b 60 5c 3d c4 06 c6 3d f3 e9 61 3d 0a 28 d5 bd
       0.05380265 0.09669259 0.055154752 -0.104080275
0003d0 27 a0 7e 3d c7 69 1a bd 57 db ba bd 41 fb 47 bd
       0.062164452 -0.037698533 -0.09123867 -0.0488236
0003e0 c1 98 02 3e 52 fd 80 bd c0 1c cd bc 43 3f a6 bd
       0.12753583 -0.06298317 -0.025038123 -0.08117535
0003f0 ad ca 31 3d ce 5f d8 bc b0 0f 17 bd aa a3 cb 3c
       0.043406177 -0.02641287 -0.036880195 0.024858315

lstm.weight_ih_l1 f4 [400, 100]
000000 d0 cb c3 3d 74 1b ff 3d 19 67 c3 bd 55 6a 22 be
       0.095603585 0.12456408 -0.09541149 -0.15860875
000010 7a 76 4a be 2c b6 5e 3e 27 aa bd 3b 60 27 47 be
       -0.19771758 0.2174918 0.005788106 -0.19448614
000020 8a d8 5d 3d 75 06 9d 3e aa e8 97 bd 95 90 86 bd
       0.054161586 0.3066899 -0.07417424 -0.065705456
000030 98 e1 5d be 15 1c 7d 3e fb 00 b8 3d d5 bf f1 bb
       -0.21668088 0.24717744 0.08984562 -0.0073776045
000040 f5 c1 30 3e ca 9f ee 3d 27 98 a3 be 0a be 90 3d
       0.17261489 0.11651571 -0.3195202 0.07067497
000050 c0 e4 02 bd 4e 5e 06 be 1d 74 9b 3e 89 03 63 be
       -0.031956434 -0.13121912 0.30362025 -0.22169317
000060 bd f2 7f be 8c b4 14 be b5 6d 4b be 75 93 3e 3b
       -0.24994941 -0.14521998 -0.19866069 0.002907959
000070 50 fa 92 3d 02 6b db bd 97 e5 96 bb dc 51 97 bd
       0.071766496 -0.107137695 -0.004605006 -0.0738866
000080 f1 3f f4 bc 46 69 ee 3e 32 97 a6 3d e4 03 d8 bd
       -0.029815646 0.46564692 0.08134307 -0.10547617
000090 99 02 0d be f5 b4 82 3d b5 87 68 3e a6 a4 52 be
       -0.13770522 0.06382171 0.22708018 -0.20570621
0000a0 42 35 62 be cf 27 f1 bb 32 cc 0e be 16 62 2c be
       -0.22090629 -0.007359482 -0.13945082 -0.16834292
0000b0 2e fc 07 bd 1e 5f 2c be 0a b8 6f 3e 69 b7 51 3d
       -0.03319948 -0.1683316 0.23410049 0.051200304
0000c0 85 40 2c 3e 58 76 9d 3d d6 08 96 3e 20 d9 db 3d
       0.16821487 0.07688588 0.29303616 0.10734773
0000d0 94 e0 8b be ae 81 99 3e 9b 54 84 3e bf 21 84 3e
       -0.27319777 0.2998175 0.258458 0.25806996
0000e0 c7 a9 b2 be 10 4d a9 3e c9 fc ba 3e b5 e6 37 be
       -0.34895155 0.33066607 0.36520985 -0.17959101
0000f0 39 2a 58 be e8 53 5c be 40 50 f5 bd 47 00 01 be
       -0.21109857 -0.21516383 -0.11978197 -0.12597762
000100 b5 fc af be 49 08 55 3e 3a ef 2e 3d 25 09 80 3e
       -0.34372488 0.20803942 0.042708613 0.25006977
000110 95 e2 1a be c9 4a 3d 3d 9f 0f 2c 3e 6c fe b9 bd
       -0.15125497 0.0462139 0.16802834 -0.0908173
000120 14 00 a7 be 16 c7 92 be ba d3 9b 3e aa 7c 7b 3e
       -0.32617247 -0.28667516 0.30434972 0.24559274
000130 68 dc 62 bd 6f 34 57 3e 36 4f 35 be aa a1 0d 3e
       -0.055385977 0.21016096 -0.17705998 0.13831201
000140 a1 d4 14 be 8f 72 ef 3c ed a3 19 bc 99 8b 26 3e
       -0.14534236 0.02922943 -0.009377462 0.1626419
000150 af 38 97 3d 85 0d ec bd fa 3e 52 be 20 e2 01 3e
       0.073838584 -0.11526016 -0.20531836 0.12683916
000160 7c 61 a4 3d 0d 5e 13 bf 69 62 b8 3d 73 c5 bd bd
       0.08026406 -0.57565385 0.09003145 -0.09266176
000170 ea c9 6f be 1a d8 26 be 4c 3f a2 3e 18 ac 69 3e
       -0.23416868 -0.16293374 0.31688917 0.22819555
000180 e1 01 58 be 88 3d 8a 3e ee 58 c8 bd ca 4d b4 3d
       -0.21094467 0.2700007 -0.09782587 0.088038996
000190 f9 cb 7d 3e 6c 9e 37 bd eb e5 9a bd 3f 0c 18 3e
       0.2478484 -0.044828817 -0.075633846 0.14848422
0001a0 28 50 bc 3e 0e ff 38 3f 17 6c 71 bd 34 b6 4a bd
       0.36779904 0.7226418 -0.058940973 -0.04949017
0001b0 cd 70 a2 be 72 b6 c1 3e 87 6e c1 bd 81 65 af be
       -0.31726685 0.37834507 -0.094449095 -0.3425713
0001c0 31 7a 25 be 87 d3 0c bd fa 91 a0 3e 9f 83 45 3d
       -0.16159894 -0.034381416 0.3136137 0.048221227
0001d0 6c 26 82 bd 91 e4 58 3e 79 54 d7 be b1 93 a0 be
       -0.06354985 0.21180941 -0.42056635 -0.3136268
0001e0 71 43 8e be 2c 9b 2e be 90 5d 00 3f 92 52 d4 be
       -0.2778583 -0.17051381 0.50142765 -0.41469246
0001f0 b3 5a 19 be db b1 f1 be 94 fb a2 be f8 55 73 be
       -0.14976005 -0.47206005 -0.31832564 -0.23763263
000200 c6 eb 42 be fa 58 b1 3d 04 2b 0d 3d fd 73 65 bd
       -0.19035253 0.08659549 0.03446485 -0.05601882
000210 e4 74 7b 3e cd e6 5e 3e 87 7a cd 3d 67 12 75 3d
       0.24556309 0.21767731 0.10033136 0.059832003
000220 ae 78 93 3d 43 b0 f3 3d 29 b3 59 bc 47 5f 1a be
       0.07200752 0.11898854 -0.013287344 -0.15075408
000230 51 5a 03 bf 14 a5 86 be 74 dd 16 bf ee 88 06 3e
       -0.51309687 -0.2629782 -0.5893166 0.13138172
000240 11 5d 1d be ef 78 68 bd 36 90 1e 3d e7 c0 e0 be
       -0.15367533 -0.056755956 0.03871175 -0.43897173
000250 d0 0d 1e 3e 91 8d 05 3e da 0a 83 3d ac 5c 85 3e
       0.15434957 0.13042285 0.06398554 0.26047266
000260 6f 13 d6 be d4 d5 8f bd 21 01 fc 3e 81 8f a0 3d
       -0.41811702 -0.07023206 0.4921961 0.07839871
000270 4f a9 7e bf 66 04 cf 3e 36 71 35 3e 2c ca e8 bd
       -0.99477094 0.40433043 0.17718968 -0.11366686
000280 c0 ff 40 3e fc 91 90 bd ac be 20 3f 9d 15 a8 be
       0.18847561 -0.07059094 0.6279094 -0.3282899
000290 ce 32 10 3d 69 19 9d 3d 00 02 23 be 4a b8 82 bd
       0.0352047 0.07670862 -0.15918732 -0.063828066
0002a0 33 d2 c2 be 87 8f 7c be 9b bd 9b 3c 34 73 dd 3d
       -0.38050994 -0.24664126 0.01901131 0.10812989
0002b0 58 f5 f7 be 37 f5 8d be 99 35 0a 3f bc e2 22 bd
       -0.4842937 -0.27726147 0.53988034 -0.039767012
0002c0 37 18 e5 bd f7 74 e9 3e 95 24 38 be e8 8d f6 bd
       -0.11186259 0.4559705 -0.17982705 -0.12038785
0002d0 e0 bf 05 3e 67 c2 bc be ad 18 37 3d 14 86 22 3f
       0.13061476 -0.36867067 0.044701267 0.63485837
0002e0 6b d0 5a 3e e2 62 12 be 58 e1 47 3e 32 53 7a 3e
       0.21368568 -0.14295533 0.19519556 0.24445799
0002f0 e5 1d b5 be 75 8a 5d be c3 f2 62 3e ed c0 b4 be
       -0.3537437 -0.21634848 0.22162919 -0.3530344
000300 5e b7 3b bd 8e 70 28 be 86 38 da 3e d5 17 b4 3e
       -0.04582917 -0.16449186 0.4262125 0.35174432
000310 46 c8 27 be 8e 6e b5 3d 95 93 31 bd da a0 43 3e
       -0.16384992 0.08858977 -0.043353636 0.19104329
000320 6c 3c b2 bd d1 9c b1 3e 84 99 c6 3d 00 a2 d4 3d
       -0.08702931 0.34689954 0.096972495 0.103824615
000330 c3 f9 57 bd 7e 33 29 3e 68 69 a9 3b 12 72 03 bc
       -0.052728426 0.16523549 0.005170036 -0.008022802
000340 e3 30 58 be 93 5d 22 3e 34 5f 81 be e2 ef 2b 3e
       -0.21112399 0.15856008 -0.25267947 0.16790727
000350 25 0f b1 3e 5c 03 bb be 51 84 c8 3d 51 a4 49 3d
       0.34581867 -0.36526 0.09790862 0.04922897
000360 d1 40 3e be c2 3c ad 3e 8c 59 a5 be ad 82 d4 bb
       -0.18579413 0.33835417 -0.3229488 -0.0064853043
000370 cd bd f4 bb 3d ab 7e 3e be 73 86 3c f6 bc 7c bd
       -0.007468915 0.2487001 0.016412612 -0.061703645
000380 6d 06 92 be 87 d9 1d bf 7e 6b b0 3c 13 ad da be
       -0.28520527 -0.61660045 0.021535631 -0.4271017
000390 a5 97 40 3e bd 6b 35 be 9e b3 86 3d f5 53 76 be
       0.18807848 -0.1771688 0.06577228 -0.24055465
0003a0 c7 a9 f0 bd 54 87 45 be f7 42 84 3e 6c cb c4 3c
       -0.117511325 -0.19289905 0.2583234 0.02402278
0003b0 c6 5d 7f be 3a 2c 5d 3d 07 4f 4d bc 2a b4 19 be
       -0.24938115 0.053997256 -0.012531049 -0.15010133
0003c0 d5 e6 07 3f 02 c9 58 3e 3a 42 00 3e e0 d8 f7 be
       0.53086597 0.21170428 0.12525263 -0.4840765
0003d0 85 01 84 3c 8f 50 a3 be e0 7b 2f bf a8 ac 81 3e
       0.016114006 -0.318974 -0.68548393 0.2532704
0003e0 73 2b 13 3f 65 d8 2c 3e b8 fa a6 3e 8f 71 cb bc
       0.57488173 0.16879423 0.32613158 -0.024834422
0003f0 dd af 3f bf 5e e2 44 bd fc 1d ae 3e 99 0d 8a 3e
       -0.7487772 -0.048067443 0.3400725 0.269635

lstm.weight_hh_l1 f4 [400, 100]
000000 55 8a 1a be 1f 07 95 3d 00 33 0a 3e 81 5d 13 3e
       -0.15091832 0.07276749 0.13496017 0.14391138
000010 40 fc 9b 3d b9 0d 21 3d 1c b3 7f 3d 99 17 ef bd
       0.07616472 0.039319728 0.06242667 -0.11674423
000020 cf 50 9b 3b f4 82 98 bd a2 38 9f 3c e0 3d 51 bd
       0.0047398577 -0.07446852 0.019436184 -0.0510844
000030 ca a7 77 3c 90 8f 52 bd 41 11 df bd e3 ee ae 3d
       0.015115688 -0.051406443 -0.10891963 0.08541658
000040 e2 5e 42 be 32 89 c1 bc fc 6b 4e be 02 6c 04 3e
       -0.18981507 -0.02362499 -0.2015838 0.12931827
000050 f7 53 45 bc 6d 22 7b 3e 13 62 22 3e ac 50 87 3c
       -0.012043945 0.24524851 0.15857725 0.01651796
000060 0f 1f 95 3d f5 40 13 3e 8d c3 0b be 1e 54 6e 3d
       0.072813146 0.14380248 -0.13648815 0.05818569
000070 4c 78 45 3e f6 fd 01 3e 87 76 5a 3c 5f 8b 00 be
       0.19284171 0.12694535 0.013333923 -0.12553166
000080 20 22 c4 bd 0f b3 fe bd 72 e2 b7 bd cb 46 a2 bd
       -0.09576821 -0.124364965 -0.08978738 -0.07923659
000090 e3 93 02 3e b9 01 64 bd 8d d2 06 be bc fe 25 3d
       0.12751727 -0.055665705 -0.13166256 0.040526137
0000a0 2f ad 19 3d 3c eb 8f 3d e4 f6 cb 3c 4e c4 fd 3d
       0.037518676 0.07027289 0.024898 0.12390958
0000b0 f0 f7 97 bd e0 53 c8 bd b9 2f 88 3d 46 c6 b6 3c
       -0.07420337 -0.09781623 0.066497274 0.022311341
0000c0 a2 2d b3 3c 10 58 fc 3d 9e 4f 0d 3d cd a7 1e 3e
       0.021872345 0.12321484 0.034499757 0.15493698
0000d0 53 07 e3 3d d9 ad c7 3b 29 41 6e 3d b0 08 16 3d
       0.11085381 0.0060937223 0.05816761 0.03662938
0000e0 cd f1 12 3e a0 55 26 3e 9d 08 15 bd 6f 8f d0 bd
       0.14350052 0.16243601 -0.036385167 -0.10183608
0000f0 2e e7 b0 ba b5 a4 c6 bd c6 05 6f 3d dd fe 2f 3d
       -0.0013496631 -0.09699384 0.058355115 0.042967666
000100 22 02 5c 3e 46 dd 37 bd 57 d7 13 3e 7b 25 ce 3d
       0.21485189 -0.044888757 0.14437614 0.100657426
000110 32 68 ec 39 45 e4 8b bb 5a ed b4 3c 76 7d 4a 3c
       0.0004509106 -0.004269155 0.022085834 0.012359014
000120 f2 ad 86 3b 63 48 85 3c 06 fb fa bd ba 59 3c 3e
       0.0041100914 0.016269868 -0.1225491 0.18393603
000130 29 3b 95 bc 33 8c 5b 3d 2f e6 09 be fb 81 30 bd
       -0.018216686 0.0536005 -0.13466714 -0.04309271
000140 36 0b cb bd 8e a7 dc 3c e0 a0 bb 3c 3d 88 0a bd
       -0.09914248 0.026935365 0.02290386 -0.033821333
000150 3b 14 1f 3d 9a 49 17 be e8 48 b1 3d d2 de 00 be
       0.038837653 -0.1477417 0.08656484 -0.12584999
000160 6e 3d 98 3a 0c e1 9b 3d cb e1 9b 3d f1 38 c1 3b
       0.0011614987 0.07611284 0.07611426 0.0058966805
000170 59 58 3f bd 95 a9 84 3d f4 c4 6b 3d 0e 24 37 bd
       -0.046715114 0.06477658 0.057560876 -0.04471212
000180 05 83 cc 3d 0e 35 d8 3d c1 a1 84 bd ca 17 07 bd
       0.099859275 0.105569944 -0.064761646 -0.03298167
000190 2a bb d0 3d e7 32 a0 3e da 6f 15 3d 73 83 5c be
       0.10191949 0.31288835 0.036483623 -0.21534519
0001a0 ec 6a b0 3d b7 3d af bd 85 e8 b1 bd 48 69 f6 bd
       0.08614144 -0.08556693 -0.08686928 -0.120317996
0001b0 f8 d7 31 3d ec c6 3c 3d 53 01 5d 3e 83 37 bb bd
       0.043418854 0.046088144 0.21582536 -0.091414474
0001c0 56 ca a0 3d 2d 87 68 3e af 66 d8 bd 27 52 a4 bc
       0.078510925 0.22707815 -0.1056646 -0.020058705
0001d0 3a 32 c9 be 46 22 76 3c d0 44 ae 3d 85 21 1c 3e
       -0.39296132 0.01502282 0.08509219 0.15247162
0001e0 c2 5b 55 3b f9 90 0c 3e 9c 10 00 3d aa 2d 01 3e
       0.0032555913 0.13727178 0.03126584 0.12615076
0001f0 d7 25 52 bd 1f 7d 09 3e dd e2 82 3d f1 a0 f1 3d
       -0.051305618 0.13426636 0.06390927 0.11798275
000200 e7 f7 9d 3d 1f b4 bf bc ca ce 0a 3e 25 62 33 3e
       0.07713299 -0.023401318 0.13555446 0.17517908
000210 05 f6 dc 3e 32 35 d5 be 64 a5 8e 3e de 76 d5 bd
       0.43156448 -0.41642147 0.27860558 -0.10423063
000220 7e 67 2b bb 32 4f 5c 3e 3e 9a 7f 3d c3 c5 c7 bd
       -0.0026154215 0.21514586 0.062402956 -0.09754517
000230 18 2f ab 3c 6d cf e4 bd 80 1f e5 3d fa 5e 33 be
       0.02089648 -0.11172376 0.11187649 -0.175167
000240 a5 2a 5a 3e 43 0c 65 3d 18 1a 02 3d 0c 73 bc 3d
       0.2130533 0.055919897 0.031763166 0.09201631
000250 e0 a5 79 3d da 19 90 3e 00 96 ae 3d de 21 3a be
       0.060949206 0.28144723 0.08524704 -0.18176982
000260 30 b4 4a 3e 90 9b 12 3e 0d 32 16 3e 6a 99 bf 3d
       0.19795299 0.14317155 0.1466753 0.09355433
000270 e7 dd 5a 3e c0 7b 06 3e 38 0e 0f be 3d ec a9 bc
       0.21373712 0.13133144 -0.13970268 -0.02074253
000280 ac 98 e4 bd 53 3a ba 3d 5b e1 4e 3e 09 32 0a bd
       -0.11161932 0.09093156 0.20203154 -0.033739123
000290 69 96 c0 bd 6e 05 80 3d d1 57 45 bd 13 10 5d be
       -0.094036885 0.06251036 -0.04817945 -0.21588163
0002a0 15 e5 cc 3c ce 43 2f 3e 75 51 55 3c df 15 b3 bd
       0.025011579 0.17115709 0.013019909 -0.08744406
0002b0 c7 ca 48 38 29 35 cc bd da 48 76 bd 0b 63 b8 be
       4.7872567e-05 -0.09971077 -0.06012807 -0.36013064
0002c0 71 6b ee bd 10 ea a0 be 6a 62 e9 3d 28 80 26 3d
       -0.116415866 -0.31428576 0.11395724 0.040649563
0002d0 ac 83 cc bd cf b3 dc be 8d a3 22 3e c1 16 0d be
       -0.09986052 -0.43105933 0.15882702 -0.13778211
0002e0 52 00 06 3e 3b 7f 9d bd 47 7b 2c be 71 74 02 3e
       0.1308606 -0.07690283 -0.16843902 0.12739731
0002f0 c5 f7 d3 3b 5e 19 0d 3d 1c e1 a5 3d 3d e1 96 bb
       0.0064687454 0.03444802 0.08099577 -0.004604487
000300 69 32 18 be c7 19 2c 3e e3 12 28 3e ec 5a 58 bd
       -0.1486298 0.16806708 0.16413455 -0.052821085
000310 73 6b 39 bd 89 15 c1 3d 6a d5 bc 3d 81 17 66 be
       -0.045268487 0.09427936 0.09220393 -0.22469904
000320 93 b6 52 be 2f 78 86 3d 9f 06 ff be 3f 13 2f 3e
       -0.20577459 0.06565892 -0.4980974 0.17097186
000330 61 c1 66 be 42 76 96 be be c9 87 bc 6a 3f fd 3e
       -0.22534706 -0.293871 -0.01657569 0.49462444
000340 fd 8e 4a 3e 09 ee 82 3e 00 0a 0c 3f 76 ad e5 bc
       0.19781108 0.2557223 0.5470276 -0.028036814
000350 9f b1 14 3e 5f 30 20 be 4d 57 91 3e 5d ff 43 be
       0.14520882 -0.15643452 0.28386918 -0.19140382
000360 1d 7d a4 3e 80 ab 1b 3e c2 26 20 3c 93 ce 93 3e
       0.32126704 0.15202141 0.009774866 0.2886854
000370 2d 80 21 bd 8b 0f fb 3d 37 a3 e5 bd 2f fd 44 be
       -0.03942888 0.12258824 -0.112127714 -0.19237207
000380 6f 29 14 bd 53 51 cb 3c 39 d0 f8 3d a8 4a 43 bd
       -0.036172327 0.024819052 0.1214909 -0.04767862
000390 79 91 bf bd 9c 5b bd bc 49 b9 30 3d da b0 ba bd
       -0.093539186 -0.023114972 0.04314545 -0.09115763
0003a0 d0 09 81 be a5 74 66 3e 97 aa 2e bd be 61 1c be
       -0.252028 0.22505434 -0.042643156 -0.1527166
0003b0 8f 02 53 be 28 ca 9c 3d a4 3e 47 3d 19 44 20 bd
       -0.20606445 0.07655746 0.048643723 -0.039127443
0003c0 3a f4 42 3d 7f 8d e9 3d af 0b 3f 3d 46 39 0a 3e
       0.047596194 0.11403941 0.046642 0.1349841
0003d0 81 87 38 be dc 5e 5b 3e 70 d9 62 3d d5 48 26 bd
       -0.1802044 0.21422905 0.055383146 -0.0405968
0003e0 ce a7 5e 3d 71 a9 b6 bd 26 cd 76 bd fd e5 f4 3d
       0.05435925 -0.08919037 -0.06025424 0.11957929
0003f0 f8 7c a0 3e 58 21 f6 bd c3 51 50 3e 55 80 69 be
       0.31345344 -0.120180786 0.2034369 -0.22802861
