models/GeneratedData/detailed_list_of_contacts_Hospital/state_dict.pt (torch_old, 507420 bytes, 10 tensors)

embedding.weight f4 [76, 10]
-0.5023714 -1.7988517 2.5084727 1.4857829 -0.10234337 -0.039424475 0.18096964 -0.7004149
1.434541 0.7900264 0.20965646 -0.2885386 2.2548673 -0.12861283 0.14396937 -0.23088299
0.50619787 -1.6854687 2.0652664 0.033476163 1.9972404 -0.5441817 0.48196265 -1.9062995
-0.24059163 1.1944455 -0.14000444 -0.9833149 2.3966107 0.11525033 0.06661017 0.3910637
-2.373572 -2.0756009 0.12124041 0.092510596 0.35960665 0.502725 2.0358994 1.9660052
-0.0716214 -1.0145485 2.0773392 -0.19716278 -0.04331453 -0.8415765 1.0336453 2.2199054
-0.7438294 1.9362668 -2.298895 -0.16281186 0.61716986 1.0260655 -1.7352427 -0.027855413
-0.996269 0.48047185 0.056983706 0.55777985 0.4988621 0.61408746 2.804122 0.352063
1.8616552 1.0308248 0.88776946 0.76086324 -1.3185848 -1.0473616 1.9145659 -2.22711
0.0006336466 1.4475762 0.56446993 -0.4029995 1.2919365 1.3715018 -0.2664291 -1.7647434
0.68253934 -1.4326062 -1.9644161 1.8899524 -0.6586028 0.27573377 0.22016527 -0.005310049
1.0676118 -0.9691365 0.42566735 -0.42586052 -1.4465884 1.4766388 1.597753 -1.1105257
-0.62541187 -1.767503 -1.4753873 0.73010224 -1.1859719 -0.23209356 -0.27862355 1.5827761
1.34998 1.6060821 2.1894414 -0.74064964 2.123636 -0.94281685 0.7910746 -1.1476834
0.88532203 0.18697166 -1.2567216 -1.7545778 -0.06955354 -0.5839569 -0.34781668 1.7153951
-1.73239 -0.44447324 -0.46799272 -1.5729716 -0.7682883 -2.5455241 -1.536246 0.6445579
0.05487638 -1.3119148 0.328447 -0.19515587 1.6032606 0.2053963 0.8706118 0.87929994
-1.3761394 0.58210915 0.6739989 1.288063 -1.1489291 2.436792 -0.40662342 0.51316947
1.0802581 -2.1748772 1.2564111 0.02425657 -0.5706888 1.7679198 -0.4765629 0.8848587
-0.39048642 -0.8944351 0.3223389 -1.3342267 0.7249822 -1.5713028 2.2320774 2.6733694
-2.2819386 -0.92486846 0.42606637 2.531914 1.1375011 -2.5526292 1.1236159 0.5514754
-0.4079365 -0.20716722 -0.45714104 -0.012686289 -0.09848036 0.2480055 -1.0510643 1.4595068
-1.224773 -0.08067693 -0.5280592 1.3541509 -2.3293104 1.6193949 -0.39453998 1.1035185
-0.039801534 -0.7600571 1.0441867 -1.972941 -2.2625053 1.4480163 1.2326063 0.6705495
0.41692808 0.8154255 0.15742555 -2.215325 1.2149391 0.1439321 0.83666366 -1.1668606
-1.2285804 -1.8807791 0.5971079 0.72416323 1.2744563 -0.1355264 -1.2745259 0.7674621
0.7797727 -0.18881774 1.1194496 1.4631523 0.26434347 0.8788413 1.9732256 -0.033359405
-1.8558223 1.0339296 -0.58554083 0.51225054 1.259664 0.5929242 -0.060867023 -0.7126503
0.1223269 1.1782979 0.0036498476 2.0425382 3.1898773 0.04465125 -1.6438339 0.021680243
-1.134761 -1.6137174 1.8712056 -1.2176687 1.2097334 0.64983034 -0.6457877 0.44421408
0.33762833 0.4877106 -0.002262206 0.2420523 0.9434118 -0.6564624 1.9768181 1.5496988
0.06481233 1.0310612 1.4702506 -0.14277333 -0.72228086 0.37964183 0.3235299 -0.9165517
00000000: 699b 00bf c640 e6bf d18a 2040 222e be3f
00000010: 6799 d1bd 8f7b 21bd 1b50 393e 644e 33bf
00000020: 0a9f b73f 2c3f 4a3f 2fb0 563e 55bb 93be
00000030: bf4f 1040 15b3 03be b56c 133e 976c 6cbe
00000040: 2f96 013f 70bd d7bf 532d 0440 4d1e 093d
00000050: 93a5 ff3f 7e4f 0bbf cfc3 f63e 9f01 f4bf
00000060: a75d 76be 97e3 983f 535d 0fbe 86ba 7bbf
00000070: 1262 1940 5d08 ec3d ea6a 883d 8039 c83e
00000080: 9be8 17c0 a5d6 04c0 e44c f83d 3276 bd3d
00000090: 5d1e b83e 96b2 003f 2d4c 0240 0fa6 fb3f
000000a0: 3eae 92bd badc 81bf 20f3 0440 0ae5 49be
000000b0: 946a 31bd 8f71 57bf 7d4e 843f ee12 0e40
000000c0: 9b6b 3ebf 97d7 f73f 1821 13c0 27b8 26be
000000d0: d8fe 1d3f 1d56 833f 6f1c debf 0931 e4bc
000000e0: 7c0b 7fbf 6800 f63e bf67 693d a9ca 0e3f
000000f0: da6a ff3e d634 1d3f bc76 3340 9a41 b43e
00000100: b84a ee3f 11f2 833f dc44 633f efc7 423f
00000110: 63c7 a8bf f20f 86bf 7f10 f53f f888 0ec0
00000120: 4e1b 263a 2d4a b93f 1a81 103f f355 cebe
00000130: 2d5e a53f 5f8d af3f 6569 88be 1de3 e1bf
00000140: e6ba 2e3f a45f b7bf fd71 fbbf f6e9 f13f
00000150: 319a 28bf fa2c 8d3e 0173 613e ebff adbb
00000160: 81a7 883f 5419 78bf 12f1 d93e 640a dabe
00000170: cf29 b9bf 8002 bd3f 2c83 cc3f b525 8ebf
00000180: fe1a 20bf 8a3d e2bf 7ed9 bcbf fbe7 3a3f
00000190: edcd 97bf efa9 6dbe bfa7 8ebe 6898 ca3f
000001a0: 25cc ac3f 1994 cd3f cf1f 0c40 379b 3dbf
000001b0: a7e9 0740 725c 71bf dd83 4a3f 4ae7 92bf
000001c0: 77a4 623f 8075 3f3e 41dc a0bf 0196 e0bf
000001d0: 1672 8ebd 337e 15bf 0715 b2be 1192 db3f
000001e0: f5be ddbf ff91 e3be be9c efbe 2257 c9bf
000001f0: 8bae 44bf dee9 22c0 b5a3 c4bf bf01 253f
00000200: 0ec6 603d d3ec a7bf 352a a83e f1d6 47be
00000210: a537 cd3f 6853 523e 6ae0 5e3f cd19 613f
00000220: 5625 b0bf 1b05 153f 318b 2c3f 40df a43f
00000230: 1c10 93bf 66f4 1b40 f230 d0be 135f 033f
00000240: e645 8a3f 3031 0bc0 14d2 a03f b7b5 c63c
00000250: a918 12bf 324b e23f 0d00 f4be 1a86 623f
00000260: d6ed c7be b3f9 64bf 9b09 a53e f1c7 aabf
00000270: 6f98 393f 7320 c9bf 5bda 0e40 7c18 2b40
00000280: 480b 12c0 2ec4 6cbf 5f25 da3e e10a 2240
00000290: a399 913f 475e 23c0 a5d2 8f3f 7e2d 0d3f
000002a0: 0edd d0be a523 54be 640e eabe 27da 4fbc
000002b0: 12b0 c9bd 27f5 7d3e 4689 86bf 1ed1 ba3f
000002c0: 5dc5 9cbf f239 a5bd e32e 07bf d154 ad3f
000002d0: 6c13 15c0 5548 cf3f 2501 cabe 1840 8d3f
000002e0: ef06 23bd 1a93 42bf e9a7 853f 5589 fcbf
000002f0: e3cc 10c0 9958 b93f 0bc6 9d3f 22a9 2b3f
00000300: 9977 d53e babf 503f 2a34 213e e3c7 0dc0
00000310: 2083 9b3f f062 133e 972f 563f b05b 95bf
00000320: 1f42 9dbf 5fbd f0bf 10dc 183f c362 393f
00000330: 6221 a33f 6fc7 0abe aa23 a3bf 6578 443f
00000340: 2f9f 473f 7059 41be 204a 8f3f 9348 bb3f
00000350: 0758 873e befb 603f a892 fc3f dfa3 08bd
00000360: 968b edbf ce57 843f 01e6 15bf da22 033f
00000370: ac3c a13f e1c9 173f b34f 79bd 4070 36bf
00000380: 8786 fa3d 77d2 963f 4832 6f3b f2b8 0240
00000390: f326 4c40 3be4 363d 2669 d2bf c49a b13c
000003a0: d93f 91bf 4b8e cebf aa83 ef3f 91dc 9bbf
000003b0: 8bd8 9a3f 485b 263f 5852 25bf 0770 e33e
000003c0: 9fdd ac3e 34b5 f93e 8541 14bb 8fdc 773e
000003d0: 7083 713f eb0d 28bf 6008 fd3f 885c c63f
000003e0: 54bc 843d d0f9 833f 2c31 bc3f 2c33 12be
000003f0: 66e7 38bf 6a60 c23e b6a5 a53e 22a3 6abf

lstm.weight_ih_l0 f4 [400, 10]
0.2401311 -0.02049192 0.08877603 -0.14230661 -0.044098534 -0.18968892 0.34320197 0.6093444
0.01053458 0.5488543 0.28815153 -0.468648 0.2620274 -0.16917929 0.25459108 -0.25962275
-0.0065587154 0.06271107 -0.09156244 -0.7174295 0.20878753 -0.32008377 -0.11784868 -0.15554334
-0.2283728 0.20588809 -0.011005344 0.73284316 -0.02553343 -0.3801102 -0.4761863 0.073991984
0.14656706 -0.011436036 -0.6458955 -0.2804831 -0.2968703 0.12256433 0.014258221 -0.26245943
0.013532724 0.16287622 0.14947787 -0.0066767884 -0.16151194 -0.0676512 -0.312351 0.26872784
-0.7860722 -0.20059757 0.044822518 0.085309096 0.06002039 -0.10059946 0.5731523 -0.14766741
-0.068083666 0.15831736 -0.08976619 0.25075158 0.04523307 -1.0377593 -0.00018897961 0.073098235
-0.12677051 0.18892144 -0.52635914 0.16536811 -0.15286423 -0.63956994 0.14185476 -0.14311779
-0.3331266 -0.052251395 0.26988715 -0.13312213 0.044247158 0.11775401 0.3058163 -0.122494526
0.01640376 0.0013075445 0.07112915 0.09075509 0.7040987 -0.42455032 -0.32248598 0.008786759
0.36342588 0.53074557 -0.37060156 -0.7927018 0.16189903 0.4566222 -0.24084328 0.045886323
0.14677155 0.18901728 -0.37745795 0.45018485 0.07422361 -0.061265193 0.16649382 -0.80271566
0.6617896 0.53787875 0.04030072 -0.07867507 0.23676696 1.0034732 0.5732249 0.37169942
-0.17180052 -0.46565545 0.53953123 -0.38190266 0.13652465 0.22538374 0.016745484 -0.22135404
0.005917927 0.34695026 -0.41078904 0.52725023 -0.07761822 0.032629948 0.6298309 0.21658377
0.50340813 -0.4498104 0.02268228 -0.14487417 0.113789566 0.16049679 -0.44777855 -0.6998662
0.074649855 -0.4761745 0.2181126 -0.047487035 -0.39317945 -0.22075789 -0.5113469 0.043846514
-0.4615514 0.12704515 -0.19951025 0.24825472 0.20477295 0.03089285 -0.10419303 -0.39452416
0.8314568 -0.017946873 0.9031027 -0.038811613 -0.071964346 -0.5504332 -0.028061366 -0.24017464
0.28216946 -0.08596245 -0.44235745 0.25885153 0.045662213 0.17912336 -0.48268756 -0.26833588
0.039487828 -0.3775058 -0.15229498 0.27461696 0.20515493 -0.08448971 0.28664955 0.06035043
0.2406067 -0.33436027 -0.026007863 0.34143576 -0.011974319 -0.226339 0.083677806 0.24868481
-0.209583 0.2637852 0.21383587 -0.5001637 -0.13926618 0.2206129 0.2723062 -0.20032075
0.15018463 -0.28026274 -0.4830075 -0.050869487 0.11903846 0.5875268 0.14907764 -0.5840731
0.21860221 -0.38110018 0.16946602 -0.26823482 0.25914013 0.6024205 -0.47746807 0.25546804
0.3608177 -0.08537306 -0.31862903 -0.5701603 -0.37612197 -0.2732598 0.18209821 -0.2490555
-0.28972194 0.5726771 0.20879667 0.61182034 -0.27441534 0.5368997 -0.31641987 -0.3441271
-0.3734001 -0.079394504 0.036693245 0.52889884 0.17427397 0.02300393 -0.083046295 0.75786537
0.4015103 -0.026883528 0.090128966 -0.20565419 -0.17256407 0.02705527 -0.31602544 0.38410053
-0.23272479 -0.026361743 -0.34367347 -0.1350411 1.1000241 0.83773774 0.3629221 -0.28363726
-0.064384356 0.6720744 0.2291803 0.7878526 0.5585021 0.10220142 -0.2715063 -0.53177583
00000000: ede4 753e acde a7bc 35d0 b53d d3b8 11be
00000010: aaa0 34bd d03d 42be 2bb8 af3e fffd 1b3f
00000020: 3b99 2c3c b781 0c3f 9988 933e a1f2 efbe
00000030: 7528 863e 563d 2dbe c359 823e 46ed 84be
00000040: 7eea d6bb a96e 803d 1785 bbbd 76a9 37bf
00000050: 66cc 553e 05e2 a3be a65a f1bd c146 1fbe
00000060: 8fda 69be 54d4 523e c24f 34bc 9c9b 3b3f
00000070: 7c2b d1bc ce9d c2be b1ce f3be 1c89 973d
00000080: ad15 163e 365e 3bbc 6859 25bf 7b9b 8fbe
00000090: 62ff 97be 0203 fb3d 509b 693c 1561 86be
000000a0: 5cb8 5d3c 06c9 263e ba10 193e f6c8 dabb
000000b0: 6363 25be b68c 8abd 78ec 9fbe b296 893e
000000c0: 073c 49bf 7369 4dbe d197 373d 89b6 ae3d
000000d0: f1d7 753d 1707 cebd 1cba 123f 2036 17be
000000e0: 736f 8bbd f21d 223e 56d7 b7bd 8362 803e
000000f0: 5046 393d 4cd5 84bf d428 46b9 87b4 953d
00000100: 21d0 01be 9f74 413e 79bf 06bf 4256 293e
00000110: 7188 1cbe dbba 23bf 6042 113e 788d 12be
00000120: 928f aabe 8f05 56bd a62e 8a3e 2b51 08be
00000130: 823c 353d 0429 f13d f493 9c3e 69de fabd
00000140: 2e61 863c ea61 ab3a 29ac 913d cedd b93d
00000150: d03f 343f a95e d9be e21c a5be 57f6 0f3c
00000160: f512 ba3e f1de 073f 7dbf bdbe 81ee 4abf
00000170: dcc8 253e 63ca e93e 9f9f 76be 4cf3 3b3d
00000180: 484b 163e bf8d 413e 2b42 c1be a17e e63e
00000190: 8c02 983d 36f1 7abd 5b7d 2a3e c67e 4dbf
000001a0: 0b6b 293f 6cb2 093f 5e12 253d 6520 a1bd
000001b0: 0a73 723e cf71 803f debe 123f 634f be3e
000001c0: 7aec 2fbe 646a eebe b81e 0a3f bf88 c3be
000001d0: 1ecd 0b3e ffca 663e d32d 893c a2aa 62be
000001e0: 2beb c13b 77a3 b13e f152 d2be dff9 063f
000001f0: 4df6 9ebd fba6 053d 993c 213f 23c8 5d3e
00000200: 5bdf 003f 8c4d e6be 30d0 b93c e559 14be
00000210: 810a e93d 4559 243e 3b43 e5be 6e2a 33bf
00000220: 06e2 983d 25cd f3be e958 5f3e c481 42bd
00000230: d14e c9be 5b0e 62be a1e7 02bf 6798 333d
00000240: 7750 ecbe 2018 023e 6a4c 4cbe 7c36 7e3e
00000250: 00b0 513e 0113 fd3c 2863 d5bd 12ff c9be
00000260: 5ada 543f 5205 93bc bd31 673f edf8 1ebd
00000270: 0b62 93bd 31e9 0cbf f3e0 e5bc 57f0 75be
00000280: 8478 903e 150d b0bd ad7c e2be 3088 843e
00000290: 4d08 3b3d 1d6c 373e d322 f7be 5263 89be
000002a0: fdbd 213d 7148 c1be 37f3 1bbe 989a 8c3e
000002b0: 2214 523e f108 adbd bbc3 923e 0332 773d
000002c0: 9a61 763e 4531 abbe 710e d5bc abd0 ae3e
000002d0: ef2f 44bc 69c5 67be 455f ab3d 3ba7 7e3e
000002e0: ed9c 56be db0e 873e caf7 5a3e ba0a 00bf
000002f0: cb9b 0ebe 59e8 613e b86b 8b3e e220 4dbe
00000300: 00ca 193e 997e 8fbe c24c f7be 865c 50bd
00000310: 70ca f33d 2868 163f cfa7 183e d185 15bf
00000320: 42d9 5f3e 901f c3be 8088 2d3e 1356 89be
00000330: 04ae 843e 3b38 1a3f b276 f4be b5cc 823e
00000340: 19bd b83e 12d8 aebd 5823 a3be 07f6 11bf
00000350: 0f93 c0be b5e8 8bbe f477 3a3e 6808 7fbe
00000360: 6f56 94be f79a 123f cbce 553e 42a0 1c3f
00000370: 2b80 8cbe 4272 093f c901 a2be 6d31 b0be
00000380: 4c2e bfbe 9699 a2bd a84b 163d ea65 073f
00000390: e074 323e bd72 bc3c 2d14 aabd 7703 423f
000003a0: c292 cd3e d83a dcbc 8995 b83d 0397 52be
000003b0: a3b4 30be 03a3 dd3c 16ce a1be d3a8 c43e
000003c0: 684f 6ebe 95f4 d7bc f8f5 afbe 3748 0abe
000003d0: 97cd 8c3f fb75 563f edd0 b93e e738 91be
000003e0: f2db 83bd 110d 2c3f 3eae 6a3e b5b0 493f
000003f0: fef9 0e3f fa4e d13d e002 8bbe 7622 08bf

lstm.weight_hh_l0 f4 [400, 100]
0.7497276 -0.28517786 -0.20908633 -0.09468475 -0.21569714 0.002259607 0.4761634 0.03985485
0.11282732 -0.035562757 -0.017103773 -0.61535805 -0.16005833 -0.5593046 -0.5127891 -0.37708318
0.2942592 -0.60821587 -0.1874513 -0.3720559 0.01918722 -0.13899784 -0.029339334 -0.4104241
0.04199676 -0.631859 -0.25051892 1.0995218 0.50582063 0.10983445 -0.10690371 0.52807254
0.5113619 -0.10763717 0.3216239 -0.28708673 -0.5372082 0.044013005 0.44989216 0.016675588
0.12323417 0.06349426 0.29450333 -0.30911478 -0.08273435 -0.09393073 0.36000714 -0.8478527
0.07838692 -0.5856087 0.24894868 -0.1976039 -0.093931794 0.2757099 -0.39171645 -0.32089937
-0.03049707 0.31589407 -0.57965213 0.5196925 -0.0347208 -0.18586268 0.12065479 0.25915802
-0.07411181 -0.07833876 0.05715239 0.33116466 0.076871544 0.17175701 -0.65134877 0.21738657
0.86334366 -0.380258 -0.24654959 -0.2735381 -0.052799325 0.17974472 -0.4176195 -0.19241422
-0.12461542 0.07108497 0.33037418 -0.18068048 -0.13625707 -0.14138697 0.3994815 0.2256292
0.53558403 0.3373389 0.10133203 -0.28715298 -0.01419754 0.43218404 0.15219773 0.12853344
-0.070092246 0.062128805 -0.11664053 0.035876956 0.44087088 -0.68870056 -0.10744965 0.3867445
0.18278058 0.10556106 -0.23444903 0.16270712 0.13437048 0.10987599 -0.4829735 -0.35807177
-0.43470246 0.10578063 0.091903254 -0.4568673 -0.19075663 -0.15148728 -0.03199385 -0.10505541
0.245483 -0.016234549 -0.21999525 -0.6856562 0.27114192 0.07818304 -0.32683927 0.24619907
0.13094012 -0.12902062 0.13609418 -0.19729196 -0.029452862 0.3224275 0.4773181 -0.3164818
-0.40095395 -1.3475535 0.042908426 0.044957954 0.05569533 0.29838887 0.86518526 0.04934754
-0.50144655 0.24644352 -0.45917535 0.21266462 -0.018960465 -0.019761765 -0.48826176 -0.13221675
-0.15856923 0.53140867 0.3895385 -0.2916652 -0.013624702 -0.37342817 0.16523665 0.61719316
0.32035244 0.4882882 -0.12717676 -0.5095583 0.7914179 -0.16231951 -0.30863675 0.032831043
-0.54920876 -0.30113596 -0.46241447 -0.17325002 0.7340786 0.35716784 -0.05751336 0.36143762
0.68919075 0.6549697 -0.4103198 0.21181636 0.28512472 -0.3476843 -0.27622584 -0.9683708
0.32380086 -0.24887799 0.4191356 0.37570003 0.4462035 0.097231224 0.026695136 -0.15199582
0.35565713 -0.15054762 -0.056055106 -0.045873333 -1.0870994 -0.5001082 0.1051035 -0.37659472
0.26456875 -0.2186316 0.6741135 0.0013544783 -0.6138305 -0.012287296 -0.3026152 0.10241866
0.46601364 0.40099895 -0.4495839 -0.096456595 0.70925015 -0.92956424 0.3092076 -0.22622968
-0.4343976 -0.1652569 -0.32006407 0.2600218 -0.29145166 0.44940087 -0.4910141 -0.7747558
0.1475432 -0.45604572 0.14690897 0.12805432 0.05851146 -0.23590265 -0.53057504 -0.32980344
-0.17580177 0.13974355 -0.77068293 0.13789901 -0.082223885 -0.03632443 0.62369317 0.15631019
-0.043265976 0.05092415 -0.063588485 -0.6519209 -0.5787266 -0.17021208 0.1949428 0.3546607
-0.035767913 -0.0747126 0.028406216 -0.32222685 0.37229145 -0.04176206 -0.26208204 -0.2074822
00000000: 26ee 3f3f d502 92be ba1a 56be 14ea c1bd
00000010: b6df 5cbe ea15 143b b0cb f33e d73e 233d
00000020: 0312 e73d 41aa 11bd 361d 8cbc 1b88 1dbf
00000030: 55e6 23be 962e 0fbf 2546 03bf 0c11 c1be
00000040: 24a9 963e 09b4 1bbf 3cf3 3fbe 1c7e bebe
00000050: 842e 9d3c 7355 0ebe 0b59 f0bc 1c23 d2be
00000060: cb04 2c3d 83c1 21bf 0444 80be 21bd 8c3f
00000070: 767d 013f e2f0 e03d 55f0 dabd c32f 073f
00000080: 9de8 023f e070 dcbd e3ab a43e 08fd 92be
00000090: 7a86 09bf fb46 343d 4458 e63e 3e9b 883c
000000a0: 3262 fc3d 4709 823d 24c9 963e 4b44 9ebe
000000b0: a070 a9bd c15e c0bd db52 b83e e00c 59bf
000000c0: 5289 a03d 74ea 15bf 67ec 7e3e ad58 4abe
000000d0: 505f c0bd d929 8d3e 0f8f c8be ec4c a4be
000000e0: fed4 f9bc debc a13e 1564 14bf 910a 053f
000000f0: 6637 0ebd c952 3ebe dc19 f73d 5cb0 843e
00000100: efc7 97bd 1270 a0bd a018 6a3d 6a8e a93e
00000110: d46e 9d3d 12e1 2f3e cbbe 26bf 969a 5e3e
00000120: 1704 5d3f 2db1 c2be 7f77 7cbe 300d 8cbe
00000130: 1b44 58bd 000f 383e 39d2 d5be 3c08 45be
00000140: 5f36 ffbd ff94 913d ce26 a93e 4e04 39be
00000150: f986 0bbe bfc7 10be d788 cc3e 570b 673e
00000160: 091c 093f afb7 ac3e 2b87 cf3d b705 93be
00000170: cc9c 68bc 3a47 dd3e b9d9 1b3e 459e 033e
00000180: 868c 8fbd c67a 7e3d 3be1 eebd b7f3 123d
00000190: d4b9 e13e ae4e 30bf 900e dcbd 6003 c63e
000001a0: d52a 3b3e 6630 d83d 6813 70be b29c 263e
000001b0: 6a98 093e aa06 e13d 4d48 f7be 2f55 b7be
000001c0: 5291 debe 84a3 d83d c637 bc3d 83ea e9be
000001d0: b555 43be 7b1f 1bbe fc0b 03bd 4a27 d7bd
000001e0: e55f 7b3e 51fe 84bc 6f46 61be 2a87 2fbf
000001f0: 1dd3 8a3e 6e1e a03d 7a57 a7be 9c1b 7c3e
00000200: 2b15 063e fb1d 04be 465c 0b3e e706 4abe
00000210: 2147 f1bc 3815 a53e 0a63 f43e e709 a2be
00000220: d649 cdbe a27c acbf bfc0 2f3d d525 383d
00000230: c920 643d 6dc6 983e c87c 5d3f a520 4a3d
00000240: cd5e 00bf b15b 7c3e 0819 ebbe c1c4 593e
00000250: fa52 9bbc 6de3 a1bc 72fd f9be d463 07be
00000260: f95f 22be 660a 083f 9771 c73e 2455 95be
00000270: 243a 5fbc fa31 bfbe cc33 293e 5f00 1e3f
00000280: 3c05 a43e e900 fa3e a03a 02be 6a72 02bf
00000290: 5d9a 4a3f 1637 26be a305 9ebe d879 063d
000002a0: f298 0cbf 7e2e 9abe 97c1 ecbe 7468 31be
000002b0: 93ec 3b3f b4de b63e 2193 6bbd 5a0e b93e
000002c0: ce6e 303f 18ac 273f 7015 d2be 63e6 583e
000002d0: defb 913e ad03 b2be 796d 8dbe 26e7 77bf
000002e0: 3ac9 a53e dfd9 7ebe f198 d63e c15b c03e
000002f0: c974 e43e 2a21 c73d c2af da3c cba4 1bbe
00000300: b118 b63e 2829 1abe 0a9a 65bd ade5 3bbd
00000310: 1326 8bbf 1707 00bf 8140 d73d 06d1 c0be
00000320: 8e75 873e f6e0 5fbe b492 2c3f c088 b13a
00000330: ff23 1dbf a850 49bc 61f0 9abe e0c0 d13d
00000340: 5799 ee3e bc4f cd3e dc2f e6be 098b c5bd
00000350: 6b91 353f ecf7 6dbf 7550 9e3e c1a8 67be
00000360: 5d69 debe 1b39 29be 70df a3be 9421 853e
00000370: 2739 95be df17 e63e 3366 fbbe 6556 46bf
00000380: 9115 173e d37e e9be 4e6f 163e ac20 033e
00000390: b6a9 6f3d 7790 71be c4d3 07bf ffdb a8be
000003a0: 6105 34be ef18 0f3e 7a4b 45bf 6635 0d3e
000003b0: ff64 a8bd edc8 14bd 5baa 1f3f c70f 203e
000003c0: aa37 31bd d795 503d ae3a 82bd 4ae4 26bf
000003d0: 6d27 14bf 134c 2ebe 169f 473e 1696 b53e
000003e0: 6081 12bd eb02 99bd 27b4 e83c ebfa a4be
000003f0: fc9c be3e b20e 2bbd 9e2f 86be 3776 54be

lstm.bias_ih_l0 f4 [400]
0.07203322 -0.14484864 -0.12904821 -0.21154243 -0.36504522 -0.04225178 -0.11734518 0.16972972
-0.07892319 0.046455067 -0.25948644 0.086186714 -0.06175214 -0.06460993 -0.1840277 -0.095936775
-0.18924041 0.09556587 0.4282717 0.06311717 0.29501012 -0.2907264 -0.21688809 0.091794424
-0.25147232 0.07529844 -0.06976579 -0.027798027 0.3329451 -0.15687893 0.018062634 -0.05973422
-0.21205658 -0.03160057 -0.08035574 0.010191809 -0.17788096 0.06877295 0.30176896 0.12375699
-0.00018500393 -0.43308118 -0.30709854 -0.21517387 0.2890268 0.09940349 -0.1468463 0.2174943
-0.08974409 -0.09647417 -0.14854282 -0.13935514 -0.040054105 -0.004260116 0.0037617846 -0.14799942
-0.33070633 -0.01757619 -0.15530784 0.16572803 -0.05584111 -0.016938085 -0.19131853 0.12710296
0.12871821 0.055085737 -0.11556151 -0.350574 -0.058942787 -0.26353168 -0.16283616 -0.06478055
0.22367825 -0.15003216 -0.0868937 -0.19674063 -0.13984588 -0.33354896 -0.31400374 -0.43195906
-0.2964902 0.16816972 -0.030945392 -0.11426822 -0.18572864 0.27227172 0.05297187 0.111858666
0.024263674 -0.09369501 0.43850154 -0.11208727 -0.45524645 -0.12015298 -0.027221749 0.0051681316
0.0775625 -0.1823175 0.0075348318 -0.13611127 -0.3290492 -0.12150068 -0.089929804 -0.19393557
-0.17993766 0.03200164 -0.09375465 -0.29520735 -0.038680684 -0.25106597 -0.43259096 -0.14384744
-0.17347544 0.06608443 -0.05042596 -0.23738952 -0.26466504 -0.21148048 -0.016852524 -0.08997573
-0.09819 -0.13717283 -0.34379756 -0.4255169 -0.2625813 -0.32956243 0.010840097 -0.16178587
-0.13348877 -0.35644528 -0.048109584 -0.1659077 -0.044466414 -0.52008814 -0.29887483 -0.31819132
-0.41108862 -0.28239003 -0.23999253 -0.019835284 0.0065830327 -0.12171145 -0.39259145 -0.16542323
-0.14994594 -0.08392071 0.0034604953 -0.33303586 -0.07671842 -0.15080674 -0.2535571 -0.24674621
-0.2948593 -0.35767668 -0.16298792 -0.23545614 -0.19818562 -0.2773741 -0.3794067 -0.14624411
-0.17407857 -0.42978504 -0.11550498 -0.4173034 -0.26095203 -0.021615095 -0.15855815 -0.19931294
-0.11236516 -0.26452655 0.041265793 -0.044028305 -0.40782487 -0.027089214 -0.25748837 -0.32872063
-0.1835103 -0.31710842 -0.17725582 -0.06955445 -0.38966385 -0.07279056 -0.18977411 -0.12192
-0.085730284 -0.42136016 -0.29533538 -0.29609734 -0.11625696 -0.08269303 -0.6229422 -0.28508493
-0.024386737 -0.095475204 -0.10172853 -0.24904294 -0.44068676 -0.20360306 -0.18804821 -0.33586323
-0.19076087 0.031861346 0.030098094 -0.07979919 0.056345843 0.029560719 0.05745877 0.0002615167
0.009203876 -0.0130061135 -0.030348456 0.030684864 -0.049280852 0.0005490661 -0.011027541 0.07930267
0.08323036 -0.052914243 -0.026364438 0.05699209 -0.13967979 -0.008311114 -0.033717614 -0.07049842
0.048208762 -0.02704377 0.09561676 -0.026385473 0.022709455 -0.06402246 0.015346324 -0.010212237
0.08550631 0.11877658 -0.039946336 0.05860544 0.17280167 0.115819104 0.0021632044 0.12751058
0.06445223 -0.09464464 -0.09052843 -0.04604982 -0.12662455 0.09808363 -0.011272628 -0.19364335
-0.021560501 -0.035187084 0.054982297 0.044798557 0.0789233 -0.17939565 -0.060035057 0.03473965
00000000: 2786 933d 3453 14be 3725 04be 949e 58be
00000010: 35e7 babe 3410 2dbd ab52 f0bd a1cd 2d3e
00000020: 7ba2 a1bd ab47 3e3d 68db 84be a982 b03d
00000030: d0ef 7cbd 3652 84bd c271 3cbe 807a c4bd
00000040: 3dc8 41be 0ab8 c33d 6e46 db3e 9343 813d
00000050: 910b 973e 17da 94be e917 5ebe b7fe bb3d
00000060: fbc0 80be 1236 9a3d 5ee1 8ebd b0b8 e3bc
00000070: c877 aa3e dfa4 20be 17f8 933c dfab 74bd
00000080: 5c25 59be 996f 01bd 8d91 a4bd 8cfb 263c
00000090: 6d26 36be d5d8 8c3d 7681 9a3e 4e74 fd3d
000000a0: 9dfd 41b9 d1bc ddbe 053c 9dbe 8a56 5cbe
000000b0: 52fb 933e 0f94 cb3d e05e 16be d3b6 5e3e
000000c0: c0cb b7bd 4094 c5bd 9c1b 18be 1db3 0ebe
000000d0: c60f 24bd 7198 8bbb 4688 763b 298d 17be
000000e0: 5752 a9be f1fb 8fbc 0509 1fbe 9cb4 293e
000000f0: a6b9 64bd bdc1 8abc 01e9 43be 4727 023e
00000100: b5ce 033e 95a1 613d 83ab ecbd 6f7e b3be
00000110: fe6d 71bd a0ed 86be 86be 26be aaab 84bd
00000120: e90b 653e 08a2 19be 53f5 b1bd 6076 49be
00000130: c233 0fbe eec6 aabe 19c5 a0be bd29 ddbe
00000140: 90cd 97be af34 2c3e 3181 fdbc 7505 eabd
00000150: a62f 3ebe 3367 8b3e 08f9 583d 2816 e53d
00000160: 9dc4 c63c 2be3 bfbd 4683 e03e 038e e5bd
00000170: 1016 e9be c412 f6bd 2500 dfbc 6e59 a93b
00000180: 17d9 9e3d 70b1 3abe c0e6 f63b c160 0bbe
00000190: 2379 a8be 59d5 f8bd 1e2d b8bd 0c97 46be
000001a0: 9441 38be 2714 033d 7002 c0bd 6b25 97be
000001b0: a36f 1ebd b88b 80be 907c ddbe be4c 13be
000001c0: 8ca3 31be 4657 873d 748b 4ebd 3d16 73be
000001d0: 2d82 87be 578e 58be 4e0e 8abc 3245 b8bd
000001e0: d717 c9bd 0977 0cbe 3c06 b0be 5add d9be
000001f0: 0e71 86be 68bc a8be aa9a 313c 32ab 25be
00000200: 48b1 08be ff7f b6be 8e0e 45bd b5e3 29be
00000210: 6a22 36bd 7f24 05bf 1f06 99be f9e9 a2be
00000220: 357a d2be 6d95 90be 9ac0 75be 9b7d a2bc
00000230: 7bb6 d73b da43 f9bd bf01 c9be b564 29be
00000240: 6e8b 19be 9fde abbd 7ac9 623b ad83 aabe
00000250: 8c1e 9dbd 156d 1abe 3cd2 81be 0aab 7cbe
00000260: ccf7 96be 6621 b7be 4ee6 26be 6a1b 71be
00000270: 2cf1 4abe fa03 8ebe 9841 c2be 04c1 15be
00000280: a741 32be c90c dcbe e08d ecbd cba8 d5be
00000290: 819b 85be 2412 b1bc 115d 22be b118 4cbe
000002a0: b41f e6bd 0670 87be 5206 293d 0657 34bd
000002b0: 6cce d0be 33ea ddbc 84d5 83be 124e a8be
000002c0: 20ea 3bbe 095c a2be 8d82 35be 9072 8ebd
000002d0: 0582 c7be 3813 95bd 2554 42be 31b1 f9bd
000002e0: 5c93 afbd 85bc d7be 3336 97be 129a 97be
000002f0: 2118 eebd f75a a9bd 2479 1fbf a7f6 91be
00000300: b2c6 c7bc 8188 c3bd 0c57 d0bd 1d05 7fbe
00000310: b2a1 e1be 527d 50be b68f 40be 44f6 abbe
00000320: d156 43be 0b81 023d 4790 f63c c26d a3bd
00000330: e6ca 663d 5229 f23c e359 6b3d 2d1c 8939
00000340: dbcb 163c 9817 55bc 539d f8bc d35e fb3c
00000350: b8da 49bd 34ef 0f3a dcac 34bc 7069 a23d
00000360: ae74 aa3d 9bbc 58bd 3cfa d7bc 8a70 693d
00000370: 3808 0fbe 572b 08bc 7b1b 0abd 7a61 90bd
00000380: 8d76 453d e58a ddbc b8d2 c33d 5926 d8bc
00000390: 2e09 ba3c 351e 83bd 266f 7b3c 3a51 27bc
000003a0: ef1d af3d 2341 f33d c59e 23bd 420c 703d
000003b0: ecf2 303e 9132 ed3d 8cc4 0d3b 2292 023e
000003c0: 88ff 833d 0dd5 c1bd f866 b9bd bc9e 3cbd
000003d0: dea9 01be 12e0 c83d d4b0 38bc 714a 46be
000003e0: a69f b0bc 5520 10bd 1e35 613d b17e 373d
000003f0: 8aa2 a13d 7eb3 37be 52e7 75bd 2a4b 0e3d

lstm.bias_hh_l0 f4 [400]
0.17713779 -0.19792998 -0.21302933 -0.2008023 -0.22722027 0.025044682 -0.1389638 0.16314715
0.0147756785 0.035164796 -0.31515637 0.024563279 -0.09264589 -0.07340134 -0.2144803 0.01974001
-0.10359564 -0.022459581 0.3492039 -0.033071235 0.30803913 -0.31967315 -0.3441025 -0.059149165
-0.2783265 0.010108259 -0.08266084 0.022041729 0.2514627 -0.15270941 0.062863804 -0.06934429
-0.20031379 -0.21174821 -0.13893384 0.015621025 -0.027758596 0.056910504 0.2757833 -0.034696877
-0.037821062 -0.41703728 -0.30893353 -0.05903264 0.30384967 0.100320056 -0.0432806 0.27087596
-0.0051313667 0.03504627 -0.11104021 -0.05206306 0.0098430365 -0.022670217 -0.06280015 -0.09979248
-0.40862313 -0.06057327 -0.029761616 0.032607716 -0.16974255 -0.069743074 -0.14642276 0.14032695
0.025165325 -0.07436757 -0.004843154 -0.21899934 0.05127294 -0.27673045 -0.03830414 0.020499056
0.15030259 -0.053269904 -0.14699395 -0.22668205 -0.15919676 -0.30915695 -0.243801 -0.4159812
-0.30365336 0.2810878 -0.041834705 -0.10405701 -0.033882055 0.091381304 0.1441926 0.027852586
-0.07602737 -0.042180285 0.48797148 -0.047781374 -0.38214514 0.050257847 -0.058907077 -0.12068519
-0.026178034 -0.19165008 0.13533683 -0.15678829 -0.3604702 -0.16539235 -0.021258928 -0.3600085
-0.15111238 0.036658052 -0.2505023 -0.20410404 -0.09834374 -0.3694419 -0.31938127 -0.2393279
-0.26676643 -0.06733204 -0.05448032 -0.25251555 -0.28360823 -0.20979562 0.008351065 -0.13392876
-0.28052083 -0.23002431 -0.22609062 -0.45396835 -0.22227798 -0.36363125 0.10742405 -0.22742665
-0.23043658 -0.45955408 -0.057661932 -0.15895885 -0.2214711 -0.40392905 -0.27919748 -0.1812948
-0.33755395 -0.2763441 -0.24473338 -0.018195631 -0.0722887 -0.17386772 -0.35963032 -0.03651823
-0.27459255 -0.01765932 -0.06637418 -0.39152196 -0.04954795 -0.14442599 -0.4102105 -0.18381271
-0.25999245 -0.48721418 -0.14231521 -0.3382184 -0.2501585 -0.17462863 -0.36909905 -0.19359104
-0.21279924 -0.32847095 -0.22197375 -0.4660645 -0.32107967 -0.004312178 -0.120005526 -0.15252873
-0.059479438 -0.19360384 0.04800996 -0.07501081 -0.43626902 -0.1299885 -0.13711183 -0.3597971
-0.31082416 -0.27196068 -0.15035322 -0.10529505 -0.38300946 -0.25767598 -0.21711445 -0.008563794
-0.09189306 -0.3164588 -0.1506896 -0.14869176 -0.08201263 -0.059646606 -0.660792 -0.24840295
-0.036453974 -0.02942208 -0.100111105 -0.15013546 -0.44039142 -0.23443355 -0.042584885 -0.2933357
-0.15176237 -0.08959171 0.0946495 -0.008712992 -0.07112423 0.10431707 -0.035962008 0.092068486
0.023852203 -0.1280121 0.071121685 0.06760607 -0.16797742 0.09451154 -0.13460031 -0.040259104
-0.031917803 0.04672992 -0.09660771 -0.04401181 -0.0339304 0.08875991 -0.06435054 0.06468777
-0.123657726 -0.060027316 -0.04983711 0.14189127 -0.0148303 -0.05000534 0.07996749 -0.050443582
0.029822921 -0.054506816 0.063244775 0.06297499 0.13247035 0.2027618 -0.028033383 0.06120745
-0.053548697 -0.13913329 0.090522826 -0.020029053 -0.07669009 0.11062004 0.14782535 -0.21386373
0.033868406 0.062260933 -0.0628507 0.11105373 0.038491935 -0.11059894 -0.004845963 -0.029365698
00000000: 9c63 353e 28ae 4abe 5c24 5abe 1e9f 4dbe
00000010: 6eac 68be 812a cd3c 874c 0ebe 0c10 273e
00000020: b015 723c f608 103d 2d5c a1be ee38 c93c
00000030: 21bd bdbd 7153 96bd b9a0 5bbe cdb5 a13c
00000040: f329 d4bd 28fd b7bc dbca b23e b475 07bd
00000050: 4eb7 9d3e 33ac a3be 342e b0be 6546 72bd
00000060: d080 8ebe 1c9d 253c 164a a9bd db90 b43c
00000070: b8bf 803e db5f 1cbe bdbe 803d 6104 8ebd
00000080: 0f1f 4dbe 86d4 58be ac44 0ebe 54ef 7f3c
00000090: ff65 e3bc fd1a 693d 7833 8d3e 501e 0ebd
000000a0: 42ea 1abd e985 d5be 892c 9ebe 36cc 71bd
000000b0: 2f92 9b3e 9a74 cd3d 0047 31bd 41b0 8a3e
000000c0: 0625 a8bb ad8c 0f3d 0d69 e3bd 1340 55bd
000000d0: b044 213c e4b6 b9bc 5d9d 80bd 0060 ccbd
000000e0: 0d37 d1be ad1b 78bd a2ce f3bc ab8f 053d
000000f0: fed0 2dbe 75d5 8ebd d9ef 15be deb1 0f3e
00000100: 8327 ce3c 064e 98bd 52b3 9ebb 5d41 60be
00000110: 9303 523d 9daf 8dbe cde4 1cbd a3ed a73c
00000120: ece8 193e 8b31 5abd 9585 16be 571f 68be
00000130: 7a04 23be d249 9ebe f8a6 79be 7dfb d4be
00000140: 7478 9bbe bdea 8f3e de5a 2bbd d71b d5bd
00000150: e9c7 0abd 1f26 bb3d 3aa7 133e 1b2b e43c
00000160: 3db4 9bbd 3cc5 2cbd 66d7 f93e 67b6 43bd
00000170: 87a8 c3be 2cdb 4d3d 8c48 71bd cc29 f7bd
00000180: 5173 d6bc eb3f 44be bd95 0a3e 1c8d 20be
00000190: 8d8f b8be 9d5c 29be 3427 aebc 0953 b8be
000001a0: 34bd 1abe c126 163d d641 80be a600 51be
000001b0: 7168 c9bd 7d27 bdbe f185 a3be 5f12 75be
000001c0: 9c95 88be 61e5 89bd c226 5fbd b849 81be
000001d0: 1935 91be aad4 56be e8d2 083c 9f24 09be
000001e0: 6da0 8fbe 7e8b 6bbe 4d84 67be 8a6e e8be
000001f0: d79c 63be e02d babe 2401 dc3d 88e2 68be
00000200: 91f7 6bbe ac4a ebbe eb2e 6cbd 1cc6 22be
00000210: 52c9 62be cacf cebe f9f2 8ebe 58a5 39be
00000220: dfd3 acbe f97c 8dbe 639b 7abe 010f 95bc
00000230: 190c 94bd 610a 32be 7721 b8be 2494 15bd
00000240: 6597 8cbe 47aa 90bc 30ef 87bd 9175 c8be
00000250: cbf2 4abd 68e4 13be 1c07 d2be 6639 3cbe
00000260: bb1d 85be 2374 f9be 14bb 11be f62a adbe
00000270: c614 80be d9d1 32be 8dfa bcbe bb3c 46be
00000280: 0be8 59be 582d a8be 164d 63be 02a0 eebe
00000290: 8e64 a4be 2c4d 8dbb 75c5 f5bd 7e30 1cbe
000002a0: b6a0 73bd 1640 46be 18a6 443d 449f 99bd
000002b0: a75e dfbe b51b 05be 0b67 0cbe 5337 b8be
000002c0: 5824 9fbe 6e3e 8bbe 32f6 19be eea4 d7bd
000002d0: d119 c4be 1bee 83be 4053 5ebe 284f 0cbc
000002e0: 6e32 bcbd e306 a2be 604e 1abe a742 18be
000002f0: 3df6 a7bd 0050 74bd aa29 29bf 585d 7ebe
00000300: c350 15bd 9306 f1bc 0d07 cdbd 1cbd 19be
00000310: fc7a e1be 590f 70be 7d6d 2ebd 1930 96be
00000320: 9867 1bbe dc7b b7bd 99d7 c13d f0c0 0ebc
00000330: 95a9 91bd 30a4 d53d e64c 13bd 678e bc3d
00000340: b265 c33c 9b15 03be 3fa8 913d 0d75 8a3d
00000350: 4602 2cbe 448f c13d aad4 09be bbe6 24bd
00000360: 3ebc 02bd df67 3f3d 43da c5bd ba45 34bd
00000370: 9afa 0abd c1c7 b53d 37ca 83bd 067b 843d
00000380: 4340 fdbd 34df 75bd ff21 4cbd f24b 113e
00000390: c9fa 72bc 66d2 4cbd ffc5 a33d ee9d 4ebd
000003a0: 334f f43c 8a42 5fbd 7a86 813d 08f9 803d
000003b0: 4fa6 073e caa0 4f3e 44a6 e5bc aab4 7a3d
000003c0: e155 5bbd f578 0ebe 0864 b93d f813 a4bc
000003d0: b20f 9dbd c28c e23d 875f 173e 18ff 5abe
000003e0: 99b9 0a3d 5205 7f3d deb7 80bd 2370 e33d
000003f0: b8a9 1d3d b281 e2bd e2ca 9ebb 5590 f0bc

lstm.weight_ih_l1 f4 [400, 100]
0.2698088 -0.17411137 0.6351532 0.17992572 0.29193178 -0.24459264 0.06951496 0.049004585
0.06712922 0.1236708 -0.1370523 0.43241274 -0.31127447 0.21070108 -0.3457677 -0.08378957
-0.46110645 0.053807966 -0.30447522 0.14316216 -0.16413476 0.28068915 -0.13599247 -0.15635313
0.2648178 -0.32058445 0.31619874 0.17528169 0.13329837 -0.18244047 -0.24626052 0.00863878
0.6796182 -0.057894334 -0.16969232 0.16006434 -0.10237277 -0.09082622 -0.4971173 0.55376846
-0.20217852 -0.45364094 0.1748096 -0.61866325 9.0150905e-05 -0.65268946 -0.11702163 -0.23387678
0.08888134 -0.64214027 -0.14565732 -0.07217392 0.018137004 0.34181973 0.265873 -0.36248663
-0.5562339 -0.13350579 -0.019316375 -0.14795066 0.19751646 0.60809565 -0.6100285 -0.6981371
0.20255418 0.11103387 -0.58778274 0.28849724 0.062435854 0.026936056 0.025739064 -0.33721387
0.56724155 0.55957 -0.11044313 -0.13318527 0.018437665 0.63274586 -0.29687768 0.6013128
-0.0730954 0.09841134 0.0031424193 -0.1817292 -0.1174119 -0.84922665 0.31665978 -0.33623704
-0.3593556 -0.13289025 -0.31924894 -0.04531322 0.13366014 -0.33782896 -0.4104049 -1.0185765
-0.28157535 0.3609712 0.08098536 0.084251136 0.020582816 -0.084605016 0.16162983 -0.017342933
-0.0911476 -0.27307275 0.16431192 0.13789481 0.62152654 0.45263395 -0.5423548 0.22838424
-0.8345139 0.2791914 0.42144617 0.22326949 -0.3605183 0.25985774 0.41953704 0.23284791
-0.19480047 -0.010487961 -0.20099072 0.29606447 0.1434984 0.82799596 0.35918343 0.35621434
-0.029904988 -0.08160797 -0.4452409 -0.662308 0.26240104 -0.5574372 0.06932499 0.13697638
-0.10295835 -0.1560203 0.09845814 0.11211911 0.4067733 -0.19505654 0.5632501 -0.3205067
0.21874878 0.071143545 0.15753022 -0.18883875 -0.08747808 -0.22539042 -0.16175558 0.20258613
0.09159956 0.6910812 -0.22810923 -0.2715712 -0.40960354 0.10888521 -0.3005537 -0.006748843
0.24863577 0.1398908 -0.49560872 -0.9316799 0.45986864 0.16276987 -0.4444624 -0.16018765
-0.24145538 -0.11002316 0.09297992 0.25412408 0.5165818 0.2783309 0.1838964 -0.13793944
-0.24175481 0.41506225 0.4573778 0.098417655 0.059510257 -0.12408992 0.63956577 -0.27327418
0.23535399 -0.01814074 0.310489 -0.3015157 -0.34192926 0.541688 -0.44633463 0.1952838
-0.0070514893 0.14542934 -0.030385518 -0.7037401 -0.12426814 -0.039803643 -0.5652958 -0.0089939
-0.13309316 0.052228678 0.048188504 0.25139332 -0.011623888 -0.04061071 0.09753254 0.5187427
0.16349556 0.02441803 0.1610995 -0.25108078 0.21794903 0.23563674 -0.15615141 -0.07803481
-0.043907445 -0.32073843 -0.24575588 -0.030205619 -0.18084762 -0.1479205 0.41825226 -0.12215675
-0.22178605 -0.280376 0.07246027 -0.005368859 -0.02065201 0.120558746 0.17373118 0.102856
-0.080328755 0.056129232 0.43144292 0.148893 -0.116746694 -0.27664423 -0.08627476 -0.050022017
0.12560146 0.2995144 0.1260312 0.1057251 0.005308613 0.09557383 0.34110385 0.042502802
-0.013795041 0.47393325 -0.34844333 0.19644535 0.14637934 0.1259715 0.6378177 -0.46204618
00000000: 6124 8a3e 404a 32be 6699 223f 733e 383e
00000010: 1578 953e 7e76 7abe dc5d 8e3d 08b9 483d
00000020: 0b7b 893d 1e47 fd3d 7057 0cbe 3465 dd3e
00000030: 5e5f 9fbe 06c2 573e 7708 b1be de99 abbd
00000040: 2516 ecbe be65 5c3d 2de4 9bbe 1a99 123e
00000050: f112 28be 7db6 8f3e 9c41 0bbe 091b 20be
00000060: 3396 873e a523 a4be cde4 a13e 0b7d 333e
00000070: 5e7f 083e add1 3abe b82b 7cbe ab89 0d3c
00000080: 75fb 2d3f 9c22 6dbd d3c3 2dbe e8e7 233e
00000090: d1a8 d1bd 1903 babd 2986 febe c5c3 0d3f
000000a0: e307 4fbe a043 e8be 4a01 333e b760 1ebf
000000b0: 660f bd38 a816 27bf 09a9 efbd 657d 6fbe
000000c0: 6c07 b63d 4e63 24bf 3127 15be eccf 93bd
000000d0: 0e94 943c ff02 af3e 8120 883e d997 b9be
000000e0: 5865 0ebf beb5 08be 603d 9ebc 6180 17be
000000f0: c141 4a3e 28ac 1b3f d42a 1cbf 1db9 32bf
00000100: 5d6a 4f3e ba65 e33d ee78 16bf e9b5 933e
00000110: bdbc 7f3d 01a9 dc3c bbda d23c 4ca7 acbe
00000120: be36 113f fb3f 0f3f 0230 e2bd b861 08be
00000130: 960a 973c a2fb 213f 5a00 98be a3ef 193f
00000140: 0bb3 95bd e28b c93d 0cf1 4d3b 3817 3abe
00000150: a675 f0bd eb66 59bf 3b21 a23e 4327 acbe
00000160: 75fd b7be 6214 08be 9974 a3be 5b9a 39bd
00000170: 34de 083e ebf7 acbe 9720 d2be b760 82bf
00000180: a52a 90be 38d1 b83e a7db a53d dc8b ac3d
00000190: 4b9d a83c 6545 adbd 4a82 253e c412 8ebc
000001a0: 98ab babd 31d0 8bbe 6241 283e 4c34 0d3e
000001b0: 5d1c 1f3f a3bf e73e c4d7 0abf 8fdd 693e
000001c0: b4a2 55bf 2df2 8e3e cbc7 d73e c2a0 643e
000001d0: db95 b8be 130c 853e 8fcd d63e af6f 6e3e
000001e0: c679 47be b2d5 2bbc 83d0 4dbe c395 973e
000001f0: 3ff1 123e 8bf7 533f e4e6 b73e ba61 b63e
00000200: 4efb f4bc 1422 a7bd 9ef6 e3be 048d 29bf
00000210: 6e59 863e 34b4 0ebf 43fa 8d3d 8943 0c3e
00000220: d4db d2bd c9c3 1fbe 6ca4 c93d b49e e53d
00000230: 9744 d03e e7bc 47be 2931 103f 7419 a4be
00000240: aeff 5f3e b5b3 913d 9a4f 213e f25e 41be
00000250: b527 b3bd bfcc 66be 41a3 25be bd72 4f3e
00000260: 8d98 bb3d b3ea 303f 7795 69be 610b 8bbe
00000270: 8eb7 d1be 35ff de3d 2de2 99be 6625 ddbb
00000280: 609a 7e3e 893f 0f3e 6dc0 fdbe 9382 6ebf
00000290: e773 eb3e 25ad 263e 9390 e3be 3b08 24be
000002a0: 1440 77be d353 e1bd 426c be3d 8d1c 823e
000002b0: b43e 043f 6381 8e3e 564f 3c3e ff3f 0dbe
000002c0: 938e 77be 0a83 d43e 6c2d ea3e 328f c93d
000002d0: 07c1 733d db22 febd 95ba 233f 98ea 8bbe
000002e0: a300 713e e49b 94bc 6af8 9e3e 4460 9abe
000002f0: 5a11 afbe 11ac 0a3f f985 e4be 7af8 473e
00000300: 2e10 e7bb 6eeb 143e 0deb f8bc 5028 34bf
00000310: 4b80 febd 2509 23bd 3ab7 10bf 275b 13bc
00000320: 9349 08be bded 553d 4f61 453d a0b6 803e
00000330: 1f72 3ebc 6a57 26bd 24bf c73d 52cc 043f
00000340: 616b 273e 5208 c83c 44f7 243e a98d 80be
00000350: 082e 5f3e c24a 713e 28e6 1fbe b7d0 9fbd
00000360: 4bd8 33bd d437 a4be 6ea7 7bbe c671 f7bc
00000370: 1e30 39be 7978 17be 2925 d63e 512d fabd
00000380: e21b 63be 718d 8fbe 0d66 943d 41ed afbb
00000390: 672e a9bc 81e7 f63d 96e6 313e 2ba6 d23d
000003a0: 6783 a4bd c4e7 653d 16e6 dc3e 6877 183e
000003b0: e418 efbd 50a4 8dbe d2b0 b0bd e3e3 4cbd
000003c0: ab9d 003e f459 993e 530e 013e 6786 d83d
000003d0: e0f3 ad3b 36bc c33d 2aa5 ae3e 6b17 2e3d
000003e0: 9804 62bc 61a7 f23e 2a67 b2be f828 493e
000003f0: 77e4 153e acfe 003e 0548 233f 5191 ecbe

lstm.weight_hh_l1 f4 [400, 100]
-0.2711442 0.047431085 0.36888897 0.2644042 0.008634055 0.12402655 0.17899676 -0.24395362
0.18496384 -0.03741496 -0.00339864 -0.12522238 -0.078536145 -0.2237172 0.095113344 -0.11867273
-0.24996214 0.10814447 0.10094091 0.0684211 0.11445985 -0.020787869 0.22611278 -0.3966698
-0.03521563 -0.2938684 -0.048528727 -0.29456955 0.19797507 0.16304424 0.08382472 0.050315686
-0.054295573 -0.011593106 -0.111501575 -0.24103485 0.024147175 -0.19174522 -0.09895072 0.51314735
-0.0024637436 -0.031149004 -0.10843186 0.025872579 -0.23542729 -0.0044161924 0.023713144 -0.2184467
-0.0075457552 0.33475235 -0.022846634 0.09767769 0.042893942 -0.09340552 0.20269538 -0.07286399
-0.45972827 0.09162318 -0.32481742 0.24365157 -0.14616178 0.042022772 -0.15497352 0.16917394
-0.03317152 0.09440546 0.19467582 0.04029213 0.059180796 -0.032891277 -0.18504052 0.052425742
-0.38727623 -0.104372814 0.17484148 -0.1779394 -0.09854122 0.30889332 -0.16166516 0.046386156
0.10151008 -0.13835597 -0.16306205 0.25228292 -0.1245149 -0.265238 0.09351448 -0.1495575
-0.27279577 0.053641174 -0.0344687 0.02833473 -0.10816271 -0.15966745 0.17384778 0.18118149
0.068961576 0.04907022 -0.40540096 0.036475368 0.13357073 0.13538559 0.12960371 0.024075229
-0.08397373 -0.11962935 -0.0367669 0.029776363 0.19684555 -0.4122446 0.026302746 -0.25951794
0.32313347 0.16920665 0.16733536 -0.046533894 0.00088814297 0.1514606 -0.2418111 -0.06254746
-0.4019155 -0.15045364 0.43024585 0.09173139 0.057611145 -0.17191051 -0.23559237 0.33494237
-0.2562024 -0.053660683 -0.029986497 -0.148844 -0.020519147 0.10973817 -0.3183589 -0.009831516
-0.212609 0.053395554 0.23509794 -0.37785825 -0.3915684 0.15857263 -0.03344187 0.1527607
-0.4222814 -0.12392337 -0.16280086 -0.1711226 0.6659102 0.05384144 -0.17540345 0.30441833
0.19434181 -0.11718296 0.101625666 -0.012018528 -0.25021935 0.39889184 -0.17717469 0.064447366
0.07946881 -0.17256437 -0.10151837 -0.2110976 0.31118235 -0.011507278 -0.012264815 -0.082801424
-0.03398254 0.14020355 -0.24391572 0.026333272 0.21441798 -0.24471085 0.5902756 -0.12480759
0.13083966 -0.74113584 -0.35830438 0.107602224 0.19520658 -0.24120489 0.3896978 -0.10232318
-0.3203381 0.062290944 -0.09154258 0.071142375 0.25622904 -0.32336974 0.06819556 0.30698013
-0.4360523 -0.18982781 0.008949285 -0.17973438 -0.064694405 0.22058198 -0.23603679 -0.027910938
-0.06560706 -0.023617838 -0.07758434 0.19821315 -0.035676233 0.032971494 0.05076044 -0.03509663
-0.013101138 0.0039770976 -0.017846884 -0.22672497 -0.19872442 -0.072270036 -0.12048522 -0.21794476
0.0942936 -0.0009899004 0.16143486 0.051395044 0.083517805 0.19371305 -0.055608246 -0.022031482
-0.035760563 -0.12852852 -0.16005729 -0.086133294 0.07754385 -0.02746792 0.010713498 0.030860674
0.11799788 0.099226 0.24138826 -0.016947115 0.11594746 -0.08296277 0.085801736 0.30332434
0.008357728 0.23853326 0.04302316 0.08123788 -0.12495683 -0.021062845 -0.09188218 -0.19767216
-0.26706368 -0.16106391 0.11603618 0.024341509 0.02599929 0.117305845 0.08838184 0.07825247
00000000: 6ad3 8abe 1947 423d 04df bc3e fd5f 873e
00000010: da75 0d3c a201 fe3d ed4a 373e face 79be
00000020: 2967 3d3e 6e40 19bd b8bb 5ebb 4c3a 00be
00000030: 8fd7 a0bd 1f16 65be c9ca c23d b00a f3bd
00000040: 13f6 7fbe d97a dd3d 1cba ce3d 5d20 8c3d
00000050: ed69 ea3d 524b aabc 1c8a 673e 4e18 cbbe
00000060: 443e 10bd eb75 96be 0fc6 46bd d2d1 96be
00000070: fab9 4a3e 12f5 263e 4bac ab3d d217 4e3d
00000080: 0965 5ebd 03f1 3dbc f05a e4bd d7d1 76be
00000090: 4cd0 c53c dc58 44be ada6 cabd a05d 033f
000000a0: c276 21bb 322c ffbc 8611 debd bbf2 d33c
000000b0: da13 71be b5b5 90bb 1142 c23c 7eb0 5fbe
000000c0: 6242 f7bb a964 ab3e dd28 bbbc 3e0b c83d
000000d0: 8fb1 2f3d 654b bfbd 618f 4f3e b739 95bd
000000e0: 8161 ebbe efa4 bb3d 784e a6be cc7f 793e
000000f0: 6fab 15be 1220 2c3d 61b1 1ebe ef3b 2d3e
00000100: dcde 07bd a657 c13d 1959 473e 5c09 253d
00000110: 9067 723d 01b9 06bd 437b 3dbe 60bc 563d
00000120: 1249 c6be 6ac1 d5bd a509 333e bf35 36be
00000130: fbcf c9bd 4427 9e3e 8d8b 25be 69ff 3d3d
00000140: 84e4 cf3d 30ad 0dbe bdf9 26be 3a2b 813e
00000150: ab01 ffbd 46cd 87be 8584 bf3d 9a25 19be
00000160: e3ab 8bbe d9b6 5b3d 0d2f 0dbd 3c1e e83c
00000170: 6984 ddbd dd7f 23be 2705 323e a487 393e
00000180: ba3b 8d3d dbfd 483d b790 cfbe 3267 153d
00000190: c4c6 083e 85a2 0a3e d6b6 043e 6a39 c53c
000001a0: 6bfa abbd 3c00 f5bd e498 16bd 8fed f33c
000001b0: e191 493e b911 d3be db78 d73c 89df 84be
000001c0: c071 a53e 8244 2d3e f659 2b3e 539a 3ebd
000001d0: 44d2 683a 7d18 1b3e 549d 77be e218 80bd
000001e0: dec7 cdbe 8510 1abe 2f49 dc3e abdd bb3d
000001f0: aaf9 6b3d 4f09 30be 203f 71be 917d ab3e
00000200: f62c 83be 4ecb 5bbd 3ea6 f5bc 906a 18be
00000210: c517 a8bc 68be e03d f0ff a2be 5e14 21bc
00000220: 2cb6 59be 4cb5 5a3d 84bd 703e a376 c1be
00000230: a77b c8be dd60 223e 58fa 08bd 4d6d 1c3e
00000240: 4535 d8be 89cb fdbd 45b5 26be c33a 2fbe
00000250: 1779 2a3f d788 5c3d f69c 33be b8dc 9b3e
00000260: 8a01 473e 9ffd efbd 1e21 d03d 5ce9 44bc
00000270: c01c 80be 8d3b cc3e 486d 35be fbfc 833d
00000280: 8bc0 a23d b7b4 30be dde8 cfbd f829 58be
00000290: 4b53 9f3e 0689 3cbc 5df2 48bc cb93 a9bd
000002a0: 4731 0bbd 8591 0f3e 0bc5 79be e0b8 d73c
000002b0: 6390 5b3e 7b95 7abe 4d1c 173f 1f9b ffbd
000002c0: d5fa 053e 14bb 3dbf ac73 b7be 8e5e dc3d
000002d0: 3ce4 473e 6afe 76be 7886 c73e d18e d1bd
000002e0: 5b03 a4be ca24 7f3d ad7a bbbd 18b3 913d
000002f0: 7430 833e b890 a5be 1daa 8b3d 802c 9d3e
00000300: 3f42 dfbe 3962 42be 06a0 123c 4a0c 38be
00000310: 807e 84bd 3ee0 613e a1b3 71be 7ba5 e4bc
00000320: ff5c 86bd 327a c1bc 8ae4 9ebd 63f8 4a3e
00000330: 3e21 12bd 1e0d 073d 2eea 4f3d 7cc1 0fbd
00000340: 28a6 56bc 5052 823b a133 92bc 972a 68be
00000350: 6a7e 4bbe 5002 94bd f4c0 f6bd e92c 5fbe
00000360: 011d c13d 8cbf 81ba 2e4f 253e 9c83 523d
00000370: 620b ab3d b75c 463e 79c5 63bd 5e7b b4bc
00000380: ab79 12bd fb9c 03be 0fe6 23be a766 b0bd
00000390: 4fcf 9e3d 6704 e1bc ab87 2f3c 86cf fc3c
000003a0: dfa8 f13d 0037 cb3d 7c2e 773e add4 8abc
000003b0: dd75 ed3d 62e8 a9bd d2b8 af3d 544d 9b3e
000003c0: daee 083c 1042 743e 0e39 303d 0c60 a63d
000003d0: 5ee9 ffbd fd8b acbc b92c bcbd 926a 4abe
000003e0: 92bc 88be f0ed 24be 60a4 ed3d d867 c73c
000003f0: 77fc d43c 0c3e f03d 8a01 b53d d542 a03d

lstm.bias_ih_l1 f4 [400]
0.04749301 -0.10421647 0.07668084 0.11192241 0.031890735 0.031182243 -0.31240547 -0.01878252
0.21390913 0.0055817417 -0.08153946 -0.07388847 -0.09212665 -0.10589787 -0.03302011 -0.36031356
-0.13387859 -0.2471985 -0.2643855 -0.029061308 0.08838717 0.024258312 0.057167612 -0.25853303
0.25059792 -0.015482285 -0.21638319 0.11743851 0.0072851717 -0.017143691 0.013768083 0.006395271
-0.13729517 0.007621097 0.06856067 -0.04448718 0.06069675 -0.0062913 -0.058674112 0.05784525
0.006957486 -0.07476924 0.0542741 -0.18886158 -0.006225599 -0.12710102 -0.036874417 -0.023660166
0.033628915 0.025124157 -0.086116225 0.14094858 -0.0046588685 -0.21437708 -0.16866541 -0.0043704133
0.4098167 -0.08013616 0.007921899 -0.20479535 -0.09248657 0.046925373 -0.31850848 -0.48317254
-0.12426988 0.039048504 -0.10960235 0.005201245 -0.02717618 -0.058590293 -0.0538273 0.06430613
-0.008665985 -0.007285389 0.027943127 0.042553518 -0.17827724 0.8512885 0.03845518 0.25677294
-0.21359895 -0.06330673 -0.16450803 -0.07931896 0.13672176 -0.08877951 -0.33878767 -0.1479446
0.03732152 -0.29088202 -0.25949967 0.012711206 -0.05406757 -0.19531462 -0.01307774 -0.40111837
-0.11241177 -0.13283594 -0.039881498 -0.09688209 -0.10254895 -0.080380134 -0.021443924 -0.20961325
0.12431892 0.06654578 -0.06908169 0.07957597 -0.23752408 -0.017382689 -0.055642515 -0.10112841
-0.08799752 -0.04812195 0.07848422 -0.13610609 0.23283821 -0.04857387 -0.07571908 0.24722384
0.0853981 0.0728771 -0.29215863 -0.07949731 -0.27574784 -0.19636594 -0.0804572 0.038700595
0.22630255 -0.10624553 0.0953806 -0.058922872 0.028911326 0.058060624 0.08508697 -0.16326305
-0.13940866 -0.00082691497 0.04846491 0.06587597 0.09013007 -0.032853104 0.15183315 -0.0716316
0.04066476 0.033228777 0.20576079 0.28998423 0.19216357 -0.074519955 0.06260249 -0.0016576238
0.0014609594 -0.08025511 0.00978165 0.10086851 -0.36251128 0.05211262 0.00013182976 0.14986804
-0.11995486 -0.01048942 -0.24994703 -0.0028834485 -0.14184813 0.038992718 -0.24729285 -0.14677083
0.029922515 0.04817652 -0.06758067 -0.17557472 0.042516142 -0.10068383 -0.12450127 0.03930267
0.045859795 0.26035973 0.122926034 0.16278102 -0.103859395 0.07452704 -0.105304055 -0.054442428
-0.16519205 0.1831802 -0.24905545 -0.032946944 0.07165428 -0.14978036 -0.09145583 0.069028735
0.096500576 -0.10400359 0.14128353 -0.03356609 0.06014586 -0.11766198 -0.03318342 -0.025032971
0.36854017 -0.054666944 0.08730671 -0.16977754 -0.0053416775 0.17103882 0.12499238 -0.0717052
0.32727054 -0.29477096 -0.06372566 0.055845737 -0.20958884 -0.16309127 0.05118712 0.0963493
-0.15512484 -0.05067037 -0.066159256 -0.02492065 0.33423677 0.12038069 0.19110654 0.08264667
-0.15614153 -0.03039128 -0.09493961 -0.27219525 0.39320508 0.021201935 0.06659149 0.09648112
0.024161223 0.016760789 0.34192306 0.0073086773 -0.21461076 -0.1742648 -0.09002843 0.12996688
0.1818279 -0.14683901 -0.06741857 0.0139087085 -0.07206953 0.018014502 0.21345969 -0.077157654
-0.39367473 0.06292695 0.07127445 -0.24575257 0.24411273 -0.10355542 0.18970227 -0.22712219
00000000: 0888 423d 726f d5bd d80a 9d3d 9437 e53d
00000010: dc9f 023d e771 ff3c 9cf3 9fbe cddd 99bc
00000020: ff0a 5b3e 0be7 b63b 29fe a6bd d752 97bd
00000030: e6ac bcbd fce0 d8bd 1840 07bd 057b b8be
00000040: 7817 09be 9b21 7dbe 895d 87be fb11 eebc
00000050: 5504 b53d 5eb9 c63c 9628 6a3d 715e 84be
00000060: 5f4e 803e 69a9 7dbc 8e93 5dbe 9a83 f03d
00000070: 73b8 ee3b ed70 8cbc 8793 613c 6c8f d13b
00000080: 1b97 0cbe 65ba f93b 8969 8c3d 3038 36bd
00000090: 289d 783d 4027 cebb 4454 70bd 24ef 6c3d
000000a0: 9ffb e33b 9e20 99bd 854e 5e3d ee64 41be
000000b0: 1c00 ccbb c526 02be a109 17bd f7d2 c1bc
000000c0: 79be 093d 2dd1 cd3c b45d b0bd d354 103e
000000d0: 6ca9 98bb aa85 5bbe a0b6 2cbe af35 8fbb
000000e0: 7fd3 d13e 6d1e a4bd daca 013c dfb5 51be
000000f0: 9969 bdbd d234 403d 8b13 a3be 6462 f7be
00000100: 3581 febd 53f1 1f3d 3277 e0bd 356f aa3b
00000110: 95a0 debc 60fc 6fbd 047a 5cbd efb2 833d
00000120: c7fb 0dbc 46ba eebb fce8 e43c 994c 2e3d
00000130: 4f8e 36be 0bee 593f 2e83 1d3d be77 833e
00000140: afb9 5abe f5a6 81bd cb74 28be fb71 a2bd
00000150: ca00 0c3e 08d2 b5bd 9475 adbe ca7e 17be
00000160: 73de 183d 7dee 94be 24dd 84be aa42 503c
00000170: f575 5dbd 8e00 48be 0444 56bc 635f cdbe
00000180: 2438 e6bd 2506 08be c85a 23bd 1e6a c6bd
00000190: 2f05 d2bd 579e a4bd 2bab afbc dba4 56be
000001a0: eb9a fe3d 2749 883d b37a 8dbd baf8 a23d
000001b0: 8339 73be 2466 8ebc 68e9 63bd 691c cfbd
000001c0: 0b38 b4bd 861b 45bd 56bc a03d 655f 0bbe
000001d0: 246d 6e3e 65f5 46bd 9b12 9bbd 3f28 7d3e
000001e0: 33e5 ae3d 9740 953d d195 95be 7ccf a2bd
000001f0: d22e 8dbe 2714 49be bfc6 a4bd 8484 1e3d
00000200: dbbb 673e 4297 d9bd e756 c33d 1c59 71bd
00000210: 72d7 ec3c fad0 6d3d 1442 ae3d 6e2e 27be
00000220: 25c1 0ebe 53c5 58ba 2483 463d fbe9 863d
00000230: 1d96 b83d fa90 06bd 267a 1b3e 97b3 92bd
00000240: 1790 263d e61a 083d f5b2 523e d078 943e
00000250: 87c6 443e eb9d 98bd bc35 803d a044 d9ba
00000260: aa7d bf3a cb5c a4bd 3743 203c 2694 ce3d
00000270: 149b b9be 0b74 553d c83b 0a39 0277 193e
00000280: e5aa f5bd d1db 2bbc 1df2 7fbe 3df8 3cbb
00000290: a340 11be d4b6 1f3d 563a 7dbe 184b 16be
000002a0: 1020 f53c be54 453d bc67 8abd dcc9 33be
000002b0: 6825 2e3d 5333 cebd 86fa febd d6fb 203d
000002c0: 7bd7 3b3d df4d 853e a5c0 fb3d 11b0 263e
000002d0: 3cb4 d4bd a2a1 983d a7a9 d7bd 06ff 5ebd
000002e0: 1b28 29be 9793 3b3e 6408 7fbe 60f3 06bd
000002f0: 7bbf 923d 0660 19be 324d bbbd f05e 8d3d
00000300: 18a2 c53d d6ff d4bd a1ac 103e 997c 09bd
00000310: 815b 763d c4f8 f0bd 56eb 07bd f211 cdbc
00000320: 4cb1 bc3e 72ea 5fbd dccd b23d 2ada 2dbe
00000330: 3d09 afbb cd24 2f3e 01fc ff3d 2dda 92bd
00000340: 0190 a73e 38ec 96be 9982 82bd 80be 643d
00000350: 759e 56be 6601 27be 96a9 513d c852 c53d
00000360: 0cd9 1ebe bc8b 4fbd 817e 87bd 6426 ccbc
00000370: 1521 ab3e 278a f63d 6fb1 433e a842 a93d
00000380: 91e3 1fbe 22f7 f8bc b36f c2bd 2d5d 8bbe
00000390: 2d52 c93e aeaf ad3c 1e61 883d e597 c53d
000003a0: c2ed c53c ec4d 893c 8a10 af3e a17d ef3b
000003b0: ecc2 5bbe 7972 32be d360 b8bd 0a16 053e
000003c0: 1831 3a3e f75c 16be bf12 8abd 5ae1 633c
000003d0: 3199 93bd 2693 933c 2d95 5a3e d504 9ebd
000003e0: bc8f c9be d8df 803d 57f8 913d 90a6 7bbe
000003f0: b0f8 793e dd14 d4bd 5041 423e b892 68be
