models/rand/random_bench_10-Jun-2020_06-00-28/25/state_dict.pt (torch_old, 442428 bytes, 6 tensors)

embedding.weight f4 [6, 10]
000000 61 19 fa be 3a be 90 bf c7 42 16 40 ae 29 a2 bf
       -0.48847488 -1.1308053 2.3478258 -1.266897
000010 db f4 9d bf 38 1e 1f 3f 3b e0 4c 3e d2 71 5f 3e
       -1.2340349 0.62155485 0.20007412 0.21820763
000020 66 f2 1d c0 ce 9b 0a 3f b8 e8 8a 3e 8a ac ae 3f
       -2.4679198 0.5414399 0.27130675 1.3646405
000030 53 f4 02 3f 22 55 13 3f 94 d9 09 bf 5b 68 bc 3f
       0.5115406 0.5755178 -0.5384762 1.4719347
000040 57 a7 9c 3f 2d f5 af 3f ee 8c 95 bf 7b c4 81 3f
       1.2238568 1.3746697 -1.1683633 1.0138086
000050 59 05 af be 1f 42 89 bf 82 7c 42 3f 86 b4 e5 3e
       -0.34183767 -1.0723304 0.75971234 0.4486429
000060 c0 4b f7 3e 60 ec 04 c0 7a 5e 8f 3e 28 dd 2b bf
       0.4829998 -2.0769272 0.28001767 -0.6713433
000070 c2 d1 98 bf e5 bc f1 3e 53 c9 58 bf ba f2 a9 3f
       -1.1939013 0.47214428 -0.84682196 1.3277199
000080 9f 2e 2a c0 68 18 0a 40 00 51 90 3f 7a 2f fa bf
       -2.6590955 2.1577396 1.1274719 -1.9545739
000090 d5 bd 1a 3f 2e b1 38 3f 89 55 9f bf 05 39 05 40
       0.6044591 0.72145355 -1.2447978 2.0816052
0000a0 17 97 35 c0 00 cc 6a 3f c3 f5 84 bd ae bd 67 bf
       -2.8373468 0.9171753 -0.06492188 -0.90523803
0000b0 f1 e7 ed bf 1c ad 8a be a2 48 72 3e 51 a2 27 c0
       -1.8586408 -0.27085197 0.2366052 -2.619282
0000c0 21 80 47 bf 32 db fc 3f 48 64 c6 3f 2d ad 51 3e
       -0.77929884 1.9754393 1.5499353 0.20476218
0000d0 7f c2 b6 bf b0 8f 34 bf 36 1b 64 bf 1d 8a 03 3e
       -1.4278105 -0.7053175 -0.8910402 0.12845655
0000e0 1c 11 6b bf d2 42 34 c0 51 68 e3 3e ef 9b 02 3f
       -0.9182298 -2.8165784 0.44415525 0.51019186

lstm.weight_ih_l0 f4 [640, 10]
000000 71 41 2a be 14 0d 36 3f 4d 34 f8 be 25 f2 e1 3c
       -0.16626526 0.71113706 -0.48477402 0.027581284
000010 88 82 a9 be 25 f2 dc 3e d9 66 b7 bd d0 50 ec 3c
       -0.331074 0.43153492 -0.089551635 0.028847128
000020 35 8a 0f bc d7 20 aa 3e 07 5b 85 bc 0a 8f a4 3c
       -0.0087609785 0.3322818 -0.016278757 0.020087738
000030 83 1b 86 bd 9c 5b c3 3b c8 8e 0c be 95 5b 31 be
       -0.06548216 0.0059618484 -0.13726342 -0.17320092
000040 e5 2e 15 bd 57 4b 68 be 4b d6 ec bd 20 ab 59 3e
       -0.036421675 -0.2268499 -0.11564311 0.21256685
000050 4d bc 5f bd 4e 0c a8 3e b0 39 08 be 16 10 c6 bd
       -0.054622937 0.32821888 -0.13303256 -0.09671037
000060 56 69 75 be dd 15 98 3e 89 a2 93 3b 91 bd 9e bd
       -0.23965964 0.2970418 0.0045054597 -0.07751001
000070 3e d2 43 bd 41 62 25 3e f4 33 4c bd 64 a8 5d 3d
       -0.047807924 0.16150762 -0.049854234 0.054115668
000080 36 29 1c 3e 9e 99 51 3d 33 f6 84 bb 07 98 de 3d
       0.15250096 0.05117189 -0.0040576695 0.10868841
000090 ec d0 8d 3d d8 a8 b7 ba fe d0 90 bd 32 b7 a0 bd
       0.06924614 -0.0014012111 -0.07071112 -0.07847442
0000a0 b6 7e 76 bd 31 1d 1f 3e c4 60 b0 be ae c4 29 bb
       -0.060179435 0.1553848 -0.34448826 -0.0025904584
0000b0 ef b7 13 be 2f d1 ad bd dd 13 2c be 72 41 7f be
       -0.14425634 -0.08487164 -0.16804452 -0.24927309
0000c0 57 9c b8 3d 7c 9e 3a 3e ef 38 7b be 6d dc 95 be
       0.090141945 0.1822452 -0.24533437 -0.29269734
0000d0 39 50 e5 3e 94 29 7a be cc f4 4f be fe c6 7d bd
       0.44787768 -0.24429923 -0.20308226 -0.061957352
0000e0 99 2f 50 3e 79 1d f3 bc 48 f6 70 be e2 01 af 3c
       0.20330657 -0.02967714 -0.23531449 0.021363202
0000f0 bc 0d 57 bd 5b 2f 78 be 11 a3 9a bc b0 34 b6 bd
       -0.052503332 -0.24236815 -0.018876584 -0.08896768
000100 da c4 b5 bb b2 e4 93 bc ca 88 c0 bd 3e 63 ab bc
       -0.005547148 -0.018053386 -0.094010904 -0.020921346
000110 8a 07 f0 3d 38 95 a2 bd b2 64 4f be 04 59 6a 3e
       0.11720188 -0.079386175 -0.20253256 0.2288552
000120 c4 9f 86 3d 29 5c 50 3e 14 84 48 3e e2 69 d7 bd
       0.065734416 0.20347656 0.19581634 -0.105182424
000130 cb 28 c0 3e 2e 39 68 3e b0 3d b6 be c8 a5 4f 3e
       0.37531123 0.22678062 -0.3559394 0.20278084
000140 e8 69 07 be 5e 4b 55 3e 0f c5 1b be 5d 7d a6 bd
       -0.13223994 0.20829532 -0.1521189 -0.0812938
000150 22 c7 c3 be 1d a0 a3 3d f1 d4 e2 bd 16 01 a2 be
       -0.38237864 0.079895236 -0.110757716 -0.31641454
000160 c7 f6 e7 bd 8c 16 9c 3e 4a 5a 4a be 37 de 97 3d
       -0.11326366 0.30485952 -0.19761005 0.07415431
000170 55 11 d0 be a2 fb ac 3e 0d 16 b5 3e 7c 0a 1d be
       -0.40638223 0.3378573 0.35368386 -0.1533603
000180 e9 9a 3f bc 1b f1 4a 3e 85 7f f5 3b 79 94 39 3d
       -0.011694648 0.19818537 0.007492008 0.04530761
000190 fc ab 3f be 58 9f 7a bd 1a d7 83 3d 18 85 17 bb
       -0.1871795 -0.06118712 0.06437512 -0.0023120102
0001a0 8c fa 6f 3d 80 93 21 be 9b 4c 73 bd 1b 98 b8 3d
       0.05858855 -0.15778923 -0.05939923 0.09013387
0001b0 a7 fd 76 bc c2 45 bb 3d ac 4d 6b 3e c8 d7 ae be
       -0.015075124 0.091441646 0.22978848 -0.34149003
0001c0 d3 1d 02 3f b2 5f d8 be bb 33 d9 be 5e 34 5d 3e
       0.5082676 -0.4226051 -0.4242228 0.21602008
0001d0 5a d7 50 be 3a 29 9d be 28 a5 17 3d a3 6b 89 be
       -0.2039465 -0.30695516 0.03702274 -0.26839933
0001e0 e8 00 d6 3d b9 e3 e1 3e ef 2d fd bd ea e0 00 3c
       0.104493916 0.4411905 -0.12362277 0.007866124
0001f0 6f c5 8e be be 09 80 3e b4 1e 0c 3e de 51 4b bb
       -0.27885005 0.25007433 0.13683587 -0.0031024138
000200 e7 55 0b be 88 61 19 3e 7f a4 91 be 19 bc 34 3d
       -0.13606988 0.14978611 -0.28445813 0.044124696
000210 6b bc 54 3e 55 9f 52 be f1 85 a5 be 0d 26 f2 3d
       0.20775001 -0.20568593 -0.32328752 0.11823664
000220 76 b3 fc bc 8d 16 22 be 7b 44 66 bc e2 cd fb 3d
       -0.030847292 -0.15828915 -0.014054413 0.122951284
000230 26 c8 88 be ad 4f b5 3e 76 c5 14 be 71 82 8a 3e
       -0.267152 0.3541235 -0.1452845 0.27052644
000240 ac 1a 99 3d 22 33 39 be 56 6c 34 3e 96 f5 dc bd
       0.074757904 -0.18085912 0.17619452 -0.10789029
000250 7a a6 8b be a2 8d 9b 3e df fe 22 3e e4 86 11 be
       -0.2727545 0.30381495 0.15917538 -0.14211613
000260 df fe e8 be 1e e6 0d bd 58 84 8d 3d c8 65 c0 be
       -0.4550695 -0.034643285 0.06910008 -0.37577653
000270 bb 11 8c be ec 7f b2 be f8 93 c5 3d f3 f4 4c 3e
       -0.27357277 -0.34863222 0.096473634 0.20015316
000280 7b c7 49 3c 8e 5a 3f bd c5 15 98 3e 29 b4 96 be
       0.012315626 -0.04671722 0.2970411 -0.29434326
000290 a4 d9 3a be 55 84 75 3e 6e 6d 99 bc 65 b0 53 bd
       -0.18247086 0.23976262 -0.018728938 -0.051681895
0002a0 22 ea a6 3d e8 49 8b bd 85 8c 0c 3c bc 11 9a bd
       0.08150126 -0.06801206 0.008578424 -0.07522914
0002b0 95 38 ec 3c f5 1c 0f bd 38 45 42 3e 92 1c 35 3e
       0.028835574 -0.034939725 0.18971717 0.1768668
0002c0 63 0f 24 bd 53 bb db 3d e8 e0 cf 3d 6b db f1 bd
       -0.040053736 0.10729089 0.10150319 -0.11809429
0002d0 83 92 b0 bd 88 60 0d 3e 03 cb ad 3d 1a d3 a6 be
       -0.08621695 0.13806355 0.08485987 -0.32582933
0002e0 d6 80 a9 be d1 d7 df 3e 86 1a d0 bc c9 5b fa bc
       -0.33106107 0.43719342 -0.025403272 -0.030561345
0002f0 fd cb 8a 3d f2 c3 4a 3c 53 31 c2 be 36 23 0c 3e
       0.06777189 0.012375819 -0.37928256 0.13685307
000300 ff 69 32 be 21 19 a2 3e 33 ee f0 3d a8 5d 58 be
       -0.17423247 0.31659797 0.11764183 -0.21129477
000310 83 e2 7b 3e 6f fc b8 3d cd 6a a2 be 4f 95 ad 3e
       0.24598126 0.09032523 -0.31722108 0.33902976
000320 5a 9c 4b be 32 a9 24 be e2 0c c8 be dc ea 09 3d
       -0.19883862 -0.16080168 -0.3907233 0.033671245
000330 5b b6 fb bb 47 03 9c be 31 e3 97 be 47 1c 8c be
       -0.0076816506 -0.3047125 -0.2966552 -0.27365324
000340 05 9a 54 3d ff 62 22 3e b2 56 03 be f6 bb 19 3f
       0.051904697 0.15858077 -0.1282604 0.6005243
000350 33 03 b9 be a6 8e 85 bd 63 7e be be 74 ea 6b 3e
       -0.36135253 -0.06521349 -0.372058 0.23038656
000360 82 55 27 3c 26 ae 37 be 3d 55 79 bd ea fc 4f 3e
       0.010213258 -0.17937526 -0.060872305 0.20311323
000370 db 7e 85 3c 6d 55 41 be a9 a3 8e bd 6d 40 18 3d
       0.016295841 -0.18880244 -0.069648094 0.037170816
000380 90 03 e3 3d 52 77 49 be 05 78 fc bd d5 a2 35 be
       0.11084664 -0.19674423 -0.123275794 -0.17737897
000390 6b 87 f2 bd 5a 3c 77 3d bf 77 96 3e 3b 98 88 3d
       -0.11842235 0.06036029 0.29388234 0.06669661
0003a0 4d cf 6e 3c 45 bc d8 be d7 99 df be 1b 7d e5 3e
       0.014575792 -0.42331138 -0.43672058 0.4482201
0003b0 1d d3 77 be f1 38 80 be 12 38 82 3e 56 41 84 ba
       -0.24201627 -0.25043443 0.25433403 -0.0010090272
0003c0 ce e3 20 be 5a ca aa bd 15 35 f4 bd c5 69 8e 3d
       -0.157119 -0.08339377 -0.11924187 0.06953768
0003d0 21 9f 7a 3e 2c 19 aa be 7a 50 12 ba e1 5a b0 3c
       0.24474765 -0.3322233 -0.000558145 0.02152771
0003e0 3a b6 ff bd e1 74 70 3c 92 8f 87 bd 2d d3 6f bd
       -0.12485929 0.014676304 -0.06619181 -0.058551002
0003f0 21 f0 0a 3e 8e 4a 83 bd e3 f9 d4 3c e8 8c d6 bd
       0.13568164 -0.064107046 0.025998062 -0.104760945

lstm.weight_hh_l0 f4 [640, 160]
000000 90 68 62 be fb bb d5 3c ae 61 db 3d 00 e5 79 be
       -0.221102 0.026090613 0.1071199 -0.24403763
000010 08 bc 97 3e 71 56 08 bd 07 45 e8 bd 4f 9a 27 3e
       0.29635644 -0.033285562 -0.11341291 0.16367458
000020 64 1f 7c bc be c1 ac 3e 86 f7 a4 be dd 9d 08 bd
       -0.0153883435 0.33741564 -0.32220095 -0.033353675
000030 63 1d 95 bd 41 7f 80 ba 0e 26 c9 3e d3 07 aa bd
       -0.07280996 -0.000980355 0.39286846 -0.083022736
000040 06 7c 4a be 82 81 b5 3e 63 99 0c 3d 5e 04 c3 bd
       -0.19773874 0.3545037 0.03432597 -0.09522317
000050 5a fd f1 3e 65 d2 28 3e d1 85 6b 3d f4 f6 e4 be
       0.47263604 0.16486509 0.057500664 -0.4471966
000060 97 12 d0 bd 43 8c 36 bd c7 8f e9 bc bb 58 9d bd
       -0.10159796 -0.044567358 -0.028510941 -0.076829396
000070 cb f3 1e 3d 60 f1 69 bd d3 21 d8 bd 96 57 78 3e
       0.038806718 -0.05711496 -0.105533265 0.24252161
000080 cc 58 76 3e a0 5a f9 3b 09 7d 01 bd 09 65 fb 3d
       0.24057311 0.0076096803 -0.031613383 0.1227513
000090 49 fc 7f be 60 be 2d 3e 8e 0a 5b 3d c2 7b 61 bd
       -0.24998583 0.16967154 0.053476863 -0.055049665
0000a0 2d 6f b4 bd 76 d6 e1 3e ae 60 1e 3e 51 ea b9 3d
       -0.088102676 0.44108933 0.15466568 0.090778954
0000b0 6f c8 eb 3d dd f1 de bc a5 57 f7 3c 3f 7b d4 3d
       0.11512839 -0.027214939 0.03019316 0.1037507
0000c0 19 3f 16 3d eb ea f6 3d 0c 77 32 3e 7f a5 f1 bc
       0.03668127 0.12056526 0.17428225 -0.02949786
0000d0 e7 1b 03 be 3d 7a 1c bc 46 0c ab 3a d5 e5 96 ba
       -0.12803613 -0.009550628 0.0013049922 -0.0011512587
0000e0 a9 f3 db bd 5e e6 cb bd 03 70 d3 3d 20 ea 83 3c
       -0.10739834 -0.099560484 0.10324099 0.01610285
0000f0 6a 1e 48 3d 85 aa e1 bd de 69 aa bc 2b 1c ae 3d
       0.04885713 -0.11018852 -0.020802435 0.08501466
000100 85 4f 6a be 63 0a d3 3d 70 18 ba 3d ab d3 f4 3d
       -0.22881897 0.103047155 0.09086692 0.11954435
000110 c1 fc 6e 3e 35 00 ec 3d 2d f5 01 bd 23 62 1e 3e
       0.23338605 0.11523477 -0.03172796 0.15467124
000120 f0 f6 00 3e 34 57 db 3c 1f 91 0e bc 78 99 26 bd
       0.12594199 0.02677498 -0.008701592 -0.040673703
000130 9f 08 e7 3d cc 8f 2f be 48 8b b1 be f8 5f db bd
       0.11280941 -0.17144698 -0.34676576 -0.10711664
000140 01 01 be be f5 9c 52 3e 32 f5 f0 bc 76 92 92 3d
       -0.3711014 0.20567687 -0.029413793 0.071568415
000150 f2 4e 10 bd ee 83 90 be 7f b0 af bd 02 17 62 bd
       -0.035231538 -0.28225654 -0.08578586 -0.055197723
000160 d5 80 e3 bd 9d b9 5b be f2 d4 77 3d 76 f4 9f bd
       -0.11108557 -0.21457525 0.060505815 -0.07810299
000170 54 8b a8 bc ad d9 43 3e 4d 60 84 3d 26 6b 7b be
       -0.02057425 0.19126005 0.064636804 -0.24552593
000180 67 d4 3e 3d 16 75 f1 3c fc 12 de 3d 3f 09 93 3e
       0.04658928 0.029474776 0.10843465 0.28717992
000190 63 e5 b6 be 16 6c 86 3e fb c7 b3 be f6 28 3f 3c
       -0.35721883 0.26254338 -0.3511351 0.011667481
0001a0 99 1f 61 bd 0d cf e8 bd b5 69 a7 3c 57 cd fe 3c
       -0.054961774 -0.11367617 0.020436147 0.031103773
0001b0 3d 13 05 3d 2b c5 12 3e 90 21 e4 3d 04 25 93 3b
       0.03248905 0.14333026 0.11139214 0.0044904966
0001c0 b6 6a 16 3e 1b f9 da 3d ef 1b b8 3d ed 45 ca 3d
       0.14689144 0.10692044 0.08989703 0.098766185
0001d0 13 1a 59 3e 47 8f 2c 3d 65 a1 3a 3e 4b 92 20 3e
       0.21201353 0.042128827 0.1822563 0.15680806
0001e0 8f f9 1d 3e ab b6 4c 3d ac 77 6a 3d 4e 07 85 bd
       0.1542723 0.049978893 0.057243034 -0.06495534
0001f0 ac c0 aa bd 0b f7 6d bd 3a db 3d 3e b5 f7 4b bd
       -0.083375305 -0.058096927 0.1854066 -0.04979678
000200 03 7e 87 bd 46 0e 2d be 6e bd 1b 3c 87 68 6d bc
       -0.06615832 -0.16899976 0.009505613 -0.014490253
000210 b9 ff a3 3d 87 2c a8 3c 24 d5 99 3d a2 03 0e be
       0.080077596 0.020529045 0.075113565 -0.13868573
000220 85 5c 67 3c d4 f1 34 3d b4 5e 98 3e b7 cf eb 3c
       0.0141211795 0.044175938 0.29759753 0.02878557
000230 27 74 56 bd 07 38 a9 bb f4 d9 ea be eb 5e c0 bd
       -0.052356865 -0.0051641497 -0.4586941 -0.09393104
000240 a2 d0 05 bc 6f d2 6a bd a6 52 b7 3e 28 08 6b bc
       -0.008167418 -0.05732959 0.35805243 -0.014345206
000250 85 db 4d be 14 89 f8 3d bc 66 d3 3c 14 50 39 be
       -0.20103271 0.121355206 0.025805824 -0.18096954
000260 9e 77 d3 3c c1 d0 ed bd 07 8c 06 be c4 35 4a 3d
       0.025813874 -0.11612082 -0.13139354 0.04936768
000270 5d ef cc bc bc c9 46 3d 66 e3 89 3d 0b df ab 3c
       -0.025016481 0.048532233 0.06732826 0.020980379
000280 63 fb 24 3e 68 69 0b 3e d3 80 06 bd 01 e3 87 3d
       0.16111521 0.13614428 -0.0328377 0.066350944
000290 6a 0f e6 3d ce ef 82 3d 91 b2 bf bd b0 45 25 bd
       0.11233409 0.06393395 -0.09360231 -0.040349662
0002a0 02 a8 1b be 53 1c aa 3c e8 3f c8 3c 3c b7 62 bb
       -0.15200809 0.02076546 0.024444535 -0.003459408
0002b0 42 dd 69 3e 6e eb 32 3d 28 47 51 be e2 4d 44 be
       0.2283831 0.043681554 -0.204373 -0.19170335
0002c0 eb 0d ae bd 40 63 67 bd 67 75 02 3e ea d3 c2 bc
       -0.084987484 -0.056491137 0.12740098 -0.02378269
0002d0 70 ba 95 bd 1a 2c 14 be 89 e6 e9 3d f1 0e 09 bd
       -0.07310951 -0.14469948 0.11420924 -0.033461515
0002e0 d9 9f 2f 3d 64 03 df 3d 26 91 be 3c 53 9c 5f bd
       0.042877052 0.108893186 0.023262572 -0.05459244
0002f0 9d 6e 83 3d 79 b8 b0 3c 1e e3 d5 bb 35 2b 46 bd
       0.06417582 0.021572338 -0.0065273186 -0.04838105
000300 e4 d0 96 bd 68 d6 10 be 59 53 86 be 67 73 d3 3d
       -0.073640615 -0.1414429 -0.26235464 0.103247456
000310 d4 ae 09 3e 6f f8 9a 3c d6 98 ab bd f6 bb 7c bd
       0.13445598 0.01891729 -0.083787605 -0.06170269
000320 31 5c 23 3d 2b 8d b7 bd e0 67 b5 3d 71 53 8c bd
       0.039882842 -0.089624725 0.08857703 -0.06851853
000330 49 39 e8 bd dc 34 75 bd 21 52 33 3d 2a 8b 5a be
       -0.11339051 -0.059864864 0.043779496 -0.2134215
000340 28 c7 00 3e f9 1f a9 3d 60 d8 ce bd 7d d7 d0 bd
       0.12575972 0.082580514 -0.10099864 -0.10197351
000350 67 c3 c4 bd eb f5 7d bc fa fc 32 3b 2e 0c 6f bb
       -0.096075825 -0.015500526 0.002731143 -0.0036475766
000360 f1 fc 04 3e 01 23 66 3c be f5 d8 3d 2e 55 fc bc
       0.12987114 0.0140464315 0.105937466 -0.030802336
000370 2a 5b 8e 3d 49 72 3e 3e 9e 60 1f be 57 64 eb bd
       0.06950982 0.18598284 -0.155642 -0.11493748
000380 e9 8f 8b 3e 72 66 dd bb 2d 18 31 bd c3 48 fb 3d
       0.27258232 -0.006756597 -0.043235946 0.122697376
000390 3f 9d 44 3d ec 0b 44 be b6 1f 40 3c f7 5c c4 bd
       0.048001524 -0.19145173 0.0117263105 -0.09588044
0003a0 d0 e8 00 be 2e 4a 91 bd 80 07 77 3d 02 c7 96 bd
       -0.12588811 -0.07094227 0.060309887 -0.073621765
0003b0 8b 54 0d be 8b b8 00 3e 92 f4 0f 3e de 23 1d bc
       -0.13801782 0.12570398 0.1405814 -0.009591071
0003c0 69 d0 50 3e 07 cd 8b 3c e5 74 38 3e 0c 38 b2 bc
       0.20392002 0.017065538 0.18013342 -0.02175524
0003d0 2a 2d 04 3e 4d 54 b4 3d 55 36 b1 3d 6c b6 32 3d
       0.12907854 0.088051416 0.08652941 0.043631002
0003e0 20 43 47 3c f7 c5 ec 3c ba 3c 8f 3c a0 cb b3 bd
       0.012162 0.02890299 0.017485011 -0.08779073
0003f0 1c db 11 3b eb ad 08 bb 9b 63 8c 3d 6c 22 3d 3e
       0.0022255844 -0.0020855616 0.06854936 0.18470162

lstm.bias_ih_l0 f4 [640]
000000 6b 8a b8 bc f4 05 08 3e de 22 82 3d e1 c4 ab bd
       -0.02252694 0.13283521 0.06354307 -0.08387161
000010 36 e8 d6 3d 67 a0 3d 3e 8b 1b 47 be 9b fb 1d 3e
       0.104935095 0.1851822 -0.194441 0.15428011
000020 69 af 89 3e e9 f6 20 be e9 8c 89 bd 82 3b 08 3e
       0.2689164 -0.15719189 -0.067163296 0.1330395
000030 a1 a7 97 3e 00 60 b7 3d d9 52 b1 3e b1 36 f2 3d
       0.29620078 0.089538574 0.3463352 0.11826838
000040 8d 15 e0 bd 54 cc 48 be b5 63 24 be 23 2a 12 3e
       -0.109416105 -0.19609195 -0.1605366 0.14273886
000050 32 fb 3b bc 81 ee 7b 3d 51 89 7a 3d 3b c4 c3 3c
       -0.011473464 0.061506752 0.06116611 0.02389728
000060 4a 88 02 3d d9 e7 e9 3c 36 28 30 3e c8 35 ec 3d
       0.031868257 0.028552936 0.1720284 0.115336955
000070 79 48 6e 3c c8 e8 9f 3d c0 a5 77 3e 35 0d 34 bd
       0.014543646 0.078080714 0.24184322 -0.043957908
000080 c2 be 5b be 3f 72 92 3d 53 be a1 3d 9f e4 11 3e
       -0.21459487 0.07150697 0.078976296 0.14247368
000090 ff 78 bf 3d fa a0 86 3e 87 ce 0b bd 2f 77 c1 bb
       0.0934925 0.2629469 -0.034132507 -0.0059041004
0000a0 33 e3 34 3a 10 ea a8 3d 31 d5 25 3d 93 86 ee bd
       0.00069003104 0.08247769 0.04048652 -0.11646762
0000b0 d4 ac 54 be 59 c1 a2 3e a9 b6 c0 3c 28 d4 71 bc
       -0.20769054 0.31788138 0.0235246 -0.014760055
0000c0 26 95 10 3d 04 48 06 3e d2 e5 91 3d 0e 83 37 3e
       0.03529849 0.1311341 0.07123913 0.17921087
0000d0 69 e7 19 3e fe 85 2a 3e fb 42 4b bc 84 ce 77 3e
       0.15029682 0.16652676 -0.012406106 0.24199873
0000e0 98 08 1a 3e ec 0b 17 3e 1d 30 f7 bd 46 cd d4 3d
       0.15042341 0.14750642 -0.12069724 0.10390715
0000f0 88 d4 42 39 b0 6d 30 be db a1 d6 3b 4c e2 ec 3d
       0.00018580456 -0.17229342 0.0065500564 0.115666
000100 8e bd ea 3d 09 19 a3 3d 0c e9 36 3d 6f 60 25 3d
       0.11461936 0.079637595 0.044655845 0.04037517
000110 99 5b e5 bd ce 20 4a bb 18 07 9b 3d bc 10 8e 3d
       -0.111991115 -0.0030842307 0.075697124 0.069367856
000120 2c a4 1a 3d 5d 95 41 3e 9a 46 04 be 1e cc 1c 3d
       0.037754223 0.18904634 -0.12917557 0.0382806
000130 4e 52 82 be 42 81 65 3e aa f7 43 3d 1d ce f1 3d
       -0.25453418 0.22412589 0.047843613 0.11806891
000140 95 12 e5 bd 29 da 8c 3d 62 33 cf bc 07 1d 1e 3e
       -0.11185185 0.06877548 -0.025293056 0.1544076
000150 eb c9 82 bd 1e 3e ac bd bf 3a 9a 3d 49 e2 e1 3d
       -0.06386169 -0.084102854 0.07530736 0.110294886
000160 23 99 16 3e 64 10 24 3e 79 05 5c 3e e3 93 72 3e
       0.14706855 0.16021878 0.21486463 0.23689227
000170 2c a9 df 3d be 0b 83 bd b5 7d 14 bd b7 72 ea 3d
       0.10920939 -0.06398724 -0.036252696 0.11447661
000180 bb 80 06 bd 0a d0 26 bc 05 6c 20 3d 4b 0a 9c bd
       -0.03283761 -0.010181436 0.039165515 -0.07619151
000190 70 57 fb 3d 05 02 7e bd 28 94 2c 3e 78 f5 c4 3d
       0.12272537 -0.062013645 0.16853392 0.09617132
0001a0 f0 9e 22 3d bc 61 b2 3d 5c 05 fd 3b 78 5b 3c 3e
       0.039702356 0.087100476 0.007721586 0.18394268
0001b0 b4 2c 3f 3e 17 b2 05 3e 43 c5 fd 3d 5d e8 c4 3d
       0.18669397 0.13056217 0.1239114 0.09614632
0001c0 3d aa f5 3a 53 e5 b3 bd 04 3e 73 3e db 1d 9e bd
       0.0018742752 -0.087839745 0.23754126 -0.07720538
0001d0 96 92 5b be 7b 18 c6 bd ba 0c a1 3e 3a 71 fa bb
       -0.21442637 -0.09672638 0.31455022 -0.007642892
0001e0 69 9d 58 3d f7 4a 28 3e 9d e8 63 bd 67 0d bb 3d
       0.052884493 0.16434847 -0.05564176 0.09133416
0001f0 1b a9 12 3e b7 b7 a4 bc 44 db 14 3d 13 45 0d 3e
       0.14322321 -0.020107133 0.03634192 0.13795881
000200 6a c6 b5 3d e5 4d 5e 3e 00 22 4b 3e 26 65 ec 3d
       0.08875735 0.21709402 0.19837189 0.1154273
000210 30 b6 44 3c 20 75 8d 3d d9 72 70 bd 1b 81 67 3d
       0.0120063275 0.069071054 -0.058703277 0.05651961
000220 72 be 27 3c 11 f4 4d 3e 27 d6 39 3e 16 f7 bf b9
       0.010238277 0.20112635 0.18148099 -0.00036614452
000230 1b 40 08 bc 0a c1 57 3e ca fb 20 be 78 75 a7 bd
       -0.008316065 0.21069732 -0.1572105 -0.08176702
000240 c4 07 94 bd 12 04 50 3e 36 37 1d bc 30 8d 20 3e
       -0.07228044 0.20314053 -0.009595683 0.15678859
000250 33 54 c2 bd 6a 20 59 3e 10 bb fe bc bc 23 a3 3d
       -0.09488716 0.21203771 -0.031095058 0.079658
000260 e9 e6 76 3e 9b d7 cb 3d a5 50 68 3d d3 59 50 3e
       0.24111523 0.09953233 0.056717534 0.20346765
000270 f8 10 02 3e a2 6c 3a 3e f6 8e 12 3b 35 c6 31 3e
       0.12701786 0.18205503 0.0022363043 0.17360766
000280 e7 3e f7 bd 3b 14 a9 bd 3a 54 c8 bd 9f 4e f9 bd
       -0.120725445 -0.08255812 -0.0978169 -0.12173199
000290 76 db f2 bd a8 73 1a be 97 d8 cd bd 36 c3 b4 bd
       -0.11858265 -0.15083182 -0.10051077 -0.08826296
0002a0 20 4f 56 be b2 63 49 bd 3f a5 04 be c7 43 1b be
       -0.20928621 -0.049167342 -0.12953661 -0.15162574
0002b0 10 02 a4 bc 37 2c f1 bd 24 98 4b bd 11 db a6 bd
       -0.020020515 -0.117760114 -0.04970564 -0.08147252
0002c0 0e 3f 07 bd 80 be 0e 3d 53 06 57 be 5d 8c 99 bc
       -0.033019118 0.034849644 -0.20998506 -0.018743688
0002d0 c8 9a 99 bd d4 7e 69 be 6d 26 21 be bc c8 ab bd
       -0.07500225 -0.22802287 -0.15737315 -0.083878964
0002e0 f3 3c 1e be 25 c6 dd 3c e3 ff 13 be 42 33 bc 3d
       -0.15452938 0.027072022 -0.14453082 0.09189464
0002f0 74 b4 d9 bd a2 f9 00 be 9c a4 09 be 67 f3 33 bd
       -0.10630122 -0.12595227 -0.134417 -0.0439333
000300 12 b5 f0 bd fa df db bd 79 33 48 be d0 78 90 bd
       -0.117532864 -0.107360795 -0.19550885 -0.07054293
000310 15 15 df bd 07 a6 ad bd fc aa 2b be 69 9a 7d bc
       -0.10892693 -0.08478933 -0.16764444 -0.015478709
000320 60 23 9b bd 1b 11 97 bd 18 57 22 bd 0d 1f 70 bc
       -0.075751066 -0.073763095 -0.03963384 -0.014655841
000330 38 5b ae bd b0 19 23 bd 0f a6 11 be ba eb 85 3b
       -0.08513492 -0.03981942 -0.14223503 0.0040869387
000340 a2 b4 88 bd 00 ea c1 bd 7e e8 4a be e7 29 e1 bd
       -0.06675078 -0.0946846 -0.19815251 -0.1099432
000350 c7 f2 fc bd 74 cd fc bd e1 95 a0 bd b4 06 0e be
       -0.123509936 -0.123438746 -0.07841087 -0.13869745
000360 49 74 9d bd 21 cb 6c bd aa 67 53 bd 29 9d 96 3c
       -0.07688195 -0.057810906 -0.051612534 0.018385487
000370 9a 81 77 bd 3d 65 b7 bd b9 76 44 bc 14 ca d0 bd
       -0.060426332 -0.089548565 -0.011991196 -0.10194793
000380 a2 6b 74 be ae d3 0a be 6b 2e 57 bd 4f 1f bb bd
       -0.23869184 -0.13557312 -0.052534502 -0.09136831
000390 07 c3 fd bd bd 68 94 bd 21 e8 0f bd 94 4a 29 be
       -0.12390714 -0.0724654 -0.035133485 -0.16532356
0003a0 27 22 07 be 0a 2d a5 bd 36 cd b2 bc cb 32 2d bd
       -0.13196622 -0.08065231 -0.021826368 -0.042284768
0003b0 bc 80 b7 bd 6f 7f ed bd 55 ff f0 bc 38 d4 16 be
       -0.08960101 -0.11596572 -0.029418627 -0.14729393
0003c0 4d e5 12 be a8 05 31 be f9 06 23 be 79 c3 03 be
       -0.14345284 -0.17287314 -0.15920629 -0.12867536
0003d0 02 3a 9a bd f0 48 01 be f8 43 46 bd 3f d6 a9 3b
       -0.07530595 -0.1262548 -0.048404664 0.005183011
0003e0 04 b0 f9 bd 82 83 0d bd 5a de 9d bd 74 2e 4d bd
       -0.121917754 -0.034549244 -0.07708426 -0.05009313
0003f0 2f 6c 08 3c 2b c6 f5 bd 2e 84 06 bd 2d db be bd
       0.008326574 -0.12000688 -0.0328409 -0.09319148

lstm.bias_hh_l0 f4 [640]
000000 a8 a1 2c bd 54 d4 1c 3e ca fd df 3d a7 8a 9d bd
       -0.042146355 0.15315372 0.10937078 -0.076924615
000010 68 5b 23 3e 62 1f 9f 3d 2b 3c f1 bd 9b 09 73 3e
       0.15952837 0.07769658 -0.11779054 0.23734133
000020 91 9c 50 3e 07 a1 2f be e5 5b a5 bd 28 5a 2b 3e
       0.20372225 -0.17151271 -0.08074168 0.1673361
000030 92 2d 4e 3e 1f 8d 41 bc ab ec 91 3e f3 d0 4a 3e
       0.20134571 -0.011813431 0.28500876 0.1980627
000040 17 75 8d bd dd 3c 87 be dd b0 24 bd ab cc 3c 3e
       -0.06907099 -0.26413622 -0.040207732 0.1843745
000050 3c 6a 1c 3d f6 a1 0f 3e 23 df 1d 3e 6c 1c 9a 3c
       0.03818725 0.14026627 0.15417151 0.01881238
000060 0c 35 70 3d 37 f2 2b bd cb 27 95 3e d7 0b 74 3d
       0.05864434 -0.04197904 0.29131922 0.059581604
000070 c5 b2 7c 3b 5b 88 b3 3d be 89 91 3e 3f cc 8c bd
       0.0038558703 0.08766242 0.284254 -0.06874894
000080 d0 95 84 bd 2d bd 02 bc 63 0f 35 3d 8b e8 0c 3e
       -0.06473887 -0.007979673 0.044204127 0.13760583
000090 d9 34 f7 3d eb 93 7b 3e 22 af dd 3d a1 89 bf bd
       0.12070627 0.24568145 0.108244196 -0.093524225
0000a0 7f 45 86 3d fb b0 8a 3d 03 76 2b 3e 69 26 b8 bd
       0.06556224 0.067720376 0.16744237 -0.08991701
0000b0 1f 8c 87 be 5b 74 5a 3e e9 fd b8 3d 76 e8 eb 3d
       -0.2647409 0.21333449 0.090328045 0.11518948
0000c0 26 94 88 3c 52 66 98 3d 11 29 4b 3d 9d de 10 3e
       0.016672205 0.07441391 0.04959971 0.1414742
0000d0 f7 00 c0 3d 14 00 31 3e 27 65 94 bd 18 9f bb 3e
       0.09375184 0.17285186 -0.07245856 0.36644816
0000e0 a9 d5 a2 3d 53 6e 56 3e 4d 96 da bd 75 d2 7a 3d
       0.07950909 0.20940523 -0.10673199 0.061235864
0000f0 b6 6c 9b bc 4d af fe bd ea 68 07 bd 55 44 73 3d
       -0.018972736 -0.1243578 -0.03305904 0.05939134
000100 f7 85 07 3e b0 54 06 3e eb c6 dc 3b f6 7b 0b 3e
       0.13234697 0.13118243 0.00673758 0.13621506
000110 b7 10 35 be 12 ec 3a bd ef 33 95 3d d4 a8 15 3d
       -0.17682157 -0.04563529 0.07285296 0.03653796
000120 de aa ca bc 65 84 78 3e 96 0f aa bd 01 ae 5e 3c
       -0.024739679 0.24269255 -0.08303754 0.01359129
000130 7a 6b 5c be ed 18 bc 3d 09 bf 31 bd c7 58 0c 3d
       -0.21525374 0.09184442 -0.043395076 0.034264352
000140 ac fb 2b 3d 53 c8 4f bd 52 8b 00 bd 49 c1 23 3d
       0.04198806 -0.050728153 -0.031382866 0.039979253
000150 42 58 d0 bd c2 c9 f1 bd a5 bd 1a 3e 25 f5 0f 3e
       -0.10173084 -0.118060604 0.15111406 0.14058359
000160 e9 40 18 3e 8d d4 ae 3d 58 4b 7d 3e ca 1a 63 3e
       0.14868511 0.085366346 0.24735773 0.22178188
000170 44 a5 4c 3d df ae 90 bd c6 38 88 3d bc 97 f5 3d
       0.049962297 -0.07064604 0.06651454 0.11991832
000180 0e 87 12 be 0a d4 98 3d 3d de ac 3b d8 1d 9d bd
       -0.14309332 0.07462318 0.0052755163 -0.07671708
000190 09 a6 f0 3d 71 1a 50 3c 66 4b 49 3e 81 b0 3e 3d
       0.11750419 0.012701617 0.19657668 0.046555046
0001a0 a3 51 a1 3d 38 b4 13 3e 26 60 10 3e fd b8 45 3e
       0.07876899 0.14424217 0.14099178 0.19308849
0001b0 b4 fc 53 3e 6b 39 2d 3e 29 df 15 3e 89 8b 16 3d
       0.20701867 0.16916434 0.1463591 0.036754165
0001c0 41 87 5c 3d 44 df a9 bd 2a 44 5c 3e 21 ac b1 bd
       0.053839926 -0.08294538 0.21510378 -0.08675409
0001d0 12 8f 47 be 63 2e c4 bd 0a 83 82 3e 91 b7 83 bd
       -0.1948817 -0.0957916 0.254906 -0.06431497
0001e0 84 a8 40 3d 29 6b da 3d 34 1d 81 3d 8b 36 1e 3d
       0.04703571 0.106649704 0.06304398 0.038626235
0001f0 13 3d 83 3d a4 61 91 3d 23 8b d0 3d ac 2f d9 3d
       0.06408133 0.070987016 0.10182788 0.10604796
000200 28 f9 c4 3c bd 91 2a 3e 4e 01 3b 3e 0b 47 25 bb
       0.024044588 0.16657157 0.18262216 -0.0025219347
000210 a5 31 64 bd 0a 98 46 3c b5 0a 3e be 0b f0 8b 3d
       -0.055711407 0.01212121 -0.18558772 0.06832894
000220 c4 29 8d 3d 77 d1 20 3e b3 76 4f 3e 7a 5e 6e 3b
       0.06892732 0.15704904 0.20260124 0.003637223
000230 ec 0e da bd 26 07 89 3e 65 e3 5a be 31 59 89 bd
       -0.10647377 0.26763266 -0.21375807 -0.06706465
000240 9e ce 49 3d 09 da 90 3e a9 55 fd bc f4 3b 0c 3e
       0.04926931 0.28291348 -0.030924635 0.13694745
000250 13 e6 2a bd f5 b5 31 3e 19 93 48 3d 7b 90 28 3e
       -0.041723322 0.17354567 0.04896841 0.16461365
000260 23 72 63 3e e0 28 0e 3e 57 43 0b 3e 55 aa 83 3e
       0.22211508 0.1388278 0.13599907 0.2571589
000270 67 f9 e8 3c 53 ec 63 3e 38 9d 99 bd e6 5a 35 3d
       0.028439237 0.2225812 -0.0750069 0.04427614
000280 02 f2 0a be 37 b8 7e 3c 4b e4 51 be 6b 24 46 be
       -0.13568881 0.01554685 -0.20497243 -0.1934983
000290 98 47 55 bd 50 6b ce bd 47 d6 88 bd 39 cb 48 be
       -0.05207023 -0.10079062 -0.06681495 -0.19608773
0002a0 21 99 3c be cc 7f 86 bd 2e 88 02 be 04 b6 12 be
       -0.18417789 -0.06567344 -0.12747261 -0.14327246
0002b0 a5 ec f5 3c 09 42 17 be b2 ed 9b 3b 53 e2 ea bd
       0.030020067 -0.14771284 0.00475856 -0.11468949
0002c0 0f 9e d0 bd f6 7d b8 bc 91 35 75 be 30 2f fa bb
       -0.10186397 -0.022521 -0.23946215 -0.0076350197
0002d0 a8 1c d2 bd ed 06 58 be b6 c8 1c be c4 94 69 3d
       -0.10259372 -0.21096392 -0.1531094 0.05702664
0002e0 ce c0 90 bd c4 e4 ce bd 97 49 f3 bd a4 46 00 3d
       -0.070680246 -0.10102227 -0.118792705 0.03131737
0002f0 2c 5c a6 bd 7f c3 b7 bd e2 e0 bd bd a3 90 e1 bd
       -0.08123049 -0.08972835 -0.092714086 -0.110139154
000300 83 c7 29 be e3 2f 9f bd 6d 46 04 be 1a 72 61 bd
       -0.16580014 -0.077728055 -0.1291749 -0.055040456
000310 a0 78 b6 bd f6 ff f6 bd ee 81 bd bd 10 25 e4 3b
       -0.08909726 -0.120605394 -0.09253298 0.006962426
000320 87 7a 1d be 0e fd d8 bd e2 52 ca bd d1 35 06 be
       -0.15378772 -0.10595141 -0.0987909 -0.13106467
000330 1c 3d dd bd e2 51 20 bd 10 90 50 bd b0 60 dc bd
       -0.10802671 -0.03914059 -0.05091864 -0.10760629
000340 9a 31 25 be 8c a2 73 bd 09 c6 f4 bd 5b 96 9a bd
       -0.16132203 -0.05948119 -0.11951835 -0.07548209
000350 0c 27 2b be b2 52 f2 bd ac cf ec 3c 21 41 d8 bd
       -0.16714114 -0.11832179 0.02890762 -0.10559297
000360 5c b9 24 be 3a 66 9b bd b3 39 23 bc 3d 4b 85 bd
       -0.16086334 -0.075878575 -0.009962487 -0.06508491
000370 40 70 8f bd fc 5e d9 bd 9b 2b ea bb 6f 80 85 bd
       -0.07003832 -0.1061382 -0.0071463115 -0.065186374
000380 b6 1c 4b be 9a eb 01 be 6a 31 9b bc f7 cc 4d bc
       -0.19835171 -0.12687531 -0.01894446 -0.012561074
000390 21 dc c1 bd 30 8f 18 be 3f 8d 15 be 10 78 6b be
       -0.094658144 -0.14898372 -0.14604662 -0.22995019
0003a0 23 c6 5c be 4e b9 cf bd 49 fe 29 bd fe 3c 8c bd
       -0.21559958 -0.10142766 -0.04150227 -0.06847571
0003b0 6c 07 df bd fe 28 d4 bd 6c 26 85 bc 01 32 17 bd
       -0.108900875 -0.10359381 -0.016253673 -0.03691292
0003c0 c9 4f 02 be 9c fc fb bd d8 13 1b bd a5 a2 65 bd
       -0.12725748 -0.12304041 -0.03786072 -0.056063313
0003d0 4b 3e 2f bd 27 34 26 be 36 a0 03 be 0f 6a 93 3c
       -0.042784017 -0.16230832 -0.12854084 0.017994909
0003e0 83 b3 6e bd 0c e9 eb bd fe 60 17 be 94 c0 bc bc
       -0.058276664 -0.115190595 -0.14783093 -0.023041047
0003f0 f9 45 9a bd d4 a9 d5 bd b5 f5 d7 bd aa ef a6 bd
       -0.075328775 -0.10432783 -0.10544912 -0.08151181

fc.weight f4 [1, 160]
000000 6c 76 b4 be 30 db 96 3d 3a 2c db 3e fa ee cd bd
       -0.352466 0.073660254 0.4280718 -0.10055347
000010 69 fa 11 3e 64 b4 17 bf a9 ac ae be 61 c8 0d 3f
       0.1425568 -0.5925963 -0.34116104 0.5538388
000020 0a 79 07 3f 25 1a 1b 3f 67 57 24 bf cf b9 78 3e
       0.52919066 0.6058677 -0.64195865 0.2428963
000030 05 7b 22 bf cf da 62 3e 9c c6 7b 3d 60 33 bd 3d
       -0.6346896 0.22153781 0.061468706 0.09238315
000040 05 9c 09 be 48 90 95 3e 8f 2b 72 be fa ca ef be
       -0.13438423 0.2921164 -0.23649429 -0.46834546
000050 f5 5c f7 3d 99 a9 1f 3e b3 73 f0 3d 14 05 a1 bd
       0.12078277 0.1559204 0.11740818 -0.07862297
000060 0e 5a bd be dd 16 77 be 11 5b 2e bf e3 d4 6b 3e
       -0.3698277 -0.24129815 -0.68107706 0.23030429
000070 63 08 29 3d bc a7 21 bf be ee 43 bf 60 da 48 3d
       0.041267764 -0.6314657 -0.76536167 0.049036384
000080 2a 67 19 3f 99 76 a8 3e 57 59 66 3e c9 1c fd 3e
       0.5992304 0.32902983 0.22495018 0.49436024
000090 29 15 39 bf 2a 16 04 3e d8 4c c7 be 64 ee d1 bd
       -0.7229791 0.1289908 -0.38925815 -0.102505475
0000a0 cb b7 cd be cf c0 3d 3e 08 6a 24 3d 2b 1e 36 3e
       -0.40179285 0.18530582 0.04014018 0.17784946
0000b0 8b c3 1f 3f ce e3 53 bd 11 ab 5f be 0a 18 9d 3e
       0.6240775 -0.051730923 -0.218426 0.30682403
0000c0 4f 0f a0 be d0 ee 97 be 10 1e b0 3e 50 50 fe 3e
       -0.3126168 -0.29674387 0.34397936 0.4967065
0000d0 af ab 92 be 6e 93 fa be ea f4 36 3f 4b 69 48 3e
       -0.2864661 -0.48940605 0.7146746 0.19571416
0000e0 fe 56 0a bf 3d 77 d4 be 6b 3c 5f be da b6 40 3f
       -0.5403899 -0.41497222 -0.21800391 0.7527901
0000f0 3d d4 cb 3e d6 c0 c5 be 4a b4 5c bd 05 dc 81 3e
       0.39810362 -0.38623685 -0.053882875 0.25363174
000100 2a d7 02 be cc 20 11 3f c7 0a 69 3e 59 bd 26 3e
       -0.12777391 0.5669067 0.22758017 0.16283168
000110 bf 9b dd 3e 87 1d b2 3e f3 0d a3 3e a0 e4 f4 3e
       0.43282887 0.34788153 0.3184658 0.47830677
000120 09 56 d1 3e 0c 04 d8 be d0 89 b2 be a1 ac 00 be
       0.40885952 -0.42190588 -0.34870768 -0.12565853
000130 34 39 14 3f ec 6f 9e be 46 44 35 be ee 6d 2b 3f
       0.57899785 -0.30944765 -0.17701825 0.66964614
000140 72 cc be be 21 43 31 3f b7 bb a3 be 20 05 02 3e
       -0.37265354 0.69243056 -0.31979153 0.12697268
000150 61 b5 ac 3e 83 28 50 bd 8d 70 3c be ef f8 85 be
       0.3373213 -0.050819885 -0.1840231 -0.26166484
000160 8e ea 05 bf e1 0a 46 be 21 ee de be 0e 17 aa 3d
       -0.5231103 -0.19340087 -0.43541053 0.083051786
000170 b4 b7 cd be f9 f7 1a 3f 16 3e 61 be ec 9b e9 be
       -0.40179217 0.60534626 -0.2199634 -0.4562677
000180 26 24 41 3e d0 fa b6 3d 34 04 de 3e ff 45 19 3f
       0.18861446 0.089345574 0.43362582 0.5987243
000190 c5 9d ee be c5 be c9 3e 82 aa ed bd 58 55 04 3f
       -0.46604744 0.39403358 -0.116047874 0.51692724
0001a0 7f f7 6b be 7c 1d bc 3d f1 a6 a8 be 08 70 18 3f
       -0.23043631 0.09185311 -0.32939866 0.59545946
0001b0 47 92 a3 3e d0 1e a9 3d e7 38 0f be ce fc c3 be
       0.31947538 0.0825783 -0.1398655 -0.38278812
0001c0 df e1 b4 3e a7 dc 2b bd 0f d9 5f be 0e 8d 85 be
       0.35328576 -0.041958477 -0.21860145 -0.2608418
0001d0 85 65 21 3e 8b 5f 08 3f 4f 81 93 bc 65 dc 3e 3f
       0.15761383 0.53270787 -0.018005995 0.74555045
0001e0 33 1c c1 3d cb 43 87 3e e6 25 18 3e cd 82 e9 be
       0.09429207 0.2641891 0.14858207 -0.45607606
0001f0 d5 42 98 be db 1d 5f 3e d4 ab f0 be 0f 7c 22 bf
       -0.2973849 0.21788733 -0.47006094 -0.6347055
000200 74 7a e8 be da b1 c2 be 7b ec 8b 3e 9d aa eb 3e
       -0.45405924 -0.38026315 0.27328858 0.46028605
000210 73 5f 62 3e 2e b2 67 be 39 0b 13 3e f3 bd 8d 3e
       0.22106723 -0.22626564 0.1435975 0.27683982
000220 c4 b6 fc be b2 03 74 be 7d c6 fa bd dd 52 d1 3e
       -0.4935819 -0.23829535 -0.1224489 0.40883532
000230 46 be bd 3b b9 a0 30 bf 24 9f 29 bf e2 74 16 bf
       0.0057905046 -0.68995243 -0.66258454 -0.587721
000240 a6 90 e3 be c7 b9 42 3e 99 10 81 3e 87 6b bb 3e
       -0.44446295 0.19016181 0.25207976 0.36605474
000250 e0 2f 12 bf 7d 89 f9 3e 9f e0 89 be 51 e9 07 3e
       -0.571043 0.48737708 -0.26929185 0.13272597
000260 5d 46 31 be 30 84 2a be 64 f6 f0 3d 7d f6 0a be
       -0.17311998 -0.16651988 0.11765745 -0.1357059
000270 b4 f5 4a 3e 21 7a 15 3f e1 72 a8 3e e4 0b 07 bf
       0.19820291 0.5838948 0.32900146 -0.5275252
