models/rand/random_bench_10-Jun-2020_06-00-28/3/state_dict.pt (torch_old, 555148 bytes, 6 tensors)

embedding.weight f4 [6, 10]
0.7880667 1.5184976 0.48538142 0.13955855 0.56545633 1.0537081 -0.5208357 -0.17629457
-1.1558834 -2.0347657 1.5192105 -0.1646747 -0.68211263 -1.7333982 -1.1670848 -1.1095093
0.42016017 -0.82261634 1.6343905 -2.196994 0.063141644 -0.632615 -0.6525565 1.0415187
-0.024160411 3.178032 1.8375188 0.27263206 0.21631731 -0.04650738 -0.79182285 2.051719
-0.12854232 -0.8366454 -1.0537771 -0.36034343 0.80381495 -1.9592878 0.31796932 1.3926983
1.1929514 1.1225306 1.9507962 1.32352 1.5299611 -0.7119997 0.08166131 1.297202
0.77001536 1.4139303 -2.1075041 0.22615117 0.7329398 -0.3987394 -1.5764365 -1.1842198
-1.4235255 0.38856786 -2.215591 -2.3319929
00000000: bdbe 493f 215e c23f ea83 f83e 70e8 0e3e
00000010: bfc1 103f e8df 863f 7d55 05bf 9086 34be
00000020: fdf3 93bf 9a39 02c0 7d75 c23f 7ca0 28be
00000030: ef9e 2ebf fedf ddbf 0963 95bf 6704 8ebf
00000040: 3c1f d73e fc96 52bf b533 d13f 8d9b 0cc0
00000050: 6850 813d 0ef3 21bf f10d 27bf 7c50 853f
00000060: 0eec c5bc e064 4b40 d133 eb3f 6e96 8b3e
00000070: 4982 5d3e 867e 3ebd e7b4 4abf 5d4f 0340
00000080: 99a0 03be 652e 56bf 2be2 86bf ef7e b8be
00000090: d1c6 4d3f f1c9 fabf e0cc a23e f043 b23f
000000a0: a2b2 983f 15af 8f3f b1b3 f93f 1a69 a93f
000000b0: c4d5 c33f 9d45 36bf 0b3e a73d b70a a63f
000000c0: ba1f 453f abfb b43f 59e1 06c0 2c94 673e
000000d0: f1a1 3b3f 9227 ccbe acc8 c9bf 8494 97bf
000000e0: 1536 b6bf 5ef2 c63e 3ecc 0dc0 5f3f 15c0

lstm.weight_ih_l0 f4 [720, 10]
-0.013583145 0.19848874 0.2663554 0.35967526 0.28528574 0.12718205 -0.1416909 0.06335624
-0.11550968 0.5739219 -0.18493105 -0.25715482 0.04663025 -0.025575552 -0.21738882 0.092772305
-0.17558794 0.29797846 -0.2222591 -0.49514982 -0.0948997 0.0055700717 0.017217843 0.037830524
-0.004745769 0.0108203525 -0.03892744 -0.124997556 -0.11713275 0.045655046 0.14565077 0.15012693
0.032895513 -0.18364426 -0.024077984 -0.11705313 0.08631326 -0.09862082 0.31964037 0.09668471
0.121885106 0.2036315 0.21044049 -0.03926627 -0.04178954 -0.021000542 0.13877553 -3.7727663e-05
0.028105972 -0.0345817 -0.15197378 0.16539502 -0.02696726 -0.17222272 -0.13328578 -0.12622617
-0.090868644 -0.14883685 -0.09588877 0.08284482 -0.47165173 0.23417099 0.14186248 0.16147098
-0.07178748 0.09018598 -0.06893616 -0.093112 -0.41508725 0.051923104 0.055417668 0.1294267
-0.09595848 0.01113285 -0.08271984 0.09746664 0.18357897 -0.11779454 -0.010266489 0.05086823
-0.13664098 0.10225206 -0.209379 0.0077832513 -0.098397456 0.1518524 0.16751157 -0.30622894
0.03547556 0.2212462 0.18332602 -0.08575509 -0.18231478 -0.27558184 -0.12437093 0.02488693
0.19414319 -0.26183194 0.1075523 -0.08592766 0.2662306 0.073733486 0.012147126 0.2283317
0.24330327 0.051025767 0.100166395 0.13847093 0.15305889 0.19547875 -0.09369317 0.14582935
0.23704538 0.16781221 0.23765658 0.004300132 -0.022799416 0.14185958 -0.0989593 0.37919986
-0.07442998 -0.03829508 0.06342097 0.13743863 0.117417224 0.17996642 0.011344008 0.09729705
-0.07758651 0.085010104 -0.32089284 0.17148413 0.32649228 0.5017436 0.28536257 0.26931936
-0.057508733 0.36311287 -0.41640246 0.268768 -0.1515271 0.023865953 -0.02136397 0.12662493
-0.0026636766 0.14731966 0.0075246063 0.052489005 -0.09040221 -0.017379718 -0.04677328 0.020383194
0.23282501 0.15342112 0.17187054 -0.06942091 -0.1629128 0.22165808 -0.11667088 0.013593306
0.14337693 0.027175419 0.058518093 0.2324985 0.1779448 0.09262115 0.14778975 0.029512407
0.10642547 0.27765986 0.14381726 0.34021068 0.050614726 -0.012540507 -0.003760665 0.10148985
0.33153284 -0.17011918 0.20281221 -0.030786777 -0.10351131 0.24807885 0.3045079 0.15138781
0.2733898 -0.113060005 -0.20178507 0.11058076 -0.24624768 0.25877047 0.14162835 -0.033426363
-0.037327338 -0.029990092 -0.017537704 0.08852229 0.1977547 -0.05433346 0.22382088 -0.06635455
-0.011013223 -0.045039676 -0.117040105 -0.10275043 -0.03281501 0.11125881 -0.033314683 -0.0484091
-0.130044 -0.07225932 -0.10292611 0.115744755 0.10564638 -0.072550125 -0.03711163 -0.19433817
-0.06417729 -0.06962118 0.011360328 0.10854187 -0.32455724 -0.053133927 -0.29039818 0.055680063
-0.12100735 0.29876783 0.2088307 -0.2366414 -0.123243496 0.061227616 -0.097172424 -0.09041479
-0.09673291 0.06958827 -0.085060254 0.1916512 -0.08544831 0.08806147 -0.16495332 -0.08920702
-0.28370866 0.12577271 0.19364457 0.09452004 0.083926946 -0.053776175 -0.3063537 0.11955871
-0.24612501 0.0020750111 -0.17414808 0.12840004 0.023978924 0.1470342 -0.0773227 0.40951863
00000000: d78b 5ebc a240 4b3e bc5f 883e 5b27 b83e
00000010: f910 923e 033c 023e 6b17 11be ebc0 813d
00000020: 5790 ecbd 8cec 123f 915e 3dbe cca9 83be
00000030: 5cff 3e3d d283 d1bc 2d9b 5ebe 68ff bd3d
00000040: 53cd 33be a290 983e e497 63be 4784 fdbe
00000050: c65a c2bd 2685 b63b 6f0c 8d3c 2ef4 1a3d
00000060: 6582 9bbb d947 313c 6172 1fbd b8fe ffbd
00000070: 4ce3 efbd c900 3b3d 7a25 153e e0ba 193e
00000080: 72bd 063d 3e0d 3cbe 313f c5bc 8db9 efbd
00000090: 02c5 b03d b6f9 c9bd e7a7 a33e a202 c63d
000000a0: e69e f93d c784 503e b67d 573e abd5 20bd
000000b0: 822b 2bbd 5409 acbc 2c1b 0e3e c53d 1eb8
000000c0: 7f3e e63c 8aa5 0dbd 049f 1bbe 505d 293e
000000d0: 71ea dcbc 275b 30be 117c 08be 6f41 01be
000000e0: 5719 babd b068 18be 5561 c4bd 8caa a93d
000000f0: 567c f1be 85ca 6f3e 6644 113e a658 253e
00000100: 5005 93bd 6db3 b83d 672e 8dbd 81b1 bebd
00000110: 5186 d4be 52ad 543d a3fd 623d 6f88 043e
00000120: e185 c4bd 8f66 363c 0569 a9bd 979c c73d
00000130: 20fc 3b3e 443e f1bd c734 28bc 355b 503d
00000140: 9deb 0bbe 8769 d13d 7367 56be a50a ff3b
00000150: 9b84 c9bd 327f 1b3e 2788 2b3e 0aca 9cbe
00000160: d24e 113d 5d8e 623e d1b9 3b3e 5da0 afbd
00000170: bab0 3abe 1019 8dbe 30b6 febd addf cb3c
00000180: 79cd 463e d60e 86be 6144 dc3d d7fa afbd
00000190: 614f 883e 9501 973d bd04 473c c9cf 693e
000001a0: 7e24 793e 6500 513d 0a24 cd3d 53cb 0d3e
000001b0: 78bb 1c3e 952b 483e 34e2 bfbd 4a54 153e
000001c0: 06bc 723e f7d6 2b3e 3f5c 733e 1fe8 8c3b
000001d0: d7c5 babc a343 113e 2cab cabd 7c26 c23e
000001e0: bf6e 98bd 4ddb 1cbd dbe2 813d b6bc 0c3e
000001f0: 7178 f03d 1e49 383e 38dc 393c ad43 c73d
00000200: ade5 9ebd c719 ae3d 114c a4be 8999 2f3e
00000210: ff29 a73e 4572 003f 0b1b 923e 3ae4 893e
00000220: 478e 6bbd eee9 b93e b432 d5be f69b 893e
00000230: ec29 1bbe 8882 c33c 7e03 afbc f7a9 013e
00000240: 1491 2ebb f7da 163e f990 f63b b6fe 563d
00000250: cb24 b9bd e95f 8ebc 5795 3fbd a8fa a63c
00000260: ae69 6e3e 6d1a 1d3e d5fe 2f3e 8d2c 8ebd
00000270: 9dd2 26be 56fa 623e 24f1 eebd 75b6 5e3c
00000280: 67d1 123e fc9e de3c abb0 6f3d 1614 6e3e
00000290: 2937 363e 28b0 bd3d 3256 173e 01c4 f13c
000002a0: 99f5 d93d 6f29 8e3e d544 133e 1830 ae3e
000002b0: 6351 4f3d b376 4dbc 7d75 76bb e9d9 cf3d
000002c0: acbe a93e b933 2ebe 01ae 4f3e 8d34 fcbc
000002d0: bdfd d3bd 6208 7e3e 76e8 9b3e 6805 1b3e
000002e0: bff9 8b3e 018c e7bd bfa0 4ebe 2a78 e23d
000002f0: 5a28 7cbe 907d 843e 0607 113e 15ea 08bd
00000300: 8de4 18bd c8ad f5bc 3bab 8fbc 2d4b b53d
00000310: 3580 4a3e c38c 5ebd 4d31 653e e5e4 87bd
00000320: ce70 34bc 867b 38bd b9b2 efbd d16e d2bd
00000330: 0869 06bd a9db e33d fa74 08bd 9f48 46bd
00000340: 412a 05be b2fc 93bd edca d2bd 960b ed3d
00000350: 215d d83d 2995 94bd 5d02 18bd 9600 47be
00000360: 626f 83bd 8d95 8ebd ab20 3a3c 334b de3d
00000370: 5e2c a6be f6a2 59bd 12af 94be c710 643d
00000380: b4d2 f7bd 19f8 983e b7d7 553e 2052 72be
00000390: 1667 fcbd cfc9 7a3d 5602 c7bd 642b b9bd
000003a0: e71b c6bd 4b84 8e3d 1234 aebd 3640 443e
000003b0: 86ff aebd 9259 b43d 86e9 28be 2cb2 b6bd
000003c0: 4342 91be 90ca 003e c34a 463e b993 c13d
000003d0: e4e1 ab3d 6844 5cbd 64da 9cbe 32db f43d
000003e0: 3208 7cbe e9fc 073b e053 32be 4d7b 033e
000003f0: 736f c43c 2290 163e 5d5b 9ebd 6dac d13e

lstm.weight_hh_l0 f4 [720, 180]
-0.059001755 -0.094399124 -0.27200383 -0.14461902 0.094168715 0.0070797657 0.07945088 -0.13232365
0.16109052 -0.052929725 0.0060651 0.020734051 0.043333784 0.1256509 0.033022113 -0.33031848
-0.08605835 0.041463148 -0.28942582 -0.1904729 -0.1722917 -0.10116447 0.0707229 -0.0074930876
-0.22006775 0.007209548 -0.060690183 -0.034858275 0.06052715 -0.08928446 0.10139446 0.15618904
-0.030156102 0.039532542 -0.147741 0.015582122 0.05093322 -0.010745966 0.046552323 -0.17670189
-0.044248655 -0.03412701 0.07228606 0.1822092 0.026247641 0.055708904 -0.14487351 -0.09285984
-0.034190744 -0.012568954 0.098065645 0.0040197233 -0.17852336 -0.008660759 0.1560341 0.09963262
-0.041508257 -0.051306747 0.20440097 -0.20710635 0.044771325 -0.088003464 -0.099351734 0.03784038
0.097351156 0.20687103 -0.10472552 -0.04304366 0.052376933 0.018781668 0.13226636 -0.009091945
-0.05248977 0.067515194 -0.021924812 0.025351023 -0.08397254 0.04360325 -0.16660771 -0.01789322
-0.07897829 0.1253092 0.12991706 0.12667061 0.07248497 -0.03822716 -0.10460947 -0.004815817
-0.11768983 0.121481545 -0.017919192 -0.281785 0.06981617 0.16631329 -0.12682939 -0.06834932
-0.09871617 -0.05561601 0.017069587 -0.13034174 0.087305486 -0.032409437 -0.06033465 -0.28134984
0.08089306 0.11761666 -0.11370107 -0.020421363 -0.17882591 0.16765592 0.008121862 -0.07016375
-0.044507354 0.033955187 0.011519566 -0.22625318 0.2102696 0.046602856 0.027055824 -0.09863591
0.117020346 -0.06602526 0.022083605 -0.072790936 0.051741537 0.04540067 -0.042074636 -0.23474798
-0.06085814 -0.12021652 -0.05034794 0.052286502 0.08113964 -0.075332455 -0.048609097 -0.032947097
-0.12262237 0.09446106 0.11961743 -0.08412052 0.07318892 -0.20759512 0.17931001 -0.06506259
-0.07038733 0.022164017 0.11605223 0.066604935 0.08442277 0.07357687 -0.0439659 -0.20982784
-0.048464943 0.15066256 0.11619613 0.27480233 0.111479275 0.24840832 -0.017976787 0.07567069
-0.042525236 -0.051564388 -0.022775 0.11765617 0.056988202 -0.0056583635 -0.16609485 -0.07645317
-0.17350107 0.3142504 -0.07677726 0.044585623 -0.14192787 0.10884032 -0.06681292 -0.14260456
0.11947523 -0.087324604 0.13755551 0.008802599 -0.022476967 -0.091974854 0.18827292 0.15532489
0.014292718 0.01555892 0.05300195 -0.24983327 -0.07533456 -0.030443266 -0.07818258 0.03985822
0.065402605 -0.102809936 0.0021988056 0.19944258 0.108680084 0.116876945 0.08645961 0.062367685
0.20198481 0.26107514 0.16474192 0.10363468 0.09505525 0.052265275 0.018809052 -0.2988876
-0.17383918 0.13204868 0.054073524 -0.06435446 0.15134567 0.15437537 0.08547033 0.015143945
-0.088381335 -0.03968709 -0.21372008 -0.08379897 -0.0011624817 0.066305764 -0.07557696 -0.0988798
-0.086327724 0.06597551 0.16472407 0.1665615 0.13151321 0.10873667 -0.4496806 -0.03917742
-0.031747207 0.1071828 -0.03490549 0.04845387 -0.016869968 -0.061606653 -0.1992421 0.14906068
0.028335487 0.11826256 0.046032276 -0.14501372 -0.11753796 -0.17570068 0.10121997 0.053565826
0.0814088 -0.079323895 -0.12764753 -0.12804498 -0.03325747 -0.32169667 -0.021239879 0.08897488
00000000: d3ab 71bd 5454 c1bd 1644 8bbe 0217 14be
00000010: 87db c03d 61fd e73b 25b7 a23d da7f 07be
00000020: eaf4 243e d7cc 58bd bfbd c63b 75da a93c
00000030: c47e 313d a1aa 003e 3242 073d 811f a9be
00000040: 5c3f b0bd 43d5 293d 9f2f 94be 540b 43be
00000050: 3c6d 30be 512f cfbd 2bd7 903d 9388 f5bb
00000060: 7159 61be 123e ec3b 4596 78bd 8dc7 0ebd
00000070: 51eb 773d c5da b6bd e6a7 cf3d 05f0 1f3e
00000080: ee09 f7bc e0ec 213d 6b49 17be 284c 7f3c
00000090: 5a9f 503d d90f 30bc a6ad 3e3d 57f1 34be
000000a0: 143e 35bd c3c8 0bbd b70a 943d 0c95 3a3e
000000b0: 4b05 d73c 052f 643d b959 14be 4d2d bebd
000000c0: 980b 0cbd 04ee 4dbc a4d6 c83d e2b7 833b
000000d0: d4ce 36be dbe5 0dbc 67c7 1f3e 300c cc3d
000000e0: 9004 2abd 0627 52bd 7d4e 513e b013 54be
000000f0: 2362 373d 293b b4bd ec78 cbbd 84fe 1a3d
00000100: 0b60 c73d 00d6 533e 557a d6bd 8d4e 30bd
00000110: 3289 563d 03dc 993c d570 073e 62f6 14bc
00000120: 83ff 56bd 6845 8a3d aa9b b3bc f3ac cf3c
00000130: ccf9 abbd 5299 323d 369b 2abe cd94 92bc
00000140: 5fbf a1bd 0e51 003e fa08 053e f1b5 013e
00000150: 0073 943d 1594 1cbd 7d3d d6bd 00ce 9dbb
00000160: 5e07 f1bd 51cb f83d 45cb 92bc 2046 90be
00000170: c8fb 8e3d 084e 2a3e 90df 01be bafa 8bbd
00000180: b42b cabd 9dcd 63bd 85d5 8b3c 4e78 05be
00000190: 38cd b23d c2bf 04bd 7721 77bd 160d 90be
000001a0: 43ab a53d 01e1 f03d 1bdc e8bd b44a a7bc
000001b0: 241e 37be fead 2b3e 8f11 053c 03b2 8fbd
000001c0: 584d 36bd 9814 0b3d 90bc 3c3c eaae 67be
000001d0: ea50 573e a3e2 3e3d 2da4 dd3c a001 cabd
000001e0: 5da8 ef3d 4038 87bd ade8 b43c 6a13 95bd
000001f0: efee 533d 0ef6 393d 7456 2cbd c661 70be
00000200: 6346 79bd 1434 f6bd a439 4ebd 5f2a 563d
00000210: 8a2c a63d e747 9abd 551a 47bd 89f3 06bd
00000220: 7021 fbbd cd74 c13d fcf9 f43d 6147 acbd
00000230: 13e4 953d d193 54be 0b9d 373e 893f 85bd
00000240: 3c27 90bd 5091 b53c cbac ed3d 2b68 883d
00000250: d8e5 ac3d 78af 963d 9615 34bd 1cdd 56be
00000260: 2d83 46bd 4947 1a3e 3df8 ed3d e4b2 8c3e
00000270: 3f4f e43d c05e 7e3e 0e44 93bc 3cf9 9a3d
00000280: f12e 2ebd 2e35 53bd a392 babc b8f5 f03d
00000290: 766c 693d cb69 b9bb c514 2abe 7b93 9cbd
000002a0: 44aa 31be 6ee5 a03e 653d 9dbd 6a9f 363d
000002b0: 8a55 11be ace7 de3d 36d5 88bd ee06 12be
000002c0: 6eaf f43d 3ed7 b2bd 5adb 0c3e c738 103c
000002d0: 9e21 b8bc 505d bcbd 9eca 403e 7d0d 1f3e
000002e0: 012c 6a3c d7ea 7e3c 9318 593d 4bd4 7fbe
000002f0: 0149 9abd 2864 f9bc 301e a0bd 5f42 233d
00000300: cdf1 853d 048e d2bd d619 103b ad3a 4c3e
00000310: aa93 de3d 2e5d ef3d bc11 b13d 4275 7f3d
00000320: 1bd5 4e3e a4ab 853e 1bb2 283e 6b3e d43d
00000330: 54ac c23d 1d14 563d 7115 9a3c cc07 99be
00000340: e602 32be c537 073e 337c 5d3d 45cc 83bd
00000350: 5cfa 1a3e 9414 1e3e 120b af3d 4f1e 783c
00000360: 4601 b5bd ee8e 22bd 70d9 5abe cb9e abbd
00000370: 6a5e 98ba 51cb 873d 18c8 9abd 7e81 cabd
00000380: 97cc b0bd 2b1e 873d 6dad 283e 198f 2a3e
00000390: 66ab 063e 55b1 de3d 893c e6be 8178 20bd
000003a0: 5c09 02bd a882 db3d 0ff9 0ebd 9177 463d
000003b0: e332 8abc 4257 7cbd 1f06 4cbe 5da3 183e
000003c0: d31f e83c a433 f23d 578c 3c3d 7a7e 14be
000003d0: beb7 f0bd e1ea 33be 6a4c cf3d d767 5b3d
000003e0: a8b9 a63d 9174 a2bd 09b6 02be 391e 03be
000003f0: fc38 08bd 6db5 a4be 41ff adbc 7638 b63d

lstm.bias_ih_l0 f4 [720]
-0.18916155 0.25652176 -0.034894787 0.07229579 0.37659955 -0.038644813 -0.075398795 0.08991216
0.05421309 0.10411224 0.02261104 0.009966207 0.041310668 0.084407896 0.03898267 -0.07596566
-0.026006471 0.35047218 -0.056056906 0.2010669 0.08960041 0.031540178 -0.0028045943 0.09044665
0.054752212 0.24025708 0.15424314 0.27701977 -0.014504356 0.0009036592 0.047271684 0.09273512
-0.039605424 -0.12770876 -0.040227927 0.06104941 0.110757016 0.06112629 0.18199988 0.064346716
0.049918685 0.032578543 -0.0048982305 0.04057574 -0.05756785 -0.15243986 0.21140292 0.024743984
0.13205051 0.18388101 0.30667216 0.05108003 0.09300242 0.013446227 0.09113019 -0.09654889
0.060562205 0.12303192 -0.029676849 0.0029814057 0.13665944 -0.0062922956 0.052881956 0.14473368
0.24549063 0.00027058402 -0.15496911 0.06260931 0.058941327 0.022791833 -0.091314994 0.050875623
0.04917556 0.14919914 0.020114869 0.04016648 0.1242352 0.21218373 -0.036680095 -0.05540926
0.006028083 0.087359816 0.016363513 0.14068516 -0.09377646 0.009019665 0.10212026 0.24479035
0.17765313 0.0058256583 0.036230486 -0.13479154 0.13909242 -0.004629197 -0.04702729 -0.081433184
0.23360007 -0.044483066 0.17766291 -0.07120329 0.019796858 -0.050582867 0.045091987 -0.019958654
0.2427864 -0.12584133 -0.11600834 0.041506805 -0.05237505 0.078028396 0.08159555 0.07101705
-0.01856809 -0.05778456 -0.064108595 0.010937625 0.07679682 0.23518145 -0.053673696 -0.047575284
-0.06324568 0.099315815 -0.012255415 -0.04419045 0.019597022 -0.055142343 -0.04190815 -0.054328535
0.021597229 0.25718176 0.17371914 0.19595714 0.018310945 0.15787737 -0.009979096 0.20834458
-0.066224635 -0.055861585 0.121982604 0.013626989 0.041530523 0.09000409 -0.119357385 0.0033911655
0.07937309 0.016060848 0.111320294 0.1998042 0.16715963 0.07607954 -0.19194958 0.10516193
-0.15210843 0.29573542 -0.022527508 0.025765227 -0.09865964 0.023463048 0.03452571 -0.03974709
0.018095851 0.027913807 0.28258014 0.07406148 0.2559691 0.15212928 -0.06342486 -0.07506398
0.18166491 -0.25659448 0.022022253 -0.024628865 -0.16580549 -0.115803994 0.08498194 0.0051249987
0.17205794 0.12521599 -0.10572907 -0.06444 -0.01686415 -0.18814556 -0.14037517 0.00897375
-0.09505393 -0.11172322 -0.28861532 -0.117312014 -0.15138404 -0.17183904 -0.05220285 -0.13484688
-0.03443251 -0.015544961 -0.021768361 -0.24387021 -0.03683958 -0.18430917 -0.17507577 -0.13817142
-0.07638159 -0.19727948 -0.054908637 -0.042499136 -0.12968948 -0.24634834 -0.16914906 -0.05509864
-0.11152749 -0.06285151 0.0045515676 -0.05972342 -0.0955281 -0.13273533 -0.10856104 -0.16539422
-0.12687688 -0.13144514 -0.0825653 -0.022995804 -0.07787488 -0.037874587 -0.035353027 0.06508953
-0.012878643 -0.08818114 -0.24514098 -0.026503325 -0.09577222 0.030835925 -0.039515536 -0.04725608
-0.0052017453 -0.14751586 -0.26500434 0.03498228 -0.105602264 -0.033145167 -0.044140555 -0.11389331
-0.022314314 -0.10205483 -0.028812429 0.024945283 0.123022355 -0.24789168 -0.12968118 -0.06991062
-0.1702739 -0.15238254 -0.13337652 -0.19512612 -0.14158008 -0.0710957 0.07331061 0.061281197
00000000: 91b3 41be d256 833e d6ed 0ebd d10f 943d
00000010: a8d1 c03e 064a 1ebd af6a 9abd de23 b83d
00000020: 8c0e 5e3d cc38 d53d ca3a b93c 4d49 233c
00000030: 6035 293d 0cde ac3d 4bac 1f3d e293 9bbd
00000040: 860b d5bc 1771 b33e ed9b 65bd 7be4 4d3e
00000050: 6b80 b73d 4630 013d 49cd 37bb 183c b93d
00000060: db43 603d f405 763e eaf1 1d3e 89d5 8d3e
00000070: aea3 6dbc 8be3 6c3a f49f 413d e9eb bd3d
00000080: 4c39 22bd 16c6 02be 0ac6 24bd f20e 7a3d
00000090: 93d4 e23d 905f 7a3d 2d5e 3a3e 36c8 833d
000000a0: 8977 4c3d 1471 053d 5681 a0bb bf32 263d
000000b0: 44cc 6bbd 3219 1cbe 027a 583e e5b3 ca3c
000000c0: 4038 073e 4e4b 3c3e 2204 9d3e 4b39 513d
000000d0: 0e78 be3d 904d 5c3c 77a2 ba3d 6dbb c5bd
000000e0: 1310 783d 29f8 fb3d dd1c f3bc b063 433b
000000f0: 74f0 0b3e 9a2f cebb c09a 583d 1135 143e
00000100: e561 7b3e 2cdd 8d39 39b0 1ebe 4f39 803d
00000110: 766c 713d f0b5 ba3c 5b03 bbbd f562 503d
00000120: 506c 493d a9c7 183e f0c7 a43c 9b85 243d
00000130: 066f fe3d b146 593e de3d 16bd d2f4 62bd
00000140: 3a87 c53b b4e9 b23d c60c 863c c50f 103e
00000150: df0d c0bd 38c7 133c 6d24 d13d 52aa 7a3e
00000160: b4ea 353e 2ae5 be3b 6b66 143d cb06 0abe
00000170: 3e6e 0e3e 85b0 97bb b09f 40bd 71c6 a6bd
00000180: db34 6f3e e033 36bd 44ed 353e 08d3 91bd
00000190: 052d a23c fb2f 4fbd 60b2 383d 5580 a3bc
000001a0: ff9c 783e 8ddc 00be c895 edbd 0a03 2a3d
000001b0: 3887 56bd 5acd 9f3d 911b a73d 6371 913d
000001c0: 1b1c 98bc 81af 6cbd 5e4b 83bd b933 333c
000001d0: a747 9d3d 68d3 703e f3d8 5bbd 4dde 42bd
000001e0: f386 81bd 1766 cb3d f0ca 48bc 0c01 35bd
000001f0: ef89 a03c f0dc 61bd e1a7 2bbd 9987 5ebd
00000200: acec b03c 54ad 833e 6ee3 313e fda8 483e
00000210: d600 963c 9baa 213e 5d7f 23bc 4858 553e
00000220: c8a0 87bd 1ecf 64bd 04d2 f93d bc43 5f3c
00000230: e91b 2a3d 1054 b83d a571 f4bd 513e 5e3b
00000240: 5c8e a23d 0a92 833c e5fb e33d 7999 4c3e
00000250: e52b 2b3e 97cf 9b3d 6e8e 44be 235f d73d
00000260: 50c2 1bbe a26a 973e 9c8b b8bc 9911 d33c
00000270: 110e cabd 9435 c03c d56a 0d3d d8cd 22bd
00000280: c03d 943c 7fab e43c 58ae 903e 8cad 973d
00000290: 620e 833e c7c7 1b3e e5e4 81bd 25bb 99bd
000002a0: 5e06 3a3e 5a60 83be 0368 b43c 79c2 c9bc
000002b0: eac8 29be a52a edbd 030b ae3d 9bef a73b
000002c0: f52f 303e 9f38 003e 7c88 d8bd 1ef9 83bd
000002d0: b026 8abc 3ba9 40be 82be 0fbe a306 133c
000002e0: a3ab c2bd 25cf e4bd 63c5 93be 4841 f0bd
000002f0: 6b04 1bbe 93f6 2fbe a8d2 55bd 4d15 0abe
00000300: 1b09 0dbd 4bb0 7ebc 9053 b2bc 1db9 79be
00000310: 19e5 16bd 8bbb 3cbe 1047 33be cf7c 0dbe
00000320: f36d 9cbd a203 4abe e1e7 60bd 9313 2ebd
00000330: 52cd 04be bd42 7cbe 6935 2dbe 1daf 61bd
00000340: 8668 e4bd 4bb8 80bd 5125 953b 8ba0 74bd
00000350: 3da4 c3bd c5eb 07be 4055 debd 1a5d 29be
00000360: 03ec 01be 8e99 06be ff17 a9bd b261 bcbc
00000370: dd7c 9fbd 6222 1bbd 56ce 10bd a94d 853d
00000380: f200 53bc 5098 b4bd 3d06 7bbe 801d d9bc
00000390: 3a24 c4bd 9f9b fc3c 0bdb 21bd 978f 41bd
000003a0: 6773 aabb 660e 17be a6ae 87be 9449 0f3d
000003b0: 0046 d8bd 3ac3 07bd bacc 34bd e540 e9bd
000003c0: 82cc b6bc 1f02 d1bd 0b08 ecbc 0d5a cc3c
000003d0: 25f3 fb3d 51d7 7dbe 25cb 04be 4d2d 8fbd
000003e0: 485c 2ebe 2b0a 1cbe db93 08be 24cf 47be
000003f0: 5efa 10be 9f9a 91bd e023 963d fe01 7b3d

lstm.bias_hh_l0 f4 [720]
-0.17138143 0.18224609 -0.045650657 0.18168846 0.37504193 0.075560644 0.044430647 0.048274126
0.024390673 0.04787995 0.11167778 -0.014469531 -0.085392565 0.12859634 0.024147432 -0.09533191
0.031077653 0.3082881 -0.09050871 0.18331525 0.0069477423 0.03142178 0.03986076 0.060612522
0.06923802 0.24222407 0.1035328 0.32316536 0.013914097 -0.023643019 0.05098567 0.12338327
-0.04567997 -0.14861092 0.034125857 -0.031818934 0.17780735 -0.007983937 0.07344898 0.04289516
0.035288583 0.109438695 -0.035667237 -0.04896653 -0.07870607 -0.09572102 0.11823671 0.06711133
0.19398701 0.20401834 0.31964582 0.027392311 -0.020178754 0.058364145 0.054389946 -0.100013115
0.100163855 0.15393266 -0.014575318 -0.07638149 0.078104384 -0.07079062 0.07079733 0.11888432
0.1853844 -0.05643767 -0.11918204 0.06128633 0.081635125 -0.025544921 -0.07940596 -0.0090114465
0.082108594 0.12871598 0.046714675 -0.03952395 0.1227999 0.113626294 -0.037486874 -0.033104625
-0.01617959 0.003986924 -0.018274495 0.06193671 -0.018951908 0.111855045 0.08696606 0.17833403
0.16924122 0.12777747 0.028011369 -0.05841057 0.11906173 0.026328469 -0.047422756 -0.06807346
0.18080786 -0.09714667 0.2049011 -0.044785697 0.018229622 0.014923815 0.059093535 -0.0093906885
0.16000001 -0.007914236 -0.15342002 0.026762154 -0.06269237 0.12211855 0.1098285 -0.0744209
0.07336246 -0.0044471812 -0.16385756 0.04475352 0.1543519 0.27602983 -0.01825443 -0.04825231
0.039842688 -0.008880429 -0.024866689 -0.046287842 -0.025459426 -0.13225059 0.10145654 -0.08887814
-0.021269852 0.27368656 0.13698453 0.09544794 0.062253848 0.06859417 -0.12087301 0.19770083
-0.02096008 -0.011181112 0.11525159 0.11776574 0.0052684033 0.057093985 -0.15646093 0.019621639
0.10322827 0.015819348 0.06361103 0.1710335 0.20046784 -0.029769182 -0.18501902 0.19214612
-0.025180012 0.34723768 0.10187529 0.05098907 0.045728493 -0.06911935 0.011292773 -0.0042924117
-0.08853051 -0.0145593425 0.25588498 0.091750965 0.21648376 0.22018626 -0.107696205 -0.033414215
0.15630154 -0.15983064 -0.08689521 0.00035411885 -0.11503273 -0.10104542 0.16405186 -0.0019413761
0.088464275 0.118962795 -0.0304837 -0.010817166 -0.10516899 -0.10045658 -0.15709934 -0.10357532
-0.020204756 -0.11003739 -0.24853794 -0.114784256 -0.06428679 -0.13524386 0.0056993314 -0.05979664
-0.021137502 -0.068476394 0.029423546 -0.17547335 -0.06896264 -0.196615 -0.15684034 -0.1785827
-0.068926275 -0.11049204 0.020365356 -0.035509594 -0.18565676 -0.1889694 -0.09106298 -0.108489394
-0.11386422 0.020195257 -0.05052803 -0.019696744 -0.08649436 -0.20992458 -0.11618263 -0.0871745
-0.20256227 -0.093542725 -0.1393748 0.035130586 -0.16730684 -0.12026454 -0.068248965 0.04872255
-0.060459837 -0.022888567 -0.24817023 -0.10337728 -0.050954126 0.048943583 -0.044533476 -0.10315654
-0.037426118 -0.11122417 -0.2301219 -0.008343443 -0.15927008 -0.07708696 -0.109870985 -0.0860357
-0.009180931 -0.15402481 -0.027903866 0.043275177 0.1558364 -0.19981432 -0.03027376 -0.18314315
-0.1329429 -0.1499876 -0.13126445 -0.115530096 -0.22764824 -0.057119027 -0.016227618 0.006605207
00000000: 9d7e 2fbe b89e 3a3e 2ffc 3abd 8a0c 3a3e
00000010: 7f05 c03e 8abf 9a3d e9fc 353d 17bb 453d
00000020: f3ce c73c c41d 443d 52b7 e43d 9d11 6dbc
00000030: 4ce2 aebd c2ae 033e d6d0 c53c 603d c3bd
00000040: 9096 fe3c f0d7 9d3e a15c b9bd feb6 3b3e
00000050: e3a9 e33b 20b4 003d 0945 233d d644 783d
00000060: aacc 8d3d 9609 783e 0109 d43d ee75 a53e
00000070: f4f7 633c 01af c1bc 5ad6 503d 5eb0 fc3d
00000080: ec1a 3bbd 762d 18be 8ec7 0b3d 9254 02bd
00000090: 2113 363e 0fcf 02bc 6b6c 963d d6b2 2f3d
000000a0: c38a 103d 6521 e03d cf17 12bd 2191 48bd
000000b0: a630 a1bd 6209 c4bd 1726 f23d aa71 893d
000000c0: 88a4 463e 2fea 503e 9ea8 a33e d765 e03c
000000d0: ea4d a5bc 3e0f 6f3d fec7 5e3d add3 ccbd
000000e0: b522 cd3d 86a0 1d3e 51cd 6ebc e66d 9cbd
000000f0: 31f5 9f3d acfa 90bd 31fe 903d 9f79 f33d
00000100: 68d5 3d3e 302b 67bd b715 f4bd 6007 7b3d
00000110: 5130 a73d 9543 d1bc 989f a2bd bfa4 13bc
00000120: 8d28 a83d 1fce 033e e357 3f3d dee3 21bd
00000130: 847e fb3d e7b4 e83d d68b 19bd b798 07bd
00000140: 0f8b 84bc bea4 823b 65b4 95bc 59b1 7d3d
00000150: 0841 9bbc 4214 e53d 431b b23d 329d 363e
00000160: 924d 2d3e 19d8 023e 1978 e53c ec3f 6fbd
00000170: a3d6 f33d cdae d73c 5d3e 42bd 196a 8bbd
00000180: b225 393e d5f4 c6bd 98d1 513e 3571 37bd
00000190: 4a56 953c 0483 743c 100c 723d 67db 19bc
000001a0: 0bd7 233e b6aa 01bc 231a 1dbe 4e3c db3c
000001b0: db64 80bd 4a19 fa3d c4ed e03d fc69 98bd
000001c0: 0f3f 963d a9b9 91bb 47ca 27be 784f 373d
000001d0: 6d0e 1e3e c853 8d3e 508a 95bc 37a4 45bd
000001e0: 1632 233d 387f 11bc 3ab5 cbbc 5298 3dbd
000001f0: 4990 d0bc b36c 07be 72c8 cf3d be05 b6bd
00000200: 1d3e aebc a520 8c3e ac45 0c3e 367a c33d
00000210: e4fd 7e3d 1a7b 8c3d 458c f7bd 1672 4a3e
00000220: 79b4 abbc fc30 37bc 0709 ec3d 2a2f f13d
00000230: 92a2 ac3b 62db 693d 4b37 20be 8fbd a03c
00000240: 5869 d33d 9497 813c 8046 823d 6823 2f3e
00000250: 7147 4d3e 80de f3bc a075 3dbe f4c1 443e
00000260: 5046 cebc 23c9 b13e fea3 d03d ead9 503d
00000270: cd4d 3b3d 728e 8dbd 5305 393c 5ca7 8cbb
00000280: 7c4f b5bd 4f8a 6ebc 5b03 833e eee7 bb3d
00000290: ebad 5d3e 8278 613e d48f dcbd 58dd 08bd
000002a0: 830d 203e a5aa 23be 1ef6 b1bd 07a9 b939
000002b0: 4896 ebbd e7f0 cebd 36fd 273e c675 feba
000002c0: c22c b53d c4a2 f33d f4b8 f9bc 7c3a 31bc
000002d0: d762 d7bd 2ebc cdbd a6de 20be 4c1f d4bd
000002e0: 7284 a5bc 485b e1bd bb80 7ebe 0214 ebbd
000002f0: cba8 83bd 5e7d 0abe 75c1 ba3b 52ed 74bd
00000300: 8e28 adbc 5a3d 8cbd a609 f13c 49af 33be
00000310: 493c 8dbd 7155 49be c19a 20be 62de 36be
00000320: 3829 8dbd a749 e2bd 3fd5 a63c 8272 11bd
00000330: ce1c 3ebe 3281 41be 3a7f babd b02f debd
00000340: a531 e9bd 8670 a53c 7bf6 4ebd 115b a1bc
00000350: f423 b1bd 78f6 56be 29f1 edbd 8b88 b2bd
00000360: 7c6c 4fbe 5493 bfbd 44b8 0ebe 17e5 0f3d
00000370: 7c52 2bbe 414d f6bd 1dc6 8bbd 4c91 473d
00000380: bca4 77bd ce80 bbbc 5620 7ebe 78b7 d3bd
00000390: 46b5 50bd 1179 483d bc68 36bd bc43 d3bd
000003a0: 214c 19bd 7fc9 e3bd 13a5 6bbe f0b2 08bc
000003b0: b217 23be c5df 9dbd 0a04 e1bd 7c33 b0bd
000003c0: 9e6b 16bc aeb8 1dbe a696 e4bc 5041 313d
000003d0: 9493 1f3e 209c 4cbe ad00 f8bc e189 3bbe
000003e0: 2f22 08be 5996 19be 306a 06be 0b9b ecbd
000003f0: 9f1c 69be a4f5 69bd c8ef 84bc 7e70 d83b

fc.weight f4 [1, 180]
-0.32362488 -0.4877631 -0.52959126 0.066277616 -0.06635186 -0.29949233 0.30900055 0.4624569
0.29079676 0.39925307 -0.44172648 0.19563647 0.23504621 0.376427 -0.122667484 -0.641557
-0.03889446 -0.65865374 -0.46712977 0.2956779 -0.33006617 0.09563762 0.016674016 -0.02748074
-0.27843714 -0.61374426 -0.3681051 0.25994205 0.22301905 -0.033566255 -0.3010779 -0.03971264
0.2741193 0.22859672 -0.31960586 0.37736294 0.058744475 0.4215055 0.101713434 -0.4614309
-0.5915247 0.26785478 0.09403035 0.31808507 -0.2922347 0.33727136 -0.11805197 -0.3430844
-0.5038646 -0.6288614 0.014001352 0.43471482 -0.49673262 0.11868813 0.48197526 0.082398966
0.26696292 0.56750965 0.45209265 -0.29398632 -0.40289643 0.13763733 -0.381021 0.21171944
0.17269433 0.39607137 -0.14801013 -0.37775257 -0.24699059 -0.19640046 0.25065255 -0.36614773
0.15499452 0.32467946 -0.0761103 -0.12871593 -0.5061933 0.30485612 -0.6754618 0.43774524
0.30548435 0.15225595 0.44128922 0.50323045 -0.36269262 0.2339932 0.22843406 -0.63604707
0.11821639 0.37740335 0.41533884 -0.24659555 0.15709424 0.32244873 -0.52907616 -0.6326681
0.3523543 -0.33308822 -0.13019483 -0.2403801 0.4366778 0.5640972 0.32517746 -0.39113182
0.34016135 0.42916745 0.16813666 -0.3646806 -0.38694257 0.018032907 0.18358715 -0.34281102
0.424016 0.2590083 -0.17613448 -0.62274146 0.75239193 -0.65548646 -0.26250312 -0.24918231
0.24444501 -0.17853892 0.47015765 -0.5429347 0.104329795 0.23756203 0.36568877 -0.41866368
0.16622779 0.30225596 0.31023267 0.41443056 0.24199006 0.18022558 -0.4144869 0.025731148
-0.06745194 0.15607104 -0.3072462 -0.36264718 0.2826563 -0.43811464 0.42278665 0.12498332
0.30708316 0.42131552 0.29889256 0.22773479 0.2539501 0.7173435 -0.30406982 -0.47247124
-0.1677776 0.26230884 0.45762795 0.29107016 -0.47399896 0.37243348 -0.64550436 0.3018246
-0.31751147 -0.50926936 -0.62353164 -0.23755051 -0.3421465 0.10981761 -0.65402853 -0.33876792
0.35558838 0.48363551 0.4106644 0.63858455 -0.4339112 0.2772235 -0.15955806 -0.19548538
-0.31728208 -0.32827386 0.43178165 0.15435535
00000000: 29b2 a5be 16bc f9be 4b93 07bf 8fbc 873d
00000010: 7ce3 87bd 0f57 99be 5235 9e3e 27c7 ec3e
00000020: 50e3 943e e66a cc3e f929 e2be ed54 483e
00000030: f4af 703e 0abb c03e 1739 fbbd 143d 24bf
00000040: cc4f 1fbd 889d 28bf a22b efbe 1863 973e
00000050: 6ffe a8be a8dd c33d f297 883c 4a1f e1bc
00000060: 508f 8ebe 581e 1dbf 4678 bcbe 2017 853e
00000070: 1b5f 643e c57c 09bd e226 9abe b9a9 22bd
00000080: 5d59 8c3e 4215 6a3e 61a3 a3be b735 c13e
00000090: 0c9e 703d 92cf d73e 224f d03d ac40 ecbe
000000a0: 2a6e 17bf 4324 893e fc92 c03d 0cdc a23e
000000b0: c99f 95be d5ae ac3e 3bc5 f1bd c2a8 afbe
000000c0: 45fd 00bf 10fd 20bf ed65 653c f192 de3e
000000d0: bd53 febe c312 f33d 76c5 f63e cac0 a83d
000000e0: 5daf 883e 5048 113f b078 e73e 6085 96be
000000f0: 7148 cebe cdf0 0c3e 2f15 c3be fbcc 583e
00000100: c8d6 303e dec9 ca3e f88f 17be c968 c1be
00000110: 1aeb 7cbe 341d 49be 8855 803e b777 bbbe
00000120: e2b6 1e3e 633c a63e b8df 9bbd 1cce 03be
00000130: e295 01bf 1a16 9c3e 11eb 2cbf 2520 e03e
00000140: 7268 9c3e fce8 1b3e a9f0 e13e b6d3 003f
00000150: d9b2 b9be ea9b 6f3e 9eea 693e fbd3 22bf
00000160: 6f1b f23d 033b c13e 4ba7 d43e 8b83 7cbe
00000170: 50dd 203e 0018 a53e 8971 07bf 89f6 21bf
00000180: c867 b43e 8a8a aabe cb51 05be 3326 76be
00000190: 3c94 df3e ad68 103f a97d a63e 6e42 c8be
000001a0: a129 ae3e d6bb db3e 042c 2c3e 6ab7 babe
000001b0: 561d c6be bfb9 933c 45fe 3b3e ed84 afbe
000001c0: a018 d93e bc9c 843e 995c 34be fc6b 1fbf
000001d0: c29c 403f f6cd 27bf cf66 86be a629 7fbe
000001e0: cb4f 7a3e e8d2 36be 81b8 f03e c5fd 0abf
000001f0: dcaa d53d 7643 733e 8f3b bb3e 165b d6be
00000200: 9e37 2a3e 4bc1 9a3e d1d6 9e3e 3e30 d43e
00000210: 3ecc 773e 0e8d 383e a137 d4be 21ca d23c
00000220: 3e24 8abd 16d1 1f3e 604f 9dbe e4ac b9be
00000230: 54b8 903e 9050 e0be 7e77 d83e 41f7 ff3d
00000240: 013a 9d3e abb6 d73e 7208 993e 4f33 693e
00000250: bf05 823e d3a3 373f 0aaf 9bbe c0e7 f1be
00000260: e4cd 2bbe 584d 863e 364e ea3e 2607 953e
00000270: feaf f2be 9aaf be3e c63f 25bf c188 9a3e
00000280: dd90 a2be 7a5f 02bf c59f 1fbf 7140 73be
00000290: d32d afbe 0ee8 e03d 6a6e 27bf fd72 adbe
000002a0: ae0f b63e 139f f73e 9b42 d23e 477a 233f
000002b0: 9c29 debe 3df0 8d3e 3063 23be 522d 48be
000002c0: cc72 a2be 8313 a8be 7c12 dd3e 540f 1e3e
