models/GeneratedData/highschool_2011/state_dict.pt (torch_old, 822282 bytes, 10 tensors)

embedding.weight f4 [127, 10]
00000000: 74f1 f13f 2820 993e 234e d13f e3d5 c6be
00000010: b2e9 873f c59b 343f 0e83 ddbe 2864 0540
00000020: 7516 89bf bb71 b13c a921 d03e 1d98 923f
00000030: 50c9 f93e 5ad5 c5bf 8e8e 23bf abfa da3e
00000040: 09b4 4a3f 6cba 893f 49ea a93f 108e 8f3f
00000050: fd64 0440 a130 8ebf 05a5 ec3e 6914 28c0
00000060: cee8 43bf f66f 943f c582 64bf fcd4 08bf
00000070: 1c22 233e 666b ac3d d24b 10bf e297 283e
00000080: 1aa3 c7be 5eca 6bbe 8de9 393f 5e28 0cc0
00000090: d9a9 cfbf ede7 d13f 5902 6f3f 1f44 06bf
000000a0: 7573 c6be 02e3 cfbe d38f 23bf a719 b03f
000000b0: b599 0fbe bcc7 c2bf 60b5 7d3e d39d 67bf
000000c0: 3fd0 12be 1fc0 e23e 8b86 d5bc e069 4fbf
000000d0: 2d71 1e3f 0e1d 19bf be9d f7be 5f21 b03e
000000e0: ee70 2ac0 795e 2b3e 8ce1 d0bf f84e 88be
000000f0: 2f98 49bf 6e31 1abe 8cf8 febd 3c14 22bf
00000100: 4f43 f7bf a0fe 823e 8fcf b7be 8ddb c4bf
00000110: 7466 ff3d a13b 1640 710f 82bf 500f 603e
00000120: ee76 c73f 5327 27bf 7b71 e63f dd51 233f
00000130: 2661 7abf 4f67 16bf 7d2e 10bf 13ff c3bd
00000140: 5be5 c9bf f14d 49bf 24cb ad3f f435 633e
00000150: b2dc d23f 426b 923d f6cf 083e 94d6 c03d
00000160: aea8 713f 0f7e e8bf 8cf8 d83f 557e 973f
00000170: 7687 1ebf ee3e 3a3e 8f0c c2be 8911 0d40
00000180: 448f 7b3e 99d1 d13e fa7e 5abf 6844 843f
00000190: a56a 6e3e f1b5 133e 3ec3 99be aae6 43bf
000001a0: 46ea 7dbf 8715 f33f c440 34bf 073f debe
000001b0: ddd5 f0be b753 50be 77db 6e3e da03 b5bf
000001c0: 56c4 7dbd bea6 dd3f 0896 dabf 2b1c 6c3f
000001d0: 1ef9 52bf 5dc9 343f d3a9 b53e b384 6d3f
000001e0: aad3 7d3e 16ae 8a3f f213 8c3f cf36 69bf
000001f0: f0a8 78bf 624a 4ebe 92a3 0740 b325 5bbf
00000200: 02ef 06bf 33e6 5fbf 13db 743f 2617 0e40
00000210: ce38 8fbe f1e4 e4be f9a8 4d3e 9982 44bf
00000220: 2d58 23c0 9ec6 85bf 9e73 97be c59a d73f
00000230: cb61 7a3f be6b 9dbf ae5c 0340 1f1b 893f
00000240: 9fed 9e3e 1969 bf3e 1d1a d2be 4e67 ecbe
00000250: b974 dcbe 0f8c 85bf ff85 0cbf 276e 763f
00000260: 49f2 293f 0682 ce3e 1750 06c0 023c 2f3f
00000270: b41e 2abf 6d11 15bf dc33 173f 0553 c13f
00000280: da7c 003f c024 683f 0854 80bf 439b 1c3e
00000290: def6 e4be 48a2 06bf 3fb9 5c3f 7b8b b63f
000002a0: b7ec 0c40 1d48 8fbf 1061 ea3e 61d2 56bf
000002b0: 7b7d ecbe 8562 12bf 290e 1d3e a1e3 cd3e
000002c0: 5114 debe 09dc e03f 28a8 b43f 1b57 f83d
000002d0: 046c 7c3f 1f15 8ebe a3e1 413f 052f a0be
000002e0: 320d 273f bc09 0540 7798 fd3c 4ace b23f
000002f0: 54e6 8c3f ea49 c9bf 767a 9fbf fc02 d5bf
00000300: 7206 5fbf efc5 a23f d2eb 893f d8f4 6b3f
00000310: 31b0 8c3f b580 2d3f 84bc edbf 0da4 1cbf
00000320: b549 19be 82f7 b63f 2a69 a4bf de1a 633f
00000330: dc08 a43f 7594 493f 55ff 2c3f 0ac1 99bf
00000340: 7fb5 c7bf b9f5 0bbf b2a4 943f f878 8e3f
00000350: e7df 593f e417 2d3c f782 8dbf 55d4 af3e
00000360: 2732 babe e163 02bf f0ed 9b3f 5c17 89bf
00000370: bc0d 65bf faad 17bf eab0 0240 415f bfbe
00000380: 1c70 87be 78af a33f af6d dfbf 11a8 b2bf
00000390: de19 833f aa5e 423e 2d7e 83bf a279 563f
000003a0: 1131 4b3f f6f0 67bf f479 8ebf b1ff 863f
000003b0: 8bb2 4e3c ca95 8b3f 88bb 92bf afa5 9abf
000003c0: 27ba d83f 149d 68bf 7e31 a4bf 042f 4ebf
000003d0: 8037 4c3f 400f 04c0 703c 8bbc a4b5 b5be
000003e0: 05be e0be cb08 a33f e1ab 273e 57df 9ebf
000003f0: 94a9 a83f 6c84 8fbf 507f 6a3f c101 acbf
1.8901811 0.29907346 1.635197 -0.38835058 1.0618193 0.70550185 -0.4326405 2.084238
-1.0709978 0.021660676 0.4065068 1.1452671 0.48786402 -1.5455735 -0.63889396 0.4276937
0.7918096 1.0760016 1.3274623 1.1215229 2.0686638 -1.110859 0.4621965 -2.6262457
-0.76527107 1.1596668 -0.8926204 -0.5344999 0.1593098 0.08418922 -0.5636569 0.16464189
-0.38991624 -0.23026416 0.72621995 -2.1899638 -1.6223708 1.6398903 0.9336296 -0.52447695
-0.38759962 -0.4060288 -0.63891333 1.3757828 -0.14023478 -1.5217204 0.2477622 -0.90475196
-0.14337252 0.44287202 -0.026065132 -0.8102093 0.6189144 -0.5980996 -0.48362535 0.3440046
-2.6631427 0.16735257 -1.6318831 -0.26622748 -0.7874784 -0.15057918 -0.1244975 -0.63312125
-1.9317416 0.25584888 -0.35900542 -1.5379502 0.12470713 2.3473895 -1.0160962 0.21880841
1.558317 -0.6529438 1.8003381 0.6379679 -0.97804487 -0.58751386 -0.56320935 -0.09570136
-1.5773119 -0.78634554 1.3577619 0.2218855 1.6473601 0.07149364 0.13360581 0.094159275
0.9439801 -1.816347 1.695085 1.1835428 -0.61925447 0.18188068 -0.37900206 2.2041953
0.2456637 0.40980223 -0.8535 1.0333376 0.23282869 0.14424874 -0.3003177 -0.7652384
-0.991856 1.8990945 -0.70411325 -0.4340746 -0.47038165 -0.20344435 0.23325907 -1.41418
-0.06195482 1.7316511 -1.7077036 0.9223048 -0.8241137 0.70619756 0.35481128 0.9278061
0.24787775 1.0834377 1.0943587 -0.91099256 -0.9713278 -0.20145562 2.1193585 -0.856044
-0.52708447 -0.8746063 0.9564678 2.2201629 -0.27973026 -0.44705918 0.20083989 -0.76761776
-2.5522568 -1.0451238 -0.29580396 1.6844107 0.9780547 -1.2298505 2.0525317 1.0711402
0.31040666 0.3738487 -0.41035548 -0.46172565 -0.43057802 -1.0433367 -0.5489196 0.9626183
0.6638532 0.40333575 -2.0986383 0.6845094 -0.664531 -0.58229715 0.59063506 1.510346
0.5019051 0.90681076 -1.0025644 0.15293603 -0.44719595 -0.5259137 0.86220163 1.4261316
2.201948 -1.1193882 0.45777178 -0.8391476 -0.46189484 -0.5718158 0.15337433 0.4021273
-0.43374875 1.7567149 1.4113817 0.12125989 0.9860232 -0.2775049 0.7573492 -0.31285873
0.6525451 2.0787191 0.03095649 1.3969204 1.100779 -1.5725682 -1.2459247 -1.6641536
-0.8711921 1.2716655 1.0775092 0.92170477 1.0991269 0.67774516 -1.8573155 -0.6118782
-0.14969523 1.4294283 -1.2844594 0.8871287 1.2815204 0.7874215 0.67577106 -1.2012036
-1.5602263 -0.5467182 1.1612761 1.1130667 0.8510727 0.010564778 -1.1055592 0.34341684
-0.36366388 -0.50933653 1.2181988 -1.0710254 -0.8947408 -0.5924984 2.042048 -0.3737736
-0.2645272 1.2787924 -1.7455348 -1.395754 1.0242269 0.18981424 -1.0272881 0.83779347
0.79371744 -0.9060205 -1.1130967 1.0546781 0.01261581 1.0905087 -1.146348 -1.2081813
1.6931809 -0.9086468 -1.2827604 -0.8054049 0.79772186 -2.0634308 -0.016996592 -0.35490143
-0.43894973 1.2737058 0.1637416 -1.2411908 1.3176751 -1.1212287 0.91600513 -1.3438035

lstm.weight_ih_l0 f4 [512, 10]
00000000: e24a e4bd 6e62 9c3c 488e 0cbe 4e99 9a3e
00000010: edd6 25be 5d42 953e 325e 8b3d ca93 25be
00000020: ce3a 1a3e 878d 233e 4e2b adbd ccce 903b
00000030: b6ce 95be 73b4 b33d 91d3 433f ca16 b9be
00000040: 5a9c 00bf 9671 973e 283c d1bc b663 bd3c
00000050: 1c2f 64be 1ae3 ee3c 3f0b 083e bd86 14be
00000060: f8d8 02bd 3443 d3bd 9d2c dbbd d341 36be
00000070: c2a1 7abe da25 cabd 6194 08bf df6b e63e
00000080: 6c8e e23e 4c95 123f c50f 87bd 68db 0abe
00000090: 3fec aa3d 2ea4 9fbe b5dc 03be 81ef 853e
000000a0: 61fc 78be 548d 853d cd41 e53d a313 efbc
000000b0: 060e 1fbe 81f4 ce3e 5834 713d 1860 89be
000000c0: 99e0 20be 1ba0 e53e 7fd6 61be b322 adbe
000000d0: b31d ff3d 3054 533f b904 563f ce5f 28bd
000000e0: 284f b6be 12ef 7dbf 830b 3e3d a7f3 a53d
000000f0: 8f02 2dbe 60c0 3ebe 8873 a53e 002d 193e
00000100: bc56 61be f7bc 02bd 239c 3a3f c8ef 6d3d
00000110: f0aa 26be c45f 873e 9288 dbbd fa31 b13e
00000120: 16fb 803d 75dd 57be abcd 29be 2318 38be
00000130: 2770 173e b363 153f aa11 843e 4d73 25be
00000140: eee8 b53e d5bf 4b3d 25e9 13bd 6942 34bf
00000150: 82d4 193e 41ea 85be c889 86be 5c98 133f
00000160: bb0c 33be 60d0 0dbf 2c2e dcbe fb15 3a3e
00000170: f72d a8be 16dc 60be ff7b 82be 00e1 51be
00000180: c946 883e efd0 153e f3f5 9b3d 78be d43c
00000190: aaf2 8fbe 57eb 9e3d 8b29 0d3d b59d c2be
000001a0: 1733 9bbe 4a45 96bd 358b 15bf 9d2c 15be
000001b0: 3293 573e 86f2 91be 531e 36bd 08b0 e6bd
000001c0: 30cf babe b5d2 3d3e 4077 1a3e c9a0 76be
000001d0: 332e 9f3e ca0b c5bd 2114 64be 8148 843e
000001e0: 31f8 803e d1c9 2c3f e3f9 403e ea71 b5bd
000001f0: 0e11 abbd df87 883e b849 b3be e22b 53bd
00000200: e79d 593c a26c a33d 6ca0 55bf 0fab 973e
00000210: aa31 093f bb0c fdbe 14b9 7cbe 4a78 f83e
00000220: a2df 893e 6bc6 0a3e 8058 de3e 4022 dfbd
00000230: 93c9 e33c ca0a a1bd a20a 333e f63f bbbd
00000240: 3025 50be 5862 033f f5ff 1e3e baee a0bc
00000250: e8f6 f93d fdd1 b23c 8a80 35bb 6019 133d
00000260: 9587 043d 1e2d 94be 7011 193e 16ff e43d
00000270: 7b98 803e b06e 5dbe 87d1 38be 1f7e 6cbe
00000280: 7926 05bf e070 42be 75c8 db3e 8823 70bf
00000290: 3ce3 acbd bd73 323f ca25 253f 8fd2 8abd
000002a0: cc91 033f 58e7 c43e ff8d cebe b6c7 c6be
000002b0: 5251 4a3e 28d0 febe acb0 08be 958b 6c3e
000002c0: 1d54 ae3d 2de3 5cbe 04f8 133f 9b7a 773d
000002d0: 1659 ebbe de90 793e 3bd0 443d 7fd7 5b3b
000002e0: 709f e1be e7e4 febe 0259 04be f4ab 743e
000002f0: e96a 843e a118 e83e 89b1 a9be 113e 82bd
00000300: 18d5 eabe a090 f63e 382a 1abe 2cc7 5abe
00000310: 4029 c5bd 545a b1be be88 5b3d 501f 46bb
00000320: 7492 49be 012a 50be beac 09bd 8d74 aa3d
00000330: 6863 8bbd fdc2 b93d aede 72be ffb7 c8be
00000340: f66f e8be fe4a ca3e 5efc 923d 0ee6 18bf
00000350: d804 c03e f793 bd3e c409 603e d327 8b3e
00000360: 167c 2fbf f94a 1dbe 722b 62be 5a85 99be
00000370: 6b9a abbe 0e35 5e3e 4174 003e c465 89be
00000380: df4a 9cbe 35b9 833e 5d34 93be 1b7d 813e
00000390: 9c96 7a3e dc2f ea3d e609 e13e 0815 bbbe
000003a0: c14c 92be cb8a 5abf d8a9 a5be 0600 273e
000003b0: 35fb 7bbd 2dae 2e3e 8647 a73c 1a3a edbd
000003c0: 7175 623e 52fb 0e3f f8fe 883d 4dd8 90be
000003d0: 9764 733d 4196 823e 7f7d bcbd efe5 993d
000003e0: 1785 c6bd 82c4 1cbe 8470 cd3d c2f3 773e
000003f0: 2971 80be 60bd 82bd 6b65 033e 408e 4b3f
-0.11147095 0.019089904 -0.13726151 0.30195087 -0.16195269 0.29152194 0.06805076 -0.16169658
0.15061495 0.15971957 -0.08455525 0.0044191834 -0.2925927 0.08774652 0.764947 -0.361502
-0.50238574 0.29578847 -0.02554138 0.023118835 -0.22283596 0.029161025 0.1328554 -0.14504524
-0.0319452 -0.10315552 -0.10701869 -0.17798547 -0.24475768 -0.09870501 -0.5335141 0.45004174
0.44249284 0.5725906 -0.06594805 -0.1356026 0.083458416 -0.31179947 -0.12877162 0.2615929
-0.24315025 0.06521097 0.11194191 -0.029184168 -0.15532693 0.40420917 0.05888781 -0.26831126
-0.15710677 0.44848713 -0.2205448 -0.33815536 0.124568366 0.82550335 0.83600956 -0.04110699
-0.35607266 -0.9919292 0.046397697 0.081031136 -0.16895507 -0.18628073 0.32314706 0.14958572
-0.22005743 -0.031918492 0.72894496 0.05809 -0.16276145 0.2644025 -0.10719408 0.34608442
0.06297891 -0.21080573 -0.16582362 -0.17977957 0.14788876 0.58355254 0.25794727 -0.16157265
0.35529274 0.049743492 -0.036111016 -0.70413834 0.15022472 -0.26155284 -0.26276994 0.57654357
-0.17485325 -0.5539608 -0.43003976 0.18172447 -0.32847568 -0.21958956 -0.25485227 -0.20495987
0.26616505 0.14630483 0.076152705 0.025969729 -0.28114825 0.07759731 0.034463447 -0.38010946
-0.30312416 -0.073374346 -0.5841554 -0.145678 0.21052244 -0.28505343 -0.044462513 -0.11264044
-0.36486197 0.1853741 0.15084553 -0.24084772 0.31089935 -0.09621389 -0.22273304 0.25836566
0.25189355 0.6749545 0.18845324 -0.08859618 -0.08352862 0.2666616 -0.3501718 -0.05155552
0.013282276 0.079797044 -0.8344791 0.29622695 0.53591406 -0.49423775 -0.24679977 0.48529273
0.2692843 0.13552253 0.43426895 -0.108952045 0.027806079 -0.07863386 0.17484525 -0.09143059
-0.20326686 0.51321936 0.15527327 -0.019645084 0.12205297 0.021828646 -0.0027695023 0.03591287
0.032355864 -0.28940672 0.14948058 0.11181466 0.25116333 -0.21624255 -0.18048678 -0.23094986
-0.5201183 -0.18988371 0.42926374 -0.93804216 -0.08441779 0.6970785 0.64510787 -0.06778442
0.51394343 0.3845775 -0.4034271 -0.38824242 0.19757584 -0.49768186 -0.13348645 0.23100121
0.08512137 -0.21571036 0.57800317 0.06041966 -0.45966405 0.24371669 0.048050147 0.0033545194
-0.44066954 -0.49784014 -0.12924579 0.2389372 0.25862816 0.4533129 -0.3314326 -0.063594945
-0.45865703 0.48157215 -0.15055168 -0.2136504 -0.096270084 -0.34639227 0.053597204 -0.0030231066
-0.19684774 -0.20328523 -0.033612005 0.083230115 -0.068060696 0.09070394 -0.23717758 -0.39202878
-0.4539792 0.3951034 0.071770415 -0.59726036 0.37503695 0.3702695 0.21878725 0.2717882
-0.68548715 -0.15360631 -0.22086886 -0.29984552 -0.3351625 0.21699926 0.12544347 -0.26835454
-0.30525872 0.2572724 -0.28750888 0.2529076 0.24471515 0.1143491 0.43952864 -0.36539483
-0.28574184 -0.8536803 -0.32356143 0.16308603 -0.061518867 0.1705863 0.020419847 -0.115833476
0.22115113 0.55852234 0.066892564 -0.28290024 0.0594221 0.2550526 -0.09203624 0.075145595
-0.096933536 -0.15309337 0.10031226 0.2421408 -0.25086334 -0.06383777 0.12831657 0.7951393

lstm.weight_hh_l0 f4 [512, 128]
00000000: 603d 753f cdd4 593d ddc9 2fbe 7543 7b3e
00000010: c1a9 843e 2957 07bf b10a 8fbe 1164 ba3e
00000020: 9026 8e3e 6399 1b3f c3ec 20bd dddb f5be
00000030: bbc8 4d3d 5bca 2c3f 525e 95be 5980 4dbc
00000040: c7a3 303f eaba 76be 67d0 fc3d b30d 4cbe
00000050: 7b8b 27bf c28e b3be 490e d8be 66ba 5d3f
00000060: f842 4dbd 429e aabe 58e7 10be 6abe 1fbe
00000070: 8a17 b1bb 5eed d3be fb45 e3bc 73c6 763e
00000080: ebb7 b1be 6b29 11bf a8f9 583e 346f ba3e
00000090: 6b7e 893e a84d 24be fd16 d13d ad8e f03c
000000a0: a95a a43e 7edc c53e bfae 9dbe d9c3 1b3e
000000b0: 31c0 4f3f 2eb8 ee3e ed52 e03e 5c0c 7e3a
000000c0: 136f cabe 3593 be3d 7490 6ebd 2ff5 acbd
000000d0: f8e3 bcbe eedb 92be c645 03bf 925a 89bd
000000e0: 0199 033f 234f 633f a16f a0be d679 d63e
000000f0: 7de9 a9be 1563 dc3c eea9 0fbf 8ed0 883e
00000100: 5db5 c4be 6076 3cbe 4b1c e13d 0826 b23b
00000110: f880 3b3e 838d 3abe 082a ab3e 6f71 cc3d
00000120: 9674 09bf f4aa c13d f13a 9d3e d3c7 93bf
00000130: 1d0c 7dbe 3adb 623e 3f52 b3be 8ccc 0a3e
00000140: f51e e2bd ba35 99be b40e b33e e7d3 99be
00000150: 72f9 123c d10e 023e 1b1d 9c3d 69ed e6bd
00000160: 06cc a23f 80c8 7f3e c530 3f3c 40df dcbe
00000170: 66e3 47be eb45 7f3d 34b5 23bf 40ee 153f
00000180: 5c26 f2bc 4b6e 2c3f cf27 d9be 76a6 cbbe
00000190: 85cd af3e 8c06 8abe 970b bfbe 02ad 853d
000001a0: d80a 97be 026a c93c 933a 61be 3df8 243f
000001b0: f766 a6be 23e9 503f 3226 fa3d cca0 b1be
000001c0: fe65 d03c 1631 59be b80d 07bf eace 6a3c
000001d0: 2424 3b3d 729f 6ebe d3c9 233d 914b 8b3e
000001e0: 21d7 6fbe b0b6 bd3c 8764 6b3d ccc1 e9be
000001f0: ee06 dcbd 6bad 353f 543b 193e 7db5 a9be
00000200: 3ba9 a23e 43a6 8cbe 072e a7bc 95da b0be
00000210: 039c 433f 9cc5 083f 779c 2f3e f940 acbd
00000220: 7706 513e e375 09bd a18b d93e 071f 4c3f
00000230: 3115 8c3d db5d 9a3e 6af7 a7be 531f 953e
00000240: 1a09 6d3e 1b88 f0be 3339 e1be 7b06 6d3d
00000250: f86a d23e 6187 9ebf 6948 a73e ff08 803e
00000260: d235 64bd ee3f 10bf 01a9 5dbe 5a82 483e
00000270: 8fc2 423e 92e9 c43e 8f77 19be 9846 81bc
00000280: 9aaf 423e 1ed7 143d ec08 d63e 476a 05be
00000290: 08ab 873e 2157 0ebe f566 71bd 6283 873e
000002a0: ab09 c13e ad09 b5be 9438 b7be 7f5e c9bd
000002b0: cdd6 bf3e 453f 9e3e e60c b9be d7bd 943e
000002c0: d4ed 333e d477 cfbd 5284 20be d350 d1be
000002d0: 2e57 893d 2d3b c23d 3380 1e3d c3a3 4cbd
000002e0: a7dd b23e 39d8 533e a750 f03e ca90 343f
000002f0: 93a8 21bd 7082 e63e 9889 e0be 8b58 013e
00000300: 5587 e13e 8a7c cd3e bfa4 78bf 0dd2 07bd
00000310: c061 aebc 02ae 37be 688a a2be f6a8 e6bc
00000320: 731a 8dbe 0f02 5c3e 97c6 163d b8cd 25bd
00000330: ff1b 08bf a2b4 183f 130b b7be 9993 c43d
00000340: d383 f0bd 5ca0 143b 438c d4be e8f3 a53e
00000350: 1f8d e73e ee06 61bf 36c3 cb3e e68c 943d
00000360: bd7f 8bbe ad63 c03d 6709 9abd cb91 06bd
00000370: 366c 10be f3e9 133d 0b83 b8bd 43da c7be
00000380: 4b77 94be aff7 3e3c 7371 debe b70d 27be
00000390: fdbf 0fbf d217 c1bd 2384 d53e 8ce5 b33c
000003a0: 41b1 3abd f2c5 12be 8675 b33e 52a6 e03e
000003b0: acc1 9a3c d57f a13d 7420 7dbe 89c1 67bf
000003c0: 3da7 0dbf c9bd 4abe fcda eb3e b92f 213c
000003d0: 9f26 973e 313d e6bc 6ff6 31bd 6ca1 5a3e
000003e0: aed3 a63d 1eb1 0c3e a434 26be 20b5 cfbd
000003f0: ca4b babe 435a 65bd a95f 75be 4622 173f
0.95796776 0.05318146 -0.17166848 0.24537452 0.25910762 -0.5286737 -0.27937844 0.3640447
0.27763796 0.60780925 -0.039288294 -0.48019305 0.05024026 0.6749627 -0.29173523 -0.0125428075
0.68999904 -0.2409474 0.12344437 -0.19927101 -0.65447205 -0.35069853 -0.421984 0.86612546
-0.050112695 -0.33323866 -0.1415075 -0.15599981 -0.0054044174 -0.41392034 -0.02774333 0.2409914
-0.3471063 -0.56703824 0.21188986 0.36412966 0.26854262 -0.16045249 0.10209463 0.029364908
0.32100418 0.38644785 -0.30797383 0.15211429 0.81152636 0.46624893 0.43813267 0.0009691173
-0.39537868 0.09305421 -0.05824323 -0.084452026 -0.36892676 -0.28683418 -0.5127834 -0.06706728
0.5140534 0.8879263 -0.31335166 0.41889828 -0.3318595 0.026902715 -0.5611867 0.26721615
-0.3841962 -0.18404531 0.109917246 0.0054366626 0.18310916 -0.18218045 0.33430505 0.09982573
-0.5369352 0.09456435 0.3070903 -1.1545357 -0.24711652 0.22153941 -0.35023686 0.13554591
-0.11041061 -0.29923803 0.34972155 -0.3004448 0.008970605 0.12700965 0.07622739 -0.11275751
1.2718513 0.24978828 0.011669342 -0.43139076 -0.1952034 0.06232254 -0.6394837 0.58566666
-0.029559307 0.67355794 -0.42413184 -0.39775437 0.34336486 -0.2695812 -0.3731353 0.06527139
-0.2950046 0.024586681 -0.21995 0.6444128 -0.3250043 0.8160574 0.122143164 -0.3469299
0.025439259 -0.21210131 -0.5275531 0.014331559 0.045688763 -0.23303011 0.039987396 0.2720609
-0.23421909 0.023158401 0.057468917 -0.45655668 -0.10743509 0.7096774 0.14964038 -0.33146277
0.31769738 -0.27470598 -0.02040769 -0.34541765 0.7640993 0.5342653 0.1714953 -0.0841083
0.20412622 -0.03355969 0.4248934 0.79734844 0.068399794 0.3014973 -0.3280595 0.2912546
0.23148003 -0.4697884 -0.43988952 0.05786751 0.41097236 -1.2385064 0.32672432 0.25006863
-0.05571539 -0.5634755 -0.21646501 0.19580975 0.1901953 0.3845945 -0.14987014 -0.015780732
0.19012299 0.036337964 0.41803682 -0.13028823 0.26497674 -0.13900425 -0.058936078 0.26467425
0.3770269 -0.35358945 -0.35785353 -0.09832477 0.37468567 0.30907646 -0.36142653 0.29051086
0.17571193 -0.10130277 -0.15675476 -0.40881976 0.06706081 0.09483943 0.03869648 -0.049960863
0.34934732 0.20687951 0.46936533 0.7053343 -0.039467406 0.4502139 -0.43854976 0.12631433
0.44048563 0.40134078 -0.9712638 -0.033159304 -0.021286845 -0.17937472 -0.3174622 -0.028156739
-0.27559242 0.2148516 0.036810484 -0.04047939 -0.5316772 0.59650624 -0.35750636 0.095984645
-0.117438935 0.002267859 -0.4151326 0.32412648 0.45224854 -0.879012 0.39797372 0.07253437
-0.27245894 0.09394012 -0.075213246 -0.032853883 -0.14103779 0.036111783 -0.090093695 -0.39033708
-0.28997263 0.011655732 -0.4344593 -0.16313826 -0.56152326 -0.094283715 0.41702375 0.021960042
-0.0455792 -0.14333323 0.350506 0.43876892 0.018891178 0.0788571 -0.24719411 -0.90529686
-0.5533331 -0.1979896 0.4606551 0.009838038 0.29521653 -0.02810535 -0.043447908 0.2135064
0.081458434 0.1373944 -0.16231018 -0.10141969 -0.36385947 -0.055994283 -0.23962273 0.5903667

lstm.bias_ih_l0 f4 [512]
00000000: 4ae0 e8bc e95f 54bd 799e 41be 6067 b73c
00000010: 169c 90be efa4 adbd a2ae 18be d79e c43c
00000020: a0fd 4c3e c2b1 cebd f82a aabe 167b 23ba
00000030: 44d3 7ebe 4c93 29be 8575 69bd eff5 603d
00000040: 63fe 3ebe 4a08 25be 3ca0 50be b418 24bd
00000050: 0b03 fe3d 9f35 bebd 29f9 8fbd 8c06 6a3d
00000060: 4647 e2bd 6db2 6f3d cb8d b5bd 2805 ea3c
00000070: a7f2 db3b 18c9 0c3d 4d6e 55bd dfc5 d23c
00000080: 8b38 233d 4bed fabc 5c7e 42be b020 323d
00000090: 3072 cfbd 4d91 bc3d 4928 9bbd 670a 11bd
000000a0: dfa8 a7bd 3d53 25be aad7 74be 9e48 e0ba
000000b0: 5c98 203d 2c43 fe3c 1df1 993c 0ecc c73b
000000c0: 916c c7bd 79c3 a43d 5cce 2dbe e522 67bb
000000d0: bc9d 06be 8fd5 523d b686 25be f1d2 59be
000000e0: ca82 51be 8abe febd 4be8 6dbe 578f 0ebd
000000f0: 6d64 1a3d 3f83 6dbd 4679 a1be 0ada 43bd
00000100: 512c d83d 7593 e9bd e862 623d d76e b93e
00000110: d35f 87bd 26b7 fcbd 6e82 01be 15b9 c9bd
00000120: fd0a 963b 3a0e b73d f179 01be 9103 e53d
00000130: 6173 41be a6d4 64be d1b2 8dbe da38 f03b
00000140: 9ef4 acbd 48e6 c83c 412c debd 4a6d ccbd
00000150: f581 2f3e e4ea 35be ab59 bebe 86af 0cba
00000160: c364 87bb 35fa 87be 48be 8fbe 576d 463d
00000170: 1a6b 003d 76ea ff3d 0596 67be 2cc5 bdbd
00000180: 0a33 deb9 f122 383e 4a89 06be 5847 cfbd
00000190: 06e3 9ebd 36b4 bbbd 7aef b5bd 0609 49bd
000001a0: bb81 a2bd 0fa6 fb3a 5482 9a3d b90c 6abe
000001b0: f8d0 ed3e ff9a ae3e 95d1 50bc a8ec 79be
000001c0: 2a99 e53c 2d4c b3bd b9e8 d23e 73d5 22be
000001d0: 7e85 79be 1407 5bbe 8fbd 13be 4f21 e2bd
000001e0: 1e18 51be 337b 12be cf48 9dbe 41c3 a13d
000001f0: 22fa 08be a00a a93d c1d5 30be 1075 1abe
00000200: 59e8 53be f247 0abe ec31 563d 5bb6 50be
00000210: 74ea 2f3e 494f 75be ae92 4e3c ebb6 a7be
00000220: 0814 e1be d5cb 07be b073 77be e978 8dbe
00000230: 1fc9 ccbd f356 c0be 5e90 3dbe ae34 bd3d
00000240: 4e13 30be cd25 01be 51b0 c6bd 7bf6 5dbd
00000250: a090 2abe b8c1 bdbe a3dc 28be f915 e6bd
00000260: 6fdc 12be aad2 b4be d878 97bb 0c20 c1be
00000270: 7a6b d4bc b0ba 16be fd4a ecbb d8ec 95bd
00000280: 5eca 8abe f8ac 64be 7ca2 74be 291e 2d3e
00000290: 767b e3be d623 0fbe 1d87 313d e317 c83c
000002a0: eb87 0cbe 6290 1fbe 3f17 b1bd 713d b8be
000002b0: 93b2 3dbe 8ccc 96be a440 58be fe92 6b3c
000002c0: 8a50 4cbe 6552 62be daba d5bd 5bb5 89bd
000002d0: 0c2d 4ebe 5c1d 44be 29b1 a83d a2c0 85be
000002e0: 0c04 80be a24c 45be 605a dcbd ec04 0dbe
000002f0: f3b0 b1bd 3603 e43d 740e adbe 18fd 19be
00000300: defd 573d 8323 1dbe 4e2e bfbe aa57 e7be
00000310: 72e9 92be 5016 753d ee34 003e 3ffe a13d
00000320: 0c77 07bd 24af 96be 11f5 7dbe a598 28be
00000330: 8fa4 21be b63a c0bd a263 e6be bebb 44be
00000340: 27f8 383d 372f cfbd 1bbb 08be fd2a 573e
00000350: 7bbe dfbe 9440 f3be 1b01 5fbd 8d8a 05be
00000360: f862 0abf 04b2 a2be e644 8cbe f5ce 2dbe
00000370: 673f 72be e19c 86be e38b 12be 20f1 b5be
00000380: c62c ffbd d60c 88be a950 12be 8f10 efbd
00000390: b7b5 2ebe 9d72 c9be 31e6 72be 1bbc 163e
000003a0: e1fb 8dbd 7367 0abe 1649 9cbd 7839 a6bd
000003b0: ef6d c5be 7661 a9be 05c3 053e a910 74be
000003c0: 754d 133d 4ddd 27be b2df bbbe 2f4d 41be
000003d0: 991d c5be c821 b1bd 90e2 0dbe bc88 bf3c
000003e0: 404e 28bd 3305 80bc 1aea 383c 7008 8dbd
000003f0: e767 b13d c3f7 9fbe 774a 11bd c14b 7bbd
-0.028427262 -0.05184928 -0.18908109 0.02238816 -0.28244084 -0.08478724 -0.14910367 0.024001522
0.20018625 -0.10092498 -0.33235908 -0.0006236298 -0.24885279 -0.16560096 -0.05699684 0.05492204
-0.18651728 -0.16116443 -0.20373625 -0.04006262 0.12402924 -0.09287571 -0.070299454 0.05713515
-0.110487506 0.05851977 -0.088649355 0.028566912 0.006712276 0.034371465 -0.052107144 0.025729118
0.039848845 -0.030630728 -0.18993515 0.043488204 -0.101292014 0.092074014 -0.07576043 -0.03541031
-0.081865065 -0.16145034 -0.23910394 -0.0017111485 0.0392078 0.03103789 0.01879173 0.0060973233
-0.09737504 0.08045096 -0.16973251 -0.0035268601 -0.13146108 0.051473197 -0.1616467 -0.21271874
-0.20460048 -0.12438686 -0.23233144 -0.03480467 0.03769343 -0.057986494 -0.31537837 -0.04781536
0.10555328 -0.11405078 0.055270106 0.36217377 -0.06610074 -0.1233962 -0.12647411 -0.09849755
0.0045789466 0.089382604 -0.12644173 0.11182321 -0.1889167 -0.22346744 -0.2767549 0.007330996
-0.084450945 0.02452387 -0.108482845 -0.09981783 0.17139418 -0.17765385 -0.37177786 -0.0005366731
-0.004131885 -0.2655808 -0.2807486 0.04844412 0.03135214 0.12495892 -0.22615822 -0.09266123
-0.00042381167 0.17982079 -0.13138309 -0.101210296 -0.07758145 -0.09165232 -0.08883567 -0.04908087
-0.079349004 0.001919927 0.07544389 -0.22856416 0.46448493 0.34102628 -0.012745281 -0.24406683
0.028027136 -0.08754764 0.41193178 -0.15901737 -0.2436733 -0.21389419 -0.1442778 -0.11041509
-0.20419356 -0.1430481 -0.3071961 0.0789857 -0.13376668 0.0825398 -0.1726904 -0.15083718
-0.20694102 -0.13504007 0.052293703 -0.20382063 0.1717928 -0.23956026 0.012608213 -0.32756743
-0.43960595 -0.1326135 -0.24165225 -0.2763131 -0.09999298 -0.37566337 -0.18512103 0.092385635
-0.17194864 -0.12612076 -0.097015984 -0.05419014 -0.16656733 -0.37061858 -0.16490416 -0.1123466
-0.14341901 -0.35316974 -0.00462256 -0.37719762 -0.025930155 -0.14719653 -0.0072110877 -0.07320565
-0.2710752 -0.22331607 -0.23890108 0.16906036 -0.4443013 -0.13978514 0.043341745 0.024425453
-0.13723724 -0.15582421 -0.08647012 -0.35984376 -0.18525152 -0.29452932 -0.21118408 0.014378307
-0.19952598 -0.22101744 -0.1043603 -0.06724044 -0.20134372 -0.19151825 0.082369156 -0.2612353
-0.25003088 -0.19267514 -0.10759425 -0.13771409 -0.086763285 0.11133425 -0.3380009 -0.15037954
0.05273234 -0.15345578 -0.37340015 -0.4518407 -0.2869373 0.059835732 0.12520191 0.07909822
-0.033072516 -0.29430497 -0.24800517 -0.1646448 -0.1578543 -0.09386198 -0.4499789 -0.19212243
0.04515853 -0.101164274 -0.13352625 0.21012492 -0.43700013 -0.47510207 -0.054444414 -0.13041134
-0.54057264 -0.3177644 -0.27396315 -0.16973479 -0.23656999 -0.26291564 -0.14311175 -0.35535526
-0.12459712 -0.26572293 -0.14288582 -0.1167308 -0.17061506 -0.39345255 -0.23720624 0.14720194
-0.06932808 -0.13516025 -0.076311275 -0.0811643 -0.38560435 -0.3308217 0.13062675 -0.2383448
0.03596254 -0.16393013 -0.36694103 -0.188771 -0.38499144 -0.086490214 -0.13855958 0.02338063
-0.04109025 -0.01562748 0.011286283 -0.06886375 0.08662396 -0.31243715 -0.035471406 -0.06135154

lstm.bias_hh_l0 f4 [512]
00000000: abe0 d23c 61cc 38bb da73 f6bd 9f23 023d
00000010: 080b 40be 67a9 56bd 4513 b5bd 2d74 b0bd
00000020: 9df2 4e3e 1425 18be 496e 64be dd84 673d
00000030: 055f c0bd ae8e 83be 4300 07be 051d 293c
00000040: 5e67 0ebe 9c01 63be 7091 81be feda 4f3c
00000050: b9df 19bb 9348 1bbe e819 1dbe 76f9 3dbd
00000060: 3756 2d3d 95fe 63bd 553c 86bd 1d4b dd3a
00000070: 4d4c 21bd f9f2 823d 9080 72bd ca41 de3d
00000080: 16cf c23d 1842 ed3b 7d9e 85be c642 68bd
00000090: b6d7 a2bd a7c5 d93d 7385 a53c 514a fdbc
000000a0: 002c febd 00e6 64be 6db8 4fbe b1fa e5bd
000000b0: bb2a 48bd 46be babc 64a1 123d 1abc 16be
000000c0: ce22 153d c9c2 4f3d b645 13be 46e6 01be
000000d0: c046 a3bd c444 023e 43af fcbd bb72 27be
000000e0: b625 67be bc08 15be a1d7 40be 863a b1bd
000000f0: 2a70 f03c 505e e3ba c465 76be 9ce5 6d3d
00000100: 0e5a 213c cf01 5cbd 5828 923d e7d6 ae3e
00000110: 93d4 02bc 72e7 b3bd 5510 29bd 9175 fdbd
00000120: cfa4 dcbd cffb 213d 6082 9dbd 6580 a53d
00000130: 8e14 44be c64a 87be 9da0 47be b996 713d
00000140: fef1 3fbd 260b 1b3c aa16 06be 56d0 19bd
00000150: 26ab 103e 77e5 14be 7896 cebe 46e5 59bc
00000160: f4b6 c3bd 248a e1bd e3e4 a0be 1152 cbbc
00000170: 1412 a9bd affb 103e 03a9 c7bd 3932 1dbe
00000180: e13e 82bd eed2 9d3d 7747 60be d0cf 56be
00000190: af32 23be 3410 f33c c9f0 b6bc 99ec 813d
000001a0: dd5f 263d 6d81 6f3c 623b 6e3c ee90 7abe
000001b0: 8ae4 173f 193d b23e a6b9 133c 029b 53be
000001c0: 40dd a33a 63ef b73c b60b 053f 1dc3 0abe
000001d0: 4167 eebd 48e7 2bbe f117 8abe 8d59 8dbd
000001e0: 1b74 d3bd 6fc1 16be 4779 7dbe ec73 ce3d
000001f0: e7ab 40bd 2cbe 1a3c 492e 92bd 8a63 c8bd
00000200: 9ed4 38be 5cf7 2dbe 4a82 cd3d d635 acbe
00000210: 51c1 0b3e a8a8 9cbe 03ed a7bd ee6e 7fbe
00000220: b605 f8be 849f 74be 5373 3bbe 0ca9 5ebe
00000230: 93ba 2fbe 4eea 90be 4805 94be 99ca 6ebc
00000240: 4845 ebbd 9e8d 25be 8a6f 07be 6e40 9c3d
00000250: 8462 04be 996b b6be b62e cfbd d7c0 34be
00000260: a856 e0bd 652f c5be c684 9abc efbb bebe
00000270: 22c9 e4bd 1cd8 43be 8fff 8e3c 41c6 03be
00000280: 86e2 bfbe 269b 69be 98ba 5abe ba3c 213e
00000290: 415b d8be 8f11 07be 32ce fc3b 4a5f f6bd
000002a0: e0a0 22bd 9535 79be f72a bbbd eaac b7be
000002b0: ea47 71be f32e 51be df6d a1be 9219 b7bc
000002c0: ed5d 63be 9d08 75be 76f9 09bc 390b 9dbd
000002d0: 8ae8 2dbe f03e 4ebe 49ac 84bd 2ace 34be
000002e0: 0144 4dbe 720a 90be b3f2 c3bd fc3c 12be
000002f0: 6e80 813a e311 a83d 548c b8be 8726 1dbe
00000300: 1a2d f5bc a9b5 a6bd 90fc babe f7eb abbe
00000310: 9d53 8cbe d5f6 62bd e902 833d 90e8 7ebd
00000320: 86c8 3b3d 3caf 78be 6ef6 41be 1266 6fbe
00000330: 7202 04be 2b44 73bc 0421 a0be 469a b1be
00000340: 755e 833d b15b 9cbd 45fd 0dbe 72c8 273e
00000350: 9259 e1be 3f5e bebe c709 55be 6293 e3bd
00000360: 2de7 0bbf 7d1f c9be 4470 52be c818 83bd
00000370: e3e9 4fbe 6722 61be 9649 28be 0124 a1be
00000380: 1185 07be d611 c8be 7ec0 0fbe e184 69be
00000390: a37e 1dbe bd13 b1be a8f8 7cbe f158 483e
000003a0: d664 37be f0f8 91be 1ea8 b0ba 15b1 04be
000003b0: 1fb4 d0be 68f3 a0be 45c7 333e d141 9abe
000003c0: fc47 22ba c6a3 efbd f7eb e9be 7593 8fbe
000003d0: cfaf b0be 5c02 c8bc e5e5 0dbe d69c 433d
000003e0: 7960 babc dac6 f33c 22f3 7c3d d378 22be
000003f0: c865 6a3c 1b82 8dbe cf64 983c 0bd9 05be
0.025741896 -0.0028197991 -0.12033816 0.031772252 -0.18754208 -0.05240765 -0.08841566 -0.08615909
0.20209737 -0.14857894 -0.22307695 0.056523193 -0.093931235 -0.25694793 -0.13183694 0.01032186
-0.13906619 -0.22168583 -0.25306273 0.012686489 -0.0023479296 -0.15164404 -0.15341914 -0.046380483
0.04231855 -0.05566271 -0.06554476 0.0016883347 -0.039379407 0.063939996 -0.059204638 0.10852392
0.09512155 0.007240545 -0.2609748 -0.056704305 -0.079513 0.10633402 0.020205235 -0.030919226
-0.12410736 -0.22353363 -0.20285197 -0.11229456 -0.048868876 -0.022795808 0.035798445 -0.14720193
0.036410145 0.05072287 -0.14382061 -0.12685499 -0.07972479 0.12721545 -0.12338116 -0.1635236
-0.2257298 -0.14554113 -0.18832256 -0.086537406 0.029350359 -0.0017346833 -0.24062258 0.0580803
0.009848131 -0.053712662 0.07136601 0.34148332 -0.007985252 -0.08784379 -0.04127534 -0.1237594
-0.10773622 0.039546784 -0.07690883 0.0808113 -0.19148466 -0.26424235 -0.19494863 0.05898163
-0.04686164 0.009463107 -0.13094583 -0.0375522 0.14127788 -0.14540659 -0.40349174 -0.013299292
-0.0955638 -0.11012676 -0.31424627 -0.024819406 -0.08255401 0.1415851 -0.09749033 -0.1535119
-0.063596494 0.07706247 -0.21902262 -0.20977712 -0.15937303 0.029670812 -0.022331612 0.063439555
0.040618766 0.01461826 0.014540525 -0.24469349 0.593331 0.3481224 0.00901643 -0.206646
0.0012501851 0.022453016 0.51970994 -0.13550992 -0.11640788 -0.16787446 -0.2697139 -0.06901846
-0.1032488 -0.14722227 -0.24753295 0.10080704 -0.04703894 0.009444755 -0.071377344 -0.097846106
-0.18049857 -0.16988891 0.10034616 -0.33634824 0.13647963 -0.30597425 -0.08199503 -0.2494466
-0.48441857 -0.23888975 -0.18305711 -0.21744174 -0.17161016 -0.2830376 -0.2891028 -0.01457467
-0.11487824 -0.16167304 -0.13226143 0.076294765 -0.12928206 -0.35628965 -0.10116331 -0.17651688
-0.10954028 -0.38512722 -0.01886214 -0.37252757 -0.111711755 -0.19125408 0.017455844 -0.12868597
-0.3747751 -0.2281309 -0.21360242 0.15745822 -0.4225712 -0.13190292 0.00771501 -0.12029894
-0.039704204 -0.24336846 -0.09139054 -0.3587411 -0.2356259 -0.20428066 -0.31529137 -0.02235106
-0.22203799 -0.23929067 -0.0084212925 -0.07668156 -0.16983238 -0.20141196 -0.06478173 -0.1765677
-0.20045473 -0.2813297 -0.095677756 -0.14281076 0.0009880194 0.082065366 -0.36044562 -0.15346728
-0.029928733 -0.08140118 -0.36520815 -0.33578464 -0.27407542 -0.05541118 0.063970394 -0.062233508
0.04584553 -0.24285597 -0.18941662 -0.2337878 -0.12891558 -0.0148477955 -0.3127519 -0.34688014
0.064145006 -0.07634676 -0.13866146 0.16385058 -0.4401365 -0.3718128 -0.20804511 -0.111120954
-0.5464962 -0.39281836 -0.20550638 -0.06401211 -0.20304064 -0.2198578 -0.16434321 -0.3147278
-0.13234355 -0.39076108 -0.14038274 -0.22804596 -0.1538034 -0.34585372 -0.2470423 0.19565178
-0.1790956 -0.28510237 -0.0013477837 -0.12958176 -0.4076242 -0.31435704 0.17556484 -0.3012834
-0.0006190536 -0.11701159 -0.4568784 -0.28042188 -0.3450913 -0.024415188 -0.13857229 0.047756992
-0.02275108 0.029757906 0.061755307 -0.15866403 0.014306493 -0.27638325 0.018602757 -0.13071077

lstm.weight_ih_l1 f4 [512, 128]
00000000: de36 28bf 9635 7f3e 9960 ac3e 1c1a 493e
00000010: 1309 863e ab5a 8fbd 0c29 8c3e 5cda 2fbe
00000020: 53c7 7dbd a4e1 b53d 7ec3 e2be 6ffc fa3e
00000030: e85b c2be 29f0 f63e f84d f3be 3269 643e
00000040: e823 563e 453a 0d3c a01d 643e 452b efbd
00000050: 9c7e bf3e 9d55 ef3e eab2 16be 9f81 153e
00000060: 4f4c a7be 55d2 80be 0d97 a23d c91f 183f
00000070: 218d b23e bfdc e93c a1b1 94bc a7fd 85bd
00000080: a85f cabd 05a9 1f3e 688d 8c3d 19c9 3e3f
00000090: 688e 753e 3a67 87be 6174 d2bd cafa fe3e
000000a0: a443 41be f22c 273e 3bc0 0dbf 8ae2 b33e
000000b0: a587 d4bb 1bab 583e 2b7b d13e e523 c93d
000000c0: 3e3b 1dbd 2c58 23bd 99fb 77be 1a61 11be
000000d0: c327 d43e 82dc eabe f853 9d3e 9170 053d
000000e0: d51f 043e 17fd 89bd 21fe 5c3c d983 05be
000000f0: 4b2a 99bd 8a63 ba3c 631e 3c3e cf75 8cbe
00000100: 7345 c7be 6eed f6be 705f cc3e 98c6 17bd
00000110: 3264 4fbe 9944 e1bd 3e8d b83e b0ac 833d
00000120: 1bb3 b93e 6f6e 2ebc fb0a b6be 3291 bcbe
00000130: a60a 843e 9399 fc3d a452 ec3e d28c fa3e
00000140: e912 9dbd 294e dbbe 8734 683e e3e0 d3be
00000150: f584 8bbe 3885 77bd a047 2c3e c356 b73e
00000160: 2889 97bb de8f d43e 9f1b 09bf a345 d8bd
00000170: 0fef cfbe 04d0 683c 0040 a2be ae78 583e
00000180: df64 31be a173 bbbe dab4 923e 8d67 cc3e
00000190: 13ea 3fbe c06d 92bc d069 0cbf 6c9b 0dbe
000001a0: fde7 eb3d 6035 afbd be98 87be d0d2 e8bd
000001b0: be6e 08be 5561 b4bd f273 973e 6d86 fe3e
000001c0: 23e2 643e 5d56 b0bd ec76 6a3e 8e89 093d
000001d0: fb1f c7be d23c 7cbe 12a7 d13d 3a9e f23d
000001e0: a0b1 7d3e 5036 533e 6752 113e 607e 3b3e
000001f0: 15f6 6f3c 604c da3d 9acb a5bd f384 aa3e
00000200: 0b1e d2bb 4799 efbd 0912 613e 067f 8bbe
00000210: 1e37 9bbe cca0 843e 6bc9 30bc 5e4e b03c
00000220: e803 92be 9045 293e 1880 6b3e 31ef ae3d
00000230: 55c9 4b3b e32c 59bc fe22 953e efab 8fbd
00000240: a4f0 403d 85b9 bebc 8bbe 81be 3eac f53e
00000250: cb55 d63d d161 d03e ddf2 de3d a609 18be
00000260: 9d24 ef3a def4 53be a3ae 973e 6132 e63e
00000270: 8d92 17be c38a 99bc 4862 e53d 622c 25be
00000280: 18f4 3e3e 94c9 d33d 0233 963e 2853 08be
00000290: 263f e4bd 2311 35be f6c7 86bd 0fbd 2abd
000002a0: 4f2c 453d d5ee 21be a6c6 5a3d 78c6 36be
000002b0: 2960 cf3d 29d9 8fbe 2b56 e13d 32a5 97be
000002c0: ad09 653e 43ba a93e eeba cb3c 03a3 f9be
000002d0: a68f 18be 53e0 b5bd 97c6 b13e cac2 0b3e
000002e0: 5af1 ca3d 5ad7 d33d 2df6 16bd 658d a63d
000002f0: 4fe5 2fbe acb6 94be 301a 503c 6933 c2bd
00000300: 29c7 833e d119 653d 5e76 37bd f387 103d
00000310: 5abf a6bc 9de6 8abe 3543 02be adee 50be
00000320: d5dd 4d3e c0f4 043e 5eb0 363d 485c e1be
00000330: c0ad a4bc 4b90 053f f7bd abbc 8e02 913c
00000340: 52ab da3e 6258 ec3c ee63 d9bd e2e0 79bd
00000350: 59ef 653c 9cda a1be 2bbf 1dbe 27f8 883d
00000360: a638 57bd 4d02 3a3e bac5 a23c e1e6 58be
00000370: c73c 0f3e 8170 10be 787d 9e3d 1c7d 0a3e
00000380: b099 ab3d 0e43 9c3e 2dbc 2abe 36e3 f4bc
00000390: c966 ad3d bf38 583e 54ce 1fbd 9ff5 e0bd
000003a0: 2077 673e 222c c23c fc54 96bd a8c5 5c3e
000003b0: 00b4 b63c 3d23 e3bd 775c e93d c73a ba3c
000003c0: 8ec0 4fbe 6ce6 3e3e 2360 b33d 476b 9b3c
000003d0: cdd2 0d3d c727 3f3e 1289 9cbe 99da bebe
000003e0: 0c5c 94bd b943 333f 502f 21bd c8c5 7bbc
000003f0: c5f2 25bc 484c 1dbe bf97 c93e cfd2 89be
-0.6570872 0.24922785 0.33667448 0.19638866 0.26178798 -0.069997154 0.27375066 -0.17173141
-0.06195767 0.08880928 -0.44289774 0.49020717 -0.37960744 0.48230103 -0.47520423 0.22305754
0.20912135 0.00861985 0.22276926 -0.11678175 0.37401283 0.46745005 -0.14716688 0.14600228
-0.32675406 -0.2516047 0.07938967 0.594235 0.34873298 0.028547643 -0.018151106 -0.06542521
-0.09881526 0.1559182 0.068629086 0.745256 0.23980105 -0.26445943 -0.10276104 0.49800712
-0.18873459 0.16325739 -0.55371445 0.35133773 -0.0064858967 0.21159022 0.40914282 0.098212995
-0.038386576 -0.03987901 -0.2421707 -0.14197198 0.41436586 -0.4587136 0.30728126 0.032578055
0.12902768 -0.06737726 0.013488323 -0.13038577 -0.0747877 0.022752542 0.18370967 -0.2743363
-0.38920173 -0.4822802 0.39916563 -0.037054628 -0.20253065 -0.10999412 0.3604526 0.06429422
0.3626946 -0.010646447 -0.35555252 -0.36829525 0.25789374 0.123339795 0.461568 0.48935562
-0.076696225 -0.4283307 0.22676288 -0.41382512 -0.27249876 -0.06042978 0.16824198 0.3580838
-0.0046245046 0.41516012 -0.5355777 -0.10560157 -0.40612075 0.014209751 -0.31689453 0.21139786
-0.17323636 -0.36611655 0.28653604 0.39922753 -0.18741636 -0.017874599 -0.5484896 -0.1382882
0.11518858 -0.08555102 -0.2648372 -0.11368334 -0.13323495 -0.08807627 0.29580647 0.49711934
0.2235189 -0.086102225 0.22896928 0.033578448 -0.38891587 -0.24632576 0.10236944 0.118465856
0.2477479 0.20626187 0.1419159 0.18309927 0.014646073 0.106590986 -0.080954745 0.33304557
-0.006412273 -0.11699157 0.21979536 -0.2724535 -0.3031549 0.25903928 -0.010790209 0.021521743
-0.28518605 0.16530442 0.22998083 0.08541716 0.0031095345 -0.013255331 0.2912826 -0.070152156
0.047104493 -0.023281822 -0.25340685 0.47982973 0.104655825 0.40699628 0.10886166 -0.1484743
0.0018245165 -0.20698878 0.29625425 0.4496031 -0.14801998 -0.018742925 0.11200386 -0.16130212
0.18647802 0.10341182 0.2933579 -0.13312972 -0.11144857 -0.17682318 -0.06581108 -0.041684207
0.04813796 -0.15813763 0.053412102 -0.17849147 0.10125763 -0.28095368 0.11002763 -0.29618222
0.22366972 0.3314992 0.024869408 -0.4875718 -0.14898548 -0.08880677 0.34721825 0.13648525
0.099093154 0.103438094 -0.036855865 0.081324376 -0.17177318 -0.29045618 0.012701556 -0.09482462
0.25737885 0.055932824 -0.044790618 0.0352859 -0.020354915 -0.2712907 -0.1272095 -0.20403548
0.20104153 0.1298399 0.04460179 -0.44015718 -0.020102382 0.521733 -0.020964606 0.017701413
0.42708832 0.028850738 -0.10614763 -0.06100548 0.014034116 -0.31612098 -0.15404956 0.06687956
-0.05254426 0.1816494 0.019869674 -0.21181823 0.13988028 -0.14105417 0.07738775 0.13524288
0.08378923 0.3051991 -0.16673346 -0.029893499 0.0846687 0.21115397 -0.03901513 -0.109843485
0.22604036 0.023702685 -0.07340428 0.21559775 0.022302628 -0.110907055 0.113945894 0.022733105
-0.20288298 0.18642586 0.08758571 0.018972052 0.034624863 0.18667518 -0.30573326 -0.37276152
-0.07244119 0.7002521 -0.03935176 -0.015366979 -0.010128682 -0.1536113 0.39373586 -0.26918647

lstm.weight_hh_l1 f4 [512, 128]
00000000: 20a2 be3e 10de a4be ca55 5d3d 5c4a af3e
00000010: 3430 9bbe e400 95bc 4ec0 a1be 7c37 acbd
00000020: cd52 13be 3fde 5d3e e6c2 083c 03f1 3d3e
00000030: 8ef2 1bbe 8bbf 9f3e 58e0 3cbd 81d5 c43e
00000040: 1a46 d1be 93d5 083e 416e 383d c232 20bd
00000050: c2ca 4a3e fb5c 87be a59b 743e 51e8 cc3d
00000060: edd4 2bbd f758 91bd 60b9 27be 38ca 2c3e
00000070: bfa9 613d 5719 89bc 4489 d2bd 7b38 363d
00000080: 6eb6 03bd 2793 183e 44c6 9d3d 2351 2c3e
00000090: f471 c53a 119d fd3d 7796 bfbe 124a 0f3f
000000a0: 4369 2c3e 6df8 743e 3b5f 93be b644 97be
000000b0: 962a 4b3e 3008 793e 71ab 0c3e 9947 4abe
000000c0: 6ceb 6dbe 9467 82bd 065d fd3d 4c44 9abd
000000d0: 6ebb cb3d fd75 343e f167 93be f435 1dbe
000000e0: e254 033f 4333 99be b157 f03d 4e40 8ebe
000000f0: cf23 0ebf ba88 60bd 5445 7ebe e6b4 88be
00000100: dd65 5a3e 22d6 c8be cee4 ae3c ba1f cabe
00000110: a9e2 98be 92c2 813e 9a87 42be 5e35 08be
00000120: db99 6c3e 6f23 87be 41de 0abe 568b 4bbe
00000130: 722a 46be 2b86 14be cbe9 e3be ad0d 403e
00000140: e713 c23d 816e aebe 5a71 4ebe 2209 d23e
00000150: 6e63 393e 2016 063b 0601 153c 44ce 97be
00000160: c363 2f3e ea59 283e 8c32 89bd 973b b4be
00000170: c51a c4be 8740 7b3e 6dea 95bd 3053 cfbe
00000180: 9374 cb3e d043 1a3e b4cf 043e a9e6 ea3e
00000190: 36ee 6cbd e4f0 a43e 9011 89be e67c 903e
000001a0: b3b4 143e 6ee6 383d 4f13 a43c ad5b 1cbe
000001b0: 5025 663e 853b 98bd 10e1 22bd 9897 d9bc
000001c0: 82e5 793c 7504 403e 3df7 10be 810e 433e
000001d0: aa5f eabd f51c 433e 4d66 6dbd 2097 38be
000001e0: 8340 d43c 026f a83d 2041 92bd 50c4 963e
000001f0: ae96 8fbe f79d 473d c850 b63e 7d84 6c3e
00000200: 7620 f6be 74dc 3abe 19aa 5c3e 3a38 ed3d
00000210: 44f9 0dbe 49ed 8d3d 8666 44be 85fd 2bbe
00000220: 84b1 c93c b2d9 3c3e 9e6b 073e fbd7 62bc
00000230: 8c68 41bd 75d0 783e cd4c 123d 5efa 513e
00000240: e96e 13be 9732 683d c327 553c 32a5 18ba
00000250: ec7c 8dbe e548 083e 9880 483c 184c e0bc
00000260: 9a7d 0fbe c484 a8bc 704e e53d 2829 aebc
00000270: 613e 54bc 4401 803d 629d 073d 1023 203d
00000280: 1485 e7bd fba8 cebd f97c c6bd 1d18 a33d
00000290: 8dec f33c 9a40 0b3d 0da0 d53b dbad a0be
000002a0: a7ba 573d 2341 e33e d010 d43d 7a19 393d
000002b0: bf67 f2bc 93bc b93e a013 03be 3f60 c0bc
000002c0: 2225 073e b2fb d83c 8f64 10be 1132 a6bd
000002d0: ffaf 893e 6cc8 0b3e 2ff1 723e baf3 51be
000002e0: c889 09bd 45cd f5bd ea60 b6be 7481 a4bd
000002f0: 4a2b 4ebe 4046 8e3c 6203 013e 9425 bd3c
00000300: aa7d 7d3e 99eb b03d ffab e8bd 15d4 7bbe
00000310: d341 593e 6e58 df3c cbad 26be a08e adbe
00000320: 4147 823e f6d9 903e a64c 92bd 57e3 18be
00000330: cf67 a7bc 3df3 82bd a194 233e ae88 4d3e
00000340: f7a2 20be c017 15bb 0854 74be a33d 403c
00000350: 24db 153e ba3d 08bd 3ef2 2e3b 94df 76be
00000360: f5fe 87be 349c b53d a9bf bfbe 10ed 81be
00000370: c9af 5dbe 9d42 4a3e 06e7 413e a5cb 02be
00000380: a466 f63d ae54 033e a932 bfbd a8c9 313e
00000390: ba87 07be 4c45 213e 379d 943d cc0e 303c
000003a0: 0161 b83d 281e cf3e b5b4 ce3d fd7a 0abe
000003b0: df0b 653e 4a16 493c 4b34 943d e78c 5fbd
000003c0: c930 e63d 1430 9abe 48d0 7e3d c33c 323e
000003d0: 77fa 39be e51f efbc 9f17 93bc 7f32 58be
000003e0: 397b cd3d aa1e ef3e 4605 a4bd 9095 123e
000003f0: 7098 40be e499 24bf a358 073e 4c0b a6be
0.37233067 -0.3220067 0.054036893 0.3423642 -0.30310214 -0.018188901 -0.3159203 -0.0840902
-0.14387055 0.21666811 0.008347249 0.1854897 -0.15229246 0.31200823 -0.04611239 0.3844414
-0.40873796 0.13362722 0.04502702 -0.039110906 0.19803908 -0.26438126 0.23887499 0.10005248
-0.04195111 -0.07097047 -0.16379309 0.16874015 0.055093523 -0.016735716 -0.102800876 0.044487458
-0.0321564 0.14899884 0.07703832 0.16827826 0.0015063868 0.12383474 -0.37419483 0.559724
0.16837029 0.23922892 -0.28783593 -0.2954461 0.19840464 0.2431953 0.13737275 -0.19753875
-0.23234338 -0.06367412 0.123712584 -0.07532558 0.09947859 0.17623134 -0.28790238 -0.15352613
0.51301396 -0.29921922 0.11735476 -0.27783436 -0.5552339 -0.054817893 -0.24831134 -0.26700515
0.2132792 -0.3922587 0.021349337 -0.3947733 -0.29860428 0.25343758 -0.1899704 -0.13301608
0.23105566 -0.2639422 -0.13561346 -0.19877371 -0.19352129 -0.14504306 -0.44514307 0.18755217
0.09476452 -0.34068683 -0.20160428 0.41022593 0.18104336 0.0020459965 0.009094482 -0.29649556
0.171279 0.1644055 -0.06699094 -0.35201713 -0.38301674 0.24536334 -0.07320104 -0.40493155
0.39737377 0.15064931 0.12969857 0.45879105 -0.057844363 0.32215035 -0.26771212 0.2822029
0.14522056 0.04514163 0.020028738 -0.15269347 0.22475171 -0.074332274 -0.039765418 -0.026561543
0.015252473 0.187517 -0.14156814 0.19048502 -0.11444028 0.19054015 -0.05795889 -0.180264
0.025909668 0.08224298 -0.07141328 0.2944665 -0.28044647 0.04873463 0.35608506 0.23097415
-0.4807164 -0.18248159 0.21549262 0.1158299 -0.13864619 0.06930024 -0.19179735 -0.16795929
0.024620779 0.18442419 0.13224646 -0.013845439 -0.047218844 0.2429827 0.035717774 0.20505664
-0.14397778 0.05668887 0.013009968 -0.0005822956 -0.2763437 0.13309057 0.01223769 -0.027380034
-0.14012757 -0.02057112 0.111966014 -0.02125986 -0.012954325 0.062502414 0.033109076 0.03909594
-0.113046795 -0.10090824 -0.096918054 0.079635836 0.029775882 0.033997156 0.0065193237 -0.3138264
0.05266824 0.44385633 0.10354769 0.045190312 -0.029590486 0.36276683 -0.12800455 -0.023483394
0.13197759 0.026487205 -0.1410086 -0.08115018 0.26892087 0.13650674 0.23724817 -0.2050313
-0.033578664 -0.12002043 -0.35620815 -0.08032504 -0.20133701 0.017367482 0.12598947 0.023089208
0.24754968 0.08638687 -0.11360931 -0.24592622 0.21216516 0.027263846 -0.16277234 -0.33897877
0.25444987 0.2829129 -0.07143526 -0.14930473 -0.020435242 -0.0639405 0.15974666 0.2007167
-0.15687166 -0.0022749752 -0.2386018 0.011733445 0.14634377 -0.033261992 0.002669468 -0.24108726
-0.26561704 0.08867684 -0.37450913 -0.25376177 -0.21649088 0.19751973 0.18935785 -0.12772997
0.12031296 0.12825271 -0.093358345 0.17362082 -0.1323537 0.15749091 0.07256549 0.010745715
0.09002877 0.40452695 0.10093061 -0.13523479 0.2236781 0.0122733805 0.072365366 -0.054577734
0.11239774 -0.30114806 0.06221035 0.17405991 -0.18161951 -0.029190013 -0.0179556 -0.21113013
0.100332685 0.46703082 -0.08008818 0.14314866 -0.1880815 -0.6429732 0.13217406 -0.32430494

lstm.bias_ih_l1 f4 [512]
00000000: 1fd3 5bbc 6a2b dbbd 326a 8bbd d667 f6bd
00000010: ca9a 1d3c e0c9 083e 1ae9 36be e14e 71be
00000020: 31ed b8bd ea7a 433e 9b4f aebd 9372 273e
00000030: 0c13 70be d525 eabd 4390 71bc ea8c e6bd
00000040: 76bd 40be fa11 97bd 6d6e e7bc f332 48bd
00000050: ef0a 91bd a202 00be c340 fcbd ec35 ff3c
00000060: 1542 6bbc 3051 65be 0410 1f3f fd8e b33d
00000070: cabe 0dbd b4be 903d 6d31 c13d 076d d6be
00000080: a314 c03c c27a 10bd 8845 f2bd ea8d 353e
00000090: 7b9e 7f3c 323b c2bd b9b5 09bd 8787 493e
000000a0: 9019 8e3c 0223 5a3e afe2 1dbd 024f 83bd
000000b0: c756 1abe fdb5 23be a1e6 e5bd 3719 0e3f
000000c0: d426 11bd b533 20be 8083 d6bd 3da6 103d
000000d0: 55e1 edbd 5e04 b03c 7c0b 3cbd 837f 5a3d
000000e0: 3851 71be 6d32 ddbb 92f9 e43d cf3b 8bbd
000000f0: ca9d 333e ce92 0ebe a19c 0abd 8bf8 b4bc
00000100: a308 8ebe 8738 4bbd 3035 3d3b 5e05 17bc
00000110: aab6 e4bb 93e3 7cbd 2e47 443d 9ab6 f03d
00000120: 17f7 593d 322d 84be aa44 0dbd 7760 b9bd
00000130: abc4 eabb bee5 b83d 770c c43c 9d56 16bb
00000140: 0a69 73bd 9cca c1bd ed98 e13d d18f a93d
00000150: 9ae2 a4bc 55c3 00be ca17 f3bd d824 c7bc
00000160: 25e8 1c3e 24a1 74bd 6002 6a3e 253e cabd
00000170: 3d6d 1bbe 15ae 1d3e d93a f9bd 7cd5 3abd
00000180: ee86 9ebd 4350 9d3c c56e 98be 4b68 bbbd
00000190: d8a5 abbd d7a9 f7bb 0cb5 693d c10d 6bbe
000001a0: 07e9 12be a4b0 e63c 3b16 133f 2f22 be3c
000001b0: 3519 32be 9338 20be 001a ddbd 62b4 0c3e
000001c0: 758b 7b3d 32c7 1abe 7a95 41bd 6014 893d
000001d0: 7f97 253d 57c2 00be 8e30 2bbd 7c08 a63d
000001e0: abee d7bd ecba c9bd 52a8 3c3e a28a 2a3e
000001f0: cd04 8f3b b42e 7cbd e7bb a03b 0e08 493f
00000200: 7170 ed3d a7be 983c 1807 693d 982d 9abd
00000210: c136 143e ec51 433d fbf9 123e ab98 72be
00000220: 9dba 533d 27d9 fc3c 6a5e 62be 6305 573e
00000230: 2642 99bd 56a0 423e afb1 81be ade4 633e
00000240: 6c15 b33d 7e37 463e 09ea b13d c58c dcbd
00000250: 96e0 d0bd 9679 7abd c8dc 43bc 5805 a9bd
00000260: 0f28 f8bd d6a7 74bd ad06 8c3e 8090 933d
00000270: d9a6 33bd 4c18 2fbd 6841 a9bd 9a79 9bbc
00000280: 3817 103d e8ff dabd 648f d13c 5ad4 8cbe
00000290: bdd8 a43d 95c9 e9bd 1534 90bb 22ad 83bd
000002a0: 3a52 9c3b bebd 203e 4dda 02bd 9b0c 263d
000002b0: ba30 2abe 40b6 dcbd 8c5c 79bd 84e6 9c3e
000002c0: 880b 8ebe 36ab b73d 4eb2 21bc 19bc f1bd
000002d0: 0ef9 a73d 74a7 18bd b390 75be efc7 abbd
000002e0: b25c 27be 4c47 233e b7e3 66bd 1a81 2c3e
000002f0: c0c8 ef3c 2082 6bbc 73ce b0bd 37d8 71be
00000300: 9c5d b4bc e2ea b83d e0c0 12bd 826c 3f3e
00000310: b149 2bbe 5ada 0ebd fa22 1c3d 1c4c e4bd
00000320: c414 e93d e47b 25bd bd48 24bd 10c3 e8bc
00000330: 52f5 8f3d d25d ec3d eb38 233e 02e1 243d
00000340: d78d 94bd da9d 3bbe ee19 2e3e ee26 a2be
00000350: fd1e d2bd dc73 24be dc61 013d 76bb b73d
00000360: f389 aabe 5304 cf3d ef54 bcbd 35b1 a2bb
00000370: cc2e 7e3e b98f 25be 68dc eebd da62 afbd
00000380: 74d9 83bd 21cc 7bbd 5b20 1dbe b0f8 423d
00000390: 84e8 15be 490b d53d 24a8 243e a7d3 08be
000003a0: 03c6 9dbd 6dd4 0c3d e0a8 ad3e de11 e33d
000003b0: 7b6e f9bd a322 f6bb 121f 18bd 749c b4bd
000003c0: 0650 863c 4ac4 a43d 5b9c cfbd 13b1 27be
000003d0: 48f7 f23d 217f 0cbe f0d8 0abd e877 413d
000003e0: cf53 ec3d 0749 84bd c289 b8bd 76b8 1b3e
000003f0: f704 b43c 0c6c c1bd f705 263d 6ae4 c03e
-0.013417034 -0.1070164 -0.068073645 -0.12031524 0.009619424 0.13358259 -0.17862359 -0.23565246
-0.09029616 0.19089857 -0.08511277 0.163523 -0.23444766 -0.11432997 -0.014743867 -0.11257346
-0.18822274 -0.07376476 -0.028250897 -0.048876714 -0.070821635 -0.12501004 -0.1231704 0.031153642
-0.014359017 -0.22394252 0.6213381 0.08767507 -0.03460578 0.07067624 0.09433255 -0.41880056
0.02344734 -0.03527332 -0.11829668 0.17729917 0.0156017495 -0.09483947 -0.03362057 0.19680606
0.017346174 0.21302417 -0.03854626 -0.06411554 -0.15072165 -0.15987392 -0.112256296 0.55507225
-0.03543742 -0.15644725 -0.104743004 0.035314787 -0.11615244 0.021486457 -0.04590939 0.05334426
-0.23566139 -0.006750396 0.11180414 -0.06798517 0.1754066 -0.13923189 -0.03384078 -0.02209117
-0.27740964 -0.049614456 0.0028870814 -0.009217588 -0.006979783 -0.06174047 0.047919445 0.117535785
0.05321416 -0.2581573 -0.03448931 -0.09051602 -0.007164558 0.09028195 0.023931725 -0.002293981
-0.059426345 -0.09462473 0.110154964 0.08279384 -0.020127583 -0.12574513 -0.11869772 -0.02430956
0.15322931 -0.05972399 0.22852468 -0.098751344 -0.1517839 0.15398438 -0.121694274 -0.04561375
-0.077405795 0.01920331 -0.2977201 -0.09150752 -0.083812416 -0.0075580883 0.057057425 -0.22954465
-0.14346705 0.0281604 0.57455796 0.02320966 -0.17392428 -0.15646581 -0.10795975 0.13740686
0.061412293 -0.1511505 -0.047261693 0.06693339 0.04042768 -0.12574135 -0.041794352 0.08107087
-0.10543569 -0.09850106 0.18423584 0.16654447 0.004364586 -0.061567977 0.004905212 0.78527915
0.11593712 0.018645598 0.05689153 -0.075282276 0.14474012 0.04768555 0.14353172 -0.2369105
0.05169164 0.030865265 -0.22106329 0.20998149 -0.0748332 0.19006476 -0.25330874 0.22255202
0.0874432 0.19357106 0.08687217 -0.10769037 -0.10199086 -0.06115111 -0.011954494 -0.08252972
-0.121170156 -0.059730373 0.27348843 0.072052956 -0.04386029 -0.04274778 -0.082644284 -0.018978883
0.035178393 -0.106933415 0.02558107 -0.2750576 0.08049152 -0.11415402 -0.00440074 -0.06429507
0.0047705444 0.15697381 -0.03194647 0.040539365 -0.1662015 -0.10776949 -0.060879275 0.3064462
-0.27743173 0.08968203 -0.009869171 -0.11803455 0.082018 -0.03726907 -0.2398098 -0.08387744
-0.16343954 0.15945166 -0.05636951 0.16846123 0.02927053 -0.014374286 -0.08633127 -0.23617636
-0.022017293 0.09029175 -0.03582847 0.18693736 -0.1672733 -0.034876205 0.038119294 -0.11147329
0.11380914 -0.040401354 -0.04010843 -0.028413326 0.07029213 0.11541332 0.15939681 0.040253647
-0.07253616 -0.18321934 0.17002079 -0.31670326 -0.10259817 -0.16059822 0.031587467 0.08971302
-0.33308372 0.10108247 -0.09195887 -0.0049649724 0.24822539 -0.16168107 -0.11663133 -0.08563776
-0.0643796 -0.06147397 -0.15344374 0.047600448 -0.14639479 0.10402543 0.16079766 -0.13361989
-0.07703783 0.034382273 0.33917904 0.11087392 -0.121792756 -0.0075114532 -0.037139006 -0.088189036
0.01639558 0.08045252 -0.10137244 -0.16376142 0.118635714 -0.13720371 -0.033898294 0.047233492
0.11539423 -0.06459241 -0.0901065 0.15207085 0.021975024 -0.094444364 0.040533032 0.37674266
