models/GeneratedData/tij_InVS/state_dict.pt (torch_old, 508102 bytes, 10 tensors)

embedding.weight f4 [93, 10]
000000 09 1e 83 be 2b 93 87 3f cd 91 a7 bf 4f cd b7 bf
       -0.25608853 1.0591787 -1.309137 -1.435953
000010 73 1e 4f bf 29 10 1f bf de a6 94 3e 5b ca 81 bf
       -0.80905837 -0.62134033 0.2903356 -1.0139879
000020 57 45 93 be 17 5f 78 3e d4 a7 3e 3f 3e 44 a1 3f
       -0.2876384 0.24255024 0.74474835 1.2598951
000030 80 b7 86 3f fe cd 48 bf 32 00 32 c0 3b 22 16 be
       1.052475 -0.7843932 -2.781262 -0.14661495
000040 2e 20 17 40 2d 01 de be 8f 41 2d 3e ee 0d ec bf
       2.361339 -0.43360272 0.1691954 -1.8441751
000050 88 9a 13 bf a7 67 81 3f 3a 7c 5b 3c a5 f3 bc 3f
       -0.5765767 1.0109757 0.013396317 1.4761854
000060 95 7d e0 bd 25 90 ed bd 8b 68 2a c0 4b 0f 1f be
       -0.10961453 -0.11599759 -2.6626308 -0.15533178
000070 cc 8a b5 3f c4 1e cc 3f 11 1c 45 3f bc db 60 3f
       1.4182982 1.5946889 0.7699595 0.8783529
000080 13 55 72 3e c9 f9 c9 bf 6b 6a da be cd 65 a7 3d
       0.23665266 -1.5779353 -0.42659315 0.08173714
000090 03 32 87 3f 1e c4 07 be 73 34 e4 bd 45 f0 de 3e
       1.0562137 -0.13258407 -0.111428164 0.43542686
0000a0 46 20 75 3f 8c 89 92 bd fa 67 f3 3e cb 55 03 bf
       0.9575237 -0.07155141 0.47540265 -0.51302785
0000b0 1f 19 a6 bf 2f 71 8f 3e 6c ec 2a 3e 9b 08 9d 3e
       -1.2976416 0.2801604 0.1669175 0.30670628
0000c0 c9 de f6 3d 94 e9 9a bf d2 37 76 bf b4 f4 8a bf
       0.12054212 -1.2102532 -0.96178925 -1.0855927
0000d0 ca 52 5e 3e 39 93 98 be 4d 04 aa 3f 6f 65 f7 3e
       0.21711269 -0.29799822 1.3282562 0.48319575
0000e0 34 24 35 3f 4a 9d 07 40 6a f2 43 bf 98 2b 07 40
       0.70758367 2.1189752 -0.7654177 2.1120358
0000f0 fd 2d d5 3f fe fa 29 3e 81 41 2a c0 91 6a 1b bf
       1.665466 0.16599652 -2.660248 -0.6070948
000100 7c f0 bd 3d dc 6c 30 bf 70 d1 27 3f 21 84 e9 3f
       0.092743844 -0.68916106 0.6555395 1.8243448
000110 49 d0 43 be 2e b5 71 3f 66 fd ed bd aa d9 29 bf
       -0.19122423 0.94417083 -0.116205975 -0.66347754
000120 1d be b6 bf 39 dd 9c bd 07 99 c0 3f 90 0b aa 3f
       -1.4276768 -0.076593824 1.50467 1.3284779
000130 85 57 e6 bf 69 00 80 bf ca e3 c5 bf cc d3 ef 3e
       -1.7995459 -1.0000125 -1.5460141 0.46841276
000140 06 71 00 40 44 f9 1a bf d7 e4 a8 3d 49 ba 27 3e
       2.0068984 -0.605366 0.08246773 0.16379656
000150 db c2 53 3f e7 cf fe 3f 7e 77 3e 3f a1 9c 97 bf
       0.827192 1.9907197 0.7440108 -1.1844674
000160 fa 7d 74 bf 54 80 de be 72 c1 39 40 b0 67 d8 3f
       -0.95504725 -0.43457282 2.902432 1.6906643
000170 33 99 20 3f c8 77 7e bf 7f de 19 3e 0a 23 9e bd
       0.62733763 -0.9940152 0.15026282 -0.07721527
000180 a5 5e ed 3c 1c bc a4 bf 6e 76 79 bf 99 1a e3 3f
       0.028975794 -1.2869906 -0.97446334 1.7742492
000190 42 90 8d 3e 9c 39 61 3f bb 47 a6 3f 99 c2 a0 bf
       0.27649122 0.8797853 1.299064 -1.2559386
0001a0 05 15 dd 3f 7c 6e a6 bf 2d 89 40 bf 72 a3 54 3f
       1.727204 -1.3002467 -0.75209314 0.830619
0001b0 3f 58 2f bd 06 62 77 be 57 5d f5 be ab 3e 5f bf
       -0.042808767 -0.24158487 -0.47922775 -0.87205
0001c0 d3 0d e0 bf 5a eb 34 3f d0 8f 45 bf 68 bc 3f bc
       -1.7504219 0.7067162 -0.77172565 -0.011702634
0001d0 ac ef 4b bf 8c 37 4e bf b4 fd 09 bf 59 15 47 bf
       -0.79662585 -0.8055351 -0.53902745 -0.7776695
0001e0 33 1a fb bf ce 0c 4c bf 70 86 97 3d 5e 73 fb bf
       -1.961737 -0.7970704 0.07398689 -1.9644582
0001f0 37 38 be bf 92 1f d5 bf 18 0b e5 3f fe 83 9e 3f
       -1.4860905 -1.665026 1.789401 1.2384031
000200 8b dc b0 3e fb b1 10 3f 34 00 07 40 b2 55 89 40
       0.3454326 0.56521577 2.1093874 4.291711
000210 89 49 2f bf 31 e6 9c bf 7c 98 b7 be 9f c8 ce 3e
       -0.6847158 -1.2257749 -0.35858524 0.40387437
000220 a3 a9 28 3e 45 26 08 bf 1d a1 46 bf 68 77 c9 3d
       0.16470961 -0.53183395 -0.7758959 0.09837228
000230 6f fc b5 3f cd 71 c8 bc 5f d3 f7 3f fd 35 c6 be
       1.4217662 -0.024468327 1.936138 -0.38713065
000240 ee fd 89 bf 35 df eb be 81 72 e3 3d f0 b8 fd bf
       -1.0780618 -0.4606873 0.11105824 -1.9822063
000250 54 c0 72 be ae a7 8c 3f 2a da 9d bf 38 63 3c 3f
       -0.2370618 1.0988672 -1.2332203 0.73588896
000260 5f 99 20 40 40 c2 12 c0 76 6c d0 bf a6 73 f7 be
       2.509361 -2.293106 -1.62831 -0.4833042
000270 c8 f2 70 bf 80 0f 14 3f cd 99 ec 3d d5 82 06 bf
       -0.94120455 0.5783615 0.11552773 -0.52543384
000280 a9 9b e0 3f 07 bd 0f be d8 d2 20 c0 cb b8 04 bf
       1.7547504 -0.14036952 -2.512869 -0.5184447
000290 a3 bd da 3e f9 7b c0 3d 25 9c 10 bf a9 52 83 bf
       0.42722806 0.09398646 -0.5648826 -1.0259601
0002a0 50 88 d3 3f ef fb 29 bf b2 e0 1d bf ab fd a0 bf
       1.6525974 -0.66400045 -0.6167098 -1.2577413
0002b0 4f ee 84 bf bc 2d a0 bf f9 08 5e bf 0f de f1 3f
       -1.0385226 -1.2513957 -0.8673244 1.8895892
0002c0 ab b1 56 3f 87 db c9 3f df 7e 5b bd ba f5 18 40
       0.8386485 1.577012 -0.05358779 2.389998
0002d0 77 6d 36 bd 87 a3 62 3e f7 86 7f 3e b6 71 0d c0
       -0.044537988 0.22132693 0.24953829 -2.2100654
0002e0 d3 fb 92 3f eb a4 1c 40 b2 e8 b3 3e 9c 7b c0 3d
       1.1483101 2.4475658 0.3513847 0.093985766
0002f0 4d e5 b3 3f ea 74 a9 bf c6 a6 e8 3f 8d 35 33 bf
       1.4054352 -1.3238804 1.8175895 -0.70003587
000300 c0 b6 36 3f 04 a5 bc bf bb 5c e0 bf 8c f1 f5 be
       0.71372604 -1.4737859 -1.7528299 -0.48035848
000310 ae e1 9e 3f 43 f4 84 3e 4a 94 20 3f 70 3f e3 bf
       1.2412622 0.25967607 0.6272627 -1.7753735
000320 79 23 44 bf 86 ff 9f 3d 07 27 51 3f 4a 6e b4 bf
       -0.76616627 0.07812409 0.81700176 -1.4096158
000330 2a 6f 1c be b0 27 25 bf 66 a9 ef 3e 02 e4 27 bf
       -0.1527678 -0.64513683 0.46808928 -0.6558229
000340 f4 e0 c8 3f cb f3 62 be 00 97 00 3e 70 d9 e1 bf
       1.569365 -0.22163312 0.12557602 -1.7644482
000350 a7 72 80 bf af 53 2a bf 39 8e 7e bf 3e 5a 50 be
       -1.0034989 -0.6653394 -0.99435765 -0.20346925
000360 28 0c 27 3f 8d 29 bf bf f3 c7 b2 3e 59 0d a3 3f
       0.65252924 -1.4934555 0.34918174 1.2738448
000370 e3 67 9c be 29 df b7 bf b8 51 0d 3f b7 13 95 be
       -0.3054801 -1.4364978 0.5520282 -0.29116604
000380 04 07 f1 3e ee e9 5d 3f 5a 17 89 bf 7d b8 74 3f
       0.47075665 0.86685073 -1.0710251 0.95594007
000390 a3 a9 da 3f f9 29 12 c0 91 24 02 3f f6 3d 86 c0
       1.7083019 -2.2838118 0.50837046 -4.1950636
0003a0 28 4b c7 3f 43 a9 3d be da 21 99 3f 6c 27 46 be
       1.5569811 -0.185216 1.1963456 -0.19350976
0003b0 a1 e6 87 be 0f e0 90 bf fe 88 ae 3f 98 33 46 3f
       -0.26543143 -1.1318377 1.3635557 0.77422476
0003c0 a7 5f 72 bf 42 41 a1 3f 20 4a ea bd 4d 58 8c 3f
       -0.94677204 1.259804 -0.114399195 1.0964447
0003d0 b2 15 76 3f a0 0c 63 c0 00 18 5a be 78 9d 60 bf
       0.96126854 -3.5476456 -0.21298218 -0.8774028
0003e0 69 31 da be 1b 07 4d 3f 14 1a 05 bf 36 22 b9 3f
       -0.42615822 0.8008897 -0.5199292 1.4463565
0003f0 56 ea d7 be 46 26 c8 bf 78 d2 63 3f 25 4b 0d 3f
       -0.42170972 -1.563668 0.88993025 0.55192786

lstm.weight_ih_l0 f4 [400, 10]
000000 fb 9a f5 3c 56 f0 ff bd a2 56 b9 3d 87 a2 f9 bc
       0.029981127 -0.12497012 0.09049727 -0.030473007
000010 af 82 99 3d d0 1e 54 3d f9 46 a7 be d1 a2 8b 3e
       0.07495629 0.051787198 -0.32671335 0.27272657
000020 42 87 4b bd d8 b2 ef be 04 7f b3 bc b2 5b 39 3d
       -0.04968954 -0.46816134 -0.021911152 0.045253463
000030 ad e3 28 3d 32 4a b1 3e 44 bd b4 be cf 9c b1 bb
       0.041232754 0.3462692 -0.35300648 -0.0054203044
000040 45 bd 9a 3e ec 99 d7 3e b4 17 db bc 3f 25 24 3d
       0.30222526 0.4210962 -0.026744701 0.040074583
000050 a9 e8 10 3d 30 a6 4c 3e 23 4d 2a 3e 76 5f d6 3d
       0.035378132 0.1998527 0.16630988 0.104674265
000060 0a 17 e5 3d 2d c2 fc 3e 59 70 82 be 97 1e c0 3d
       0.11186035 0.49366894 -0.2547634 0.093808345
000070 d4 70 79 3d 71 07 16 be 09 bc 97 3e 3f 7b df 3c
       0.060898617 -0.14651276 0.29635647 0.027280448
000080 4d 0a 5f 3e 0d fb 82 be d6 85 2c 3d c2 31 cf 3e
       0.21781273 -0.25582162 0.042119823 0.4046765
000090 45 41 2d 3e 7e 2b 7a be 51 87 ab 3e 6c 9d c7 bc
       0.1691943 -0.24430653 0.33501676 -0.024367057
0000a0 a1 85 fc be 34 5b 50 3e 8a b2 9f 3e e3 66 bc be
       -0.493207 0.20347291 0.31190902 -0.36797246
0000b0 78 b9 f8 3e 61 58 61 3f 26 ff 22 3e f6 6b 4e be
       0.48579 0.8802548 0.15917644 -0.20158371
0000c0 31 4d b8 3b ff 8d d2 3d e3 f1 22 bf be c0 86 3e
       0.0056244363 0.1028099 -0.6365034 0.26318926
0000d0 fa 7e 27 be 09 92 20 3f 83 dc e4 bd 40 70 71 3d
       -0.16357031 0.6272283 -0.11174872 0.05894494
0000e0 53 f3 90 3e 6e 68 bd bd 74 93 31 3e 38 60 82 be
       0.28310642 -0.09248434 0.17341405 -0.25464034
0000f0 b8 4b 82 3e f4 e1 a3 bc c2 6e 57 3f a8 fe d9 bb
       0.25448394 -0.020005204 0.8415338 -0.006652672
000100 c7 36 13 3e 6e f6 5f be 83 03 b0 be 82 22 d1 3e
       0.14376365 -0.21871349 -0.3437768 0.4084664
000110 19 97 88 3e fb 66 c3 3d 05 5f 3e 3e b2 a4 8e be
       0.26677778 0.09541126 0.18590935 -0.27860028
000120 1d 46 0e 3d 81 77 30 3e f4 30 91 3c 2b 42 cb 3e
       0.034734834 0.17233087 0.017723538 0.3969892
000130 40 16 41 3e 60 6d bb bb 33 fa 2f be 8c 16 93 3e
       0.18856144 -0.0057198256 -0.17185287 0.2872814
000140 45 bc 76 bd 05 8e 50 3e 6f ee 12 3e 54 e3 62 3e
       -0.06023814 0.20366676 0.14348768 0.22157031
000150 2f f0 db 3d 1d 22 a3 bd 7b 38 c9 be 46 e1 9a bc
       0.10739171 -0.07965491 -0.39300904 -0.018906247
000160 d3 0f e5 3d c0 0e 6b be bf fb 8b be 4f ec ae bc
       0.11184659 -0.22954845 -0.27340505 -0.021352915
000170 c5 0a b1 be 26 fd cd be 04 a8 12 bf 47 72 f5 3d
       -0.3457853 -0.402322 -0.5728762 0.11984687
000180 4f 76 40 bd 88 22 f9 3e ef 41 2a be f1 2d 14 3d
       -0.046987828 0.48659158 -0.16626714 0.036176626
000190 32 d3 be 3d d8 dc 4b bc f9 81 55 3e 85 71 f0 3e
       0.09317626 -0.01244279 0.20850362 0.4696161
0001a0 02 48 0a 3d 1e 61 92 be b0 f8 93 3e 39 0d 21 3e
       0.03376008 -0.2858972 0.2890067 0.157277
0001b0 b5 ae ee 3d ee f3 aa be c2 c5 18 3e 78 eb ad 3e
       0.116544165 -0.3338923 0.14919189 0.3396871
0001c0 c9 40 68 3e 3b 31 3e be 5b c0 16 bf 1f 0c 58 3e
       0.22680964 -0.18573467 -0.5888726 0.21098374
0001d0 43 2a 94 3d e6 54 8d be 51 6e 81 3f aa b9 4a be
       0.07234623 -0.27603835 1.0111791 -0.19797388
0001e0 df e9 27 be 98 5b 60 3e b1 e1 2f 3f 56 5e d8 3d
       -0.16397808 0.2190994 0.6870375 0.10564868
0001f0 72 a8 67 be 4f 7c b0 3e 31 72 f2 3e 84 33 13 be
       -0.2262285 0.3446984 0.47352746 -0.1437512
000200 20 51 59 3e 66 5d c2 be 7c 15 82 be 80 62 af be
       0.21222353 -0.37961882 -0.25407016 -0.34254837
000210 8c e7 1d 3e f4 ce 5a be 1f 9e b2 be b8 4d 23 be
       0.1542036 -0.21368009 -0.34886262 -0.15947616
000220 49 8f c6 be b1 53 9f 3d a3 96 a5 3c 41 fe d5 3e
       -0.38781193 0.07779635 0.02021343 0.41795543
000230 95 80 34 be 45 e5 e9 be 26 ac e1 3e 78 fb 3c be
       -0.17627175 -0.4568273 0.4407665 -0.18455303
000240 cc c6 ec 3e b6 cf 9b 3e 45 39 63 3e 7b 11 20 3e
       0.4624542 0.30431908 0.22189815 0.15631668
000250 18 97 4a 3e cc 51 b4 3e c2 33 2d 3d 64 e3 14 3e
       0.197842 0.35218656 0.04228569 0.14539868
000260 53 69 41 be cd 2e a3 3e 83 55 99 3e 24 83 ca be
       -0.18887834 0.31871644 0.29948053 -0.39553177
000270 19 f7 91 bd 8e 81 86 3e e0 5e 63 bf 27 99 09 be
       -0.07127208 0.26270717 -0.8881664 -0.13437329
000280 8e a0 06 be 59 9b d0 3d 2f 03 e0 3c 4d d3 b4 bd
       -0.13147184 0.1018588 0.027345268 -0.08829365
000290 6e ac 0c be 69 50 97 bd 8a 48 a4 bd 20 5e 29 3e
       -0.13737652 -0.07388384 -0.08021648 0.16539812
0002a0 43 06 11 3e 17 fc 36 3d cf 92 82 3e 0a ce 8e 3e
       0.14162545 0.044674005 0.2550263 0.2789157
0002b0 3e c3 02 3e 88 ef f7 3e 74 cd cb be 60 62 ea be
       0.12769791 0.48424935 -0.39805186 -0.4577818
0002c0 f2 95 ee bd be d2 c3 3e 22 4a 3e be c6 f4 17 3e
       -0.116496935 0.3824672 -0.18582967 0.14839467
0002d0 45 0d 00 bf c7 0c c0 be 5f ad 07 be f8 d4 f9 be
       -0.5002025 -0.37509748 -0.1324973 -0.48795295
0002e0 0d 71 8a bd 7a ef 6c 3e 3a 9c cd bd db 42 54 be
       -0.06759844 0.23138228 -0.100395635 -0.20728628
0002f0 cd c2 9c be 6b 3a b1 be 54 f5 cd 3e f1 33 0e 3e
       -0.3061737 -0.34614882 0.40226233 0.13887002
000300 14 e7 d5 bb 89 f4 6b 3e c6 87 32 3e 27 d0 b2 be
       -0.006527791 0.23042502 0.17434606 -0.34924433
000310 80 72 02 3f 44 14 d4 3b 07 2f 8c bc 07 a6 df 3c
       0.50955963 0.0064721424 -0.017112268 0.027300848
000320 8e aa 89 bb fa 10 db be f2 18 c0 3b ba be 42 3e
       -0.00420124 -0.4278639 0.0058623487 0.19018069
000330 7f 71 29 3e 50 e6 34 bf fb c7 24 bd f1 0a 27 be
       0.16547202 -0.7066393 -0.04022978 -0.16312768
000340 9d 54 eb 3d fb 83 41 3c 7a 52 76 3c c2 5e 71 be
       0.11490748 0.011811252 0.015034312 -0.23571303
000350 86 02 2e 3e 6a 54 0f 3d 05 91 76 bd 67 bc 94 3d
       0.1699315 0.034992613 -0.060196895 0.072624974
000360 c2 a6 d7 be bc 5e 0c be ff aa 67 bd 4b 29 15 be
       -0.42119414 -0.13708013 -0.05655956 -0.14566533
000370 62 da b8 3d 40 9d 99 3e 39 30 6b be a9 8d bf 3e
       0.09026028 0.30002785 -0.22967614 0.37412766
000380 0e c3 9d 3e 60 98 14 be 36 8e 56 3c 1f f4 82 3e
       0.30812877 -0.14511251 0.013095429 0.25576875
000390 9a 96 33 be ee 76 ba 3c 73 e1 b4 3e 37 08 ce 3e
       -0.17537919 0.022761788 0.35328254 0.40240642
0003a0 7f 59 e6 bd ac 20 2f be 05 ff 6a 3e b6 08 c5 3d
       -0.11247539 -0.17102307 0.22948845 0.09620802
0003b0 aa bd f2 3d 0f 45 37 3f 97 97 bd be a9 e7 f1 be
       0.11852582 0.7158975 -0.37029716 -0.47247055
0003c0 86 6a e1 3e 37 fa 4a bd ae 0e 32 be 21 ae 8d be
       0.44026583 -0.04955503 -0.17388412 -0.27671912
0003d0 7e 61 a3 3c 51 1b fb bd 24 9d 01 bf ef 54 c1 3d
       0.019943949 -0.122610696 -0.506304 0.09440028
0003e0 eb 3a 33 3e ee d5 da be a7 5e a0 3d 03 cd e9 be
       0.17502944 -0.4274134 0.078305535 -0.45664224
0003f0 d8 19 31 3c e1 ca 98 3d 34 4a e6 bd 15 81 f0 3c
       0.010809384 0.07460571 -0.11244622 0.029358426

lstm.weight_hh_l0 f4 [400, 100]
000000 d4 1e 68 3f a3 de 4b 3d c8 0d 63 3e c7 7a 71 be
       0.9067204 0.04977287 0.22173226 -0.23581992
000010 03 3e cc 3e 90 e4 6f be 6e f9 0f 3f 41 bc 12 3e
       0.3989106 -0.23427033 0.56239974 0.14329626
000020 f4 ae d6 3d 59 c1 61 3e b0 d2 f4 3d b2 6d 36 3f
       0.104825884 0.22046413 0.11954248 0.7126113
000030 3a e8 ca 3e 61 bf dd 3e dc f1 2b bc 8e ec 2c bf
       0.396303 0.43310073 -0.0104946755 -0.67548454
000040 01 5d 58 bd 5d ab 2b 3f f3 a2 37 3d b0 a2 b1 be
       -0.05282307 0.67058355 0.044833135 -0.34694433
000050 cf 9c 5b 3d 5a ac c3 be a0 50 48 be fa 1e b2 3e
       0.05361634 -0.3821743 -0.19562006 0.34789258
000060 62 70 23 3f 14 7f 3f be 52 cd 93 3d 84 39 31 3e
       0.6384336 -0.1870082 0.07216896 0.17307097
000070 e0 61 09 3e 95 3a 57 bd 3c b7 96 be e8 da e1 be
       0.13416243 -0.052546103 -0.29436672 -0.44112325
000080 42 50 b6 bd 16 46 b8 be a4 f0 d1 3d e1 ad b1 3e
       -0.08902027 -0.3599097 0.10250977 0.34702972
000090 2a 95 3a 3e ae 74 bf 3e 9e 25 47 3e 5c b3 1f 3e
       0.18220964 0.37393707 0.19447944 0.15595764
0000a0 51 c5 02 be 20 71 a3 3e a5 ff 90 be b3 77 a9 3e
       -0.12770583 0.31922245 -0.2832004 0.33099136
0000b0 8f 79 85 3d 6f 66 95 be c0 fc fd be f2 da 25 3e
       0.06517326 -0.29179713 -0.49606895 0.16196802
0000c0 db fe dc be 53 83 37 3f e1 6b 8d be b2 29 39 be
       -0.4316319 0.7168476 -0.27621368 -0.18082312
0000d0 2a fa 53 3f 95 27 0a bf df a2 8d 3e bc 31 3b 3f
       0.82803595 -0.5396665 0.27663323 0.73122764
0000e0 40 b8 5a 3e 00 b5 12 bf d2 7c 4e 3e 76 ea d3 3d
       0.21359348 -0.57307434 0.20164803 0.10347454
0000f0 09 a1 9a bd df 23 a8 3e 97 38 e3 3d eb 6b d5 3e
       -0.07550246 0.32839867 0.11094778 0.41683897
000100 b4 6a 1a be 53 6c 35 3f cd bd b2 3e cb 24 be 3b
       -0.15079767 0.70868415 0.34910432 0.005802726
000110 4b 15 1b 3e 6a 65 18 3e 03 10 2e be 97 22 63 3c
       0.15144841 0.14882436 -0.16998295 0.013863227
000120 9f 5d de 3e 85 3c 2c bf f6 c2 cd be b7 aa 13 3e
       0.43430802 -0.67279845 -0.40187806 0.14420591
000130 9d 39 a1 3e 9c 01 e4 3e 87 47 3e be 45 87 d5 be
       0.31489268 0.44532478 -0.18581973 -0.41704765
000140 9b 40 4e bc d1 b1 d4 3e fc d3 69 3f dd cb fa bd
       -0.012588645 0.41541913 0.9133909 -0.12245915
000150 a5 81 fb 3e b1 7f 0a 3e 85 e3 81 bf ca 9a 58 be
       0.49122348 0.13525273 -1.0147558 -0.21152797
000160 5a c6 32 3e 08 3b 35 3f a3 ff 42 3e c3 36 8a 3d
       0.17458478 0.707932 0.1904283 0.06748726
000170 6d 5e fb 3d 85 91 53 3e 1d 7a 7c be b3 96 09 be
       0.1227387 0.2066098 -0.24655958 -0.13436393
000180 cc 34 1f be 7e 98 8b 3e fb 4f 4c 3e d3 44 2f be
       -0.15547484 0.2726478 0.19952385 -0.17116098
000190 43 01 8f be 42 87 06 bc d4 66 5a 3f 43 f3 6d 3e
       -0.2793065 -0.008210959 0.85313153 0.23237328
0001a0 be 13 7c be 37 0c 20 be 21 fb 8a be 9a 73 98 3e
       -0.24616906 -0.1562966 -0.2714472 0.29775697
0001b0 49 c4 95 3b ec b2 4d 3d 79 2a b2 3d 4d fc 76 bd
       0.004570518 0.05021946 0.08699507 -0.060299207
0001c0 4b 51 18 3f 70 58 5e be c1 39 95 3e 5e 82 ef 3c
       0.59499043 -0.21713424 0.29145625 0.029236969
0001d0 99 e6 db bd bc ab 07 bd e6 46 a2 be 42 ce df 3e
       -0.107373424 -0.033122763 -0.31694716 0.4371205
0001e0 5d 91 62 be 0f b5 c6 3d ec 23 38 3e 4e fc 06 be
       -0.22125764 0.09702503 0.17982453 -0.13182184
0001f0 25 d0 21 3f 29 ea af be 4b d7 26 3d b2 90 01 3d
       0.6320823 -0.34358338 0.040732663 0.031632133
000200 57 69 39 be de 8d 92 3e 6e dd 5f bf 58 a6 c9 3d
       -0.1810659 0.2862386 -0.8744725 0.09846181
000210 91 40 aa bd 67 09 6d bd cb b0 be 3b fb 34 82 be
       -0.08313096 -0.057870295 0.005819415 -0.25431046
000220 c9 c8 09 be 6d 93 02 be 30 54 16 bf 1f e6 a9 be
       -0.134555 -0.12751551 -0.5872221 -0.3318338
000230 fc 05 58 3d e4 ef 04 3f 62 16 12 be f4 3b d9 3e
       0.052740082 0.51928544 -0.14266351 0.42428553
000240 a1 3b 67 3e 9a 36 be 3e 5f 4d 72 3e d7 15 04 3e
       0.2258134 0.37151033 0.23662327 0.12898956
000250 48 e1 a5 be 50 7b 16 3c c2 af 0e 3e 99 41 5b be
       -0.32398438 0.009184673 0.13934234 -0.21411742
000260 16 d7 7a bc 20 3d 88 be 33 8f ab be 63 04 8f 3e
       -0.01531007 -0.26609135 -0.3350769 0.27933034
000270 9b 5f 16 be d4 1a 29 bf 91 9e 08 be 0d 05 95 3c
       -0.14684908 -0.6605656 -0.13341738 0.018190885
000280 6f 74 a3 be 34 20 b6 3c 85 13 80 3e 0d 98 92 bd
       -0.3192477 0.022232153 0.25014892 -0.07157908
000290 90 b2 bc 3e 4e 0c fd be d7 89 8d 3e 01 45 54 bc
       0.36854982 -0.4942345 0.27644226 -0.012955905
0002a0 a8 4b 5b bd d1 55 4e 3e d2 46 9f 3e a0 be 60 be
       -0.05353895 0.20149924 0.3110872 -0.21947718
0002b0 43 47 1c 3e b2 ae 69 bd 1a 97 10 be 5e 95 89 be
       0.15261559 -0.057051368 -0.1412014 -0.2687177
0002c0 71 4b 32 3f c7 1d 25 3d 69 8e 99 be 06 52 88 bd
       0.69646364 0.0403116 -0.29991463 -0.0665627
0002d0 21 43 2c bc 70 b8 d3 3e 39 a0 b9 3c c1 4e 2a bf
       -0.010514052 0.41351652 0.022659408 -0.6652642
0002e0 c4 0f 07 3e 31 fb 00 3f 16 5e 15 bf 86 32 51 bd
       0.13189608 0.5038329 -0.5834669 -0.051073574
0002f0 38 7d 35 be 63 8b 5e be 0f df 3a be 16 14 36 be
       -0.17723548 -0.2173286 -0.18249153 -0.177811
000300 84 44 48 3e bc 7f f9 3e 8f 6f 40 3e 5b 41 c9 3b
       0.19557387 0.48730266 0.18792556 0.006141824
000310 3b 17 0f 3e 23 e6 c9 3e 22 01 2a 3e 9d 31 25 be
       0.13973705 0.39433393 0.16601995 -0.16132207
000320 c8 29 64 3e 5c 61 6d be eb cb 32 bf 46 ce 4b bd
       0.22281563 -0.23181671 -0.69842404 -0.049757265
000330 4b fc 37 3e 88 92 93 be 14 2e 34 3e f8 15 f0 3d
       0.17967336 -0.28822732 0.17595702 0.1172294
000340 bc 4c 9c 3c e9 47 e5 3d 85 da b2 be c5 0a 21 3e
       0.019079559 0.111953564 -0.34932342 0.15726765
000350 a8 a8 0b 3f b2 f2 06 3f a6 16 ee 3d e6 f3 8d 3d
       0.54554224 0.52714074 0.116254136 0.069312856
000360 62 73 fb bb 29 3a 89 3e 71 b6 a0 bd 18 7e 07 bf
       -0.007673667 0.26802185 -0.07847298 -0.5292678
000370 35 a0 aa 3e ae ca 08 bf 83 b6 28 be eb d3 b7 3d
       0.33325353 -0.53434265 -0.16475873 0.08975967
000380 06 62 41 3e 4b 89 80 3e bb da 0e 3f 93 0d 55 be
       0.18885049 0.25104746 0.55802506 -0.2080596
000390 f2 fc 29 3e 72 48 a8 3c 46 40 0f 3f 22 ab 1b be
       0.16600397 0.020542357 0.5595745 -0.15202
0003a0 9d 6c 2c 3e 6e 01 da be a0 82 5d 3e 91 68 11 3f
       0.16838308 -0.42579216 0.2163186 0.5680018
0003b0 59 3a 54 3d 5f 58 23 be cd 1e 51 3f 6d 8e 14 3f
       0.051813457 -0.1595168 0.81687623 0.58029824
0003c0 bd 24 b8 be 74 64 e7 be 80 5e ed be 15 c2 88 be
       -0.3596553 -0.45193827 -0.4636116 -0.26710573
0003d0 5b 56 3d 3d 24 c9 51 bf 6d ce a7 bd 2f bd 41 3e
       0.046224933 -0.8194754 -0.081936695 0.18919824
0003e0 ae ee b6 3e de 96 8d 3d 48 83 0c be c8 3c f6 3d
       0.35728973 0.06913541 -0.13721955 0.12023312
0003f0 94 a4 44 3e a0 63 9a 3a 62 05 7e bc 06 ae bc bd
       0.19203407 0.0011778958 -0.015504213 -0.0921288

lstm.bias_ih_l0 f4 [400]
000000 6c f9 97 3d 30 72 61 bc 09 e9 51 bd f2 73 b1 3e
       0.0742062 -0.013760135 -0.05124763 0.34658772
000010 41 85 7d 3e 47 bd 91 3e cf 39 10 be 23 1c ec 3d
       0.24757864 0.2846472 -0.14084552 0.11528804
000020 dc e8 af bd 83 dc e9 3b 45 5e 54 3c 09 54 4b 3d
       -0.08589336 0.0071368827 0.012961929 0.04964069
000030 bf 75 c1 bd 4a 95 b2 3d f7 da 4f bd ab 10 8e 3d
       -0.094462864 0.08719881 -0.05074593 0.06936773
000040 8e 63 13 be 26 be b4 3d fb fa f5 3e ef 38 fb be
       -0.14393446 0.088253304 0.48043045 -0.49066874
000050 bb df 23 3d e7 92 a0 be b2 8f 85 bd 84 11 57 bd
       0.040008288 -0.31362078 -0.06521548 -0.05250694
000060 17 db 8d bd 5e bc 55 3d 28 61 06 bc 3a 5b e5 3b
       -0.06926554 0.052181594 -0.008201875 0.0069994004
000070 76 13 95 bc 6b 15 02 bd 81 65 2e 3c 8a 84 d1 bd
       -0.018197756 -0.031758707 0.010644318 -0.10230358
000080 a6 fc 83 be e0 11 56 bc af bf de bd 7b 94 4a 3d
       -0.25778693 -0.013065785 -0.108764045 0.04945801
000090 50 21 8f be 39 2c 25 be f3 89 92 3e 70 9c 34 3c
       -0.27955103 -0.16130151 0.28620872 0.011023626
0000a0 18 ee 69 bd 3e 7c 9f 3c 10 b6 66 3e 3a 4a 0f 3d
       -0.05711183 0.019468423 0.22530389 0.034982897
0000b0 41 52 b1 bd 5e 5f 42 3e 5b 85 23 3a 13 b8 59 3d
       -0.08658267 0.18981692 0.0006237828 0.053154062
0000c0 b5 d9 3e be 09 51 26 3c a2 58 0b 3e e3 03 8a bc
       -0.18637736 0.010151156 0.1360803 -0.016847556
0000d0 c9 56 b6 3e a3 38 15 be d8 60 24 be 79 16 76 bc
       0.35613087 -0.14572386 -0.16052568 -0.015020006
0000e0 3a d6 12 bd 01 8d 89 bd 04 a2 6e 3d e2 5f 89 3c
       -0.035848834 -0.067163475 0.05825998 0.016769353
0000f0 97 16 ac bd a3 1b 5c 3e e3 4c 0d 3d 78 14 ac bc
       -0.08402746 0.21494918 0.034497153 -0.021005854
000100 d3 00 be 3d 5b da d3 bd 47 38 b3 3d c4 ee 0d 3e
       0.09277501 -0.103443824 0.087509684 0.13860613
000110 4f b3 4a be 14 5a 29 3d 82 f6 45 3d f5 60 ff 3d
       -0.19794963 0.04134567 0.04833079 0.12469665
000120 64 bf 56 bd 2c ec 49 3e 44 13 43 3d a3 68 5b be
       -0.052428618 0.19718999 0.047625795 -0.21426634
000130 06 09 e1 3d a0 90 01 be f3 26 41 3e a1 eb ae 3c
       0.10988049 -0.12652826 0.18862514 0.021352591
000140 ec c4 f3 bd ea d6 00 be 39 2d ff 3d 6c be 00 3e
       -0.11902794 -0.12581983 0.124597974 0.1257264
000150 8a 5a 2c 3e da 98 2a 3e 0a a5 6b bc fa 49 cd bd
       0.16831413 0.1665987 -0.01438261 -0.100238755
000160 96 f4 1c 3e a7 4f da 3d 0f f7 9d bd b8 1c 53 bb
       0.15327677 0.10659724 -0.07713138 -0.0032213163
000170 18 7a bb 3d ea 71 c8 bd 7d 52 de 3c 54 a8 61 3e
       0.09154147 -0.097873524 0.027138943 0.22036868
000180 a5 b5 e8 bc 7d 76 33 bc d0 5c 20 3a 4d 3a 5b be
       -0.028406927 -0.010953543 0.0006117346 -0.21408959
000190 26 72 8e 3c 44 fa bb bd 64 26 b7 bd af b7 0c be
       0.017388415 -0.09178594 -0.08942869 -0.13741945
0001a0 73 0b 4a be aa 87 ae be ac 20 30 be f2 1a 1b 3e
       -0.1973093 -0.34087878 -0.17199963 0.15146998
0001b0 de 7e 7e be 9c 1a 2d be c2 f4 ab bd fb d2 8e be
       -0.24853083 -0.16904682 -0.08396293 -0.2789534
0001c0 81 2f 9a be 71 45 c4 bd da b0 2e 3d d1 ae ad be
       -0.30114368 -0.095835574 0.042649128 -0.33922437
0001d0 a9 d3 52 bd 79 ef 1a bd 1b 95 1c be 45 2d 9b be
       -0.051471386 -0.037826035 -0.15291254 -0.30307975
0001e0 88 3c 92 be 49 29 cc 3c fd 6c 5a 3b 43 c8 55 be
       -0.28561807 0.02492203 0.0033329122 -0.20877175
0001f0 10 72 0e bd fa fe 38 be c0 1f bd 3d f8 66 a7 bc
       -0.034776747 -0.18066016 0.092345715 -0.020434842
000200 33 0c bc 3d 66 90 18 be 31 99 43 be 6b ad f2 bc
       0.09182014 -0.14898834 -0.19101407 -0.029623708
000210 b7 62 94 be c7 ab 93 be 9d 13 22 3d ef 2f a5 bd
       -0.28981563 -0.28841993 0.039569486 -0.08065783
000220 10 3e a0 bd da 43 3a be 9b 43 76 be 2a 39 b1 bb
       -0.078243375 -0.18189946 -0.24049227 -0.005408426
000230 f7 3b ba be 89 5c 97 3c 5e c9 54 be a6 1b e8 bd
       -0.36373875 0.018476741 -0.2077994 -0.113333985
000240 9c 67 18 3d e2 85 79 bd d1 76 f5 bd 8a e5 32 be
       0.037208185 -0.060918696 -0.11985553 -0.17470375
000250 03 0b bc be 44 b3 9d bd 2f 30 63 bd 5e 65 25 be
       -0.3672715 -0.07700208 -0.055465873 -0.1615195
000260 42 a5 de 3b f1 75 88 be b3 78 88 3d 9a c9 33 be
       0.0067946026 -0.26652482 0.066636465 -0.17557374
000270 22 2a 9d 3d a9 9e 7d be 12 5b fa bd 89 55 83 be
       0.07674052 -0.24767555 -0.122244015 -0.25651196
000280 d4 6a ca bc 78 f7 0c be cd e7 90 ba 6a bb 4a be
       -0.024709143 -0.13766277 -0.001105541 -0.19798055
000290 90 b0 08 be c3 b5 08 3d 6c d2 f0 bd 28 d5 d8 bd
       -0.13348603 0.033376466 -0.11758885 -0.10587531
0002a0 39 b5 8a be a5 4e 86 3c 27 a6 12 bd f8 b4 ea bd
       -0.27091387 0.016394923 -0.035802986 -0.11460298
0002b0 82 62 e8 bd db ef b0 bc 8e 8f 96 bd 0c fe a4 bc
       -0.11346914 -0.021598747 -0.073516 -0.02014067
0002c0 59 1c 8d 3d 0e 2c 56 be ad 06 97 3e 8e a0 80 bc
       0.068901725 -0.20915243 0.2949728 -0.015701558
0002d0 70 7b 0d be 3b 15 d7 bd fb cb 77 be f6 48 ce bd
       -0.13816619 -0.10502096 -0.24198906 -0.1007251
0002e0 9c 62 2b be 91 e0 1f 3d 28 13 5c be 67 e9 04 3e
       -0.16736835 0.039032523 -0.21491683 0.12979661
0002f0 b4 29 a3 bd af 02 65 be b4 c5 b6 bd bd 2c 5a be
       -0.079669386 -0.22364305 -0.08924428 -0.21306129
000300 9d c9 95 3d ed 97 cc be 45 91 87 3c 2c bf 5a be
       0.07313845 -0.3995966 0.016548762 -0.21361989
000310 7b 3f b0 bd d1 ef 0e be 52 e1 b6 bd ef f7 80 bb
       -0.08605858 -0.1395867 -0.08929695 -0.003935806
000320 c7 25 84 3c 7f 45 78 3d e3 74 69 bd 6a 51 cf bd
       0.016131295 0.06061315 -0.056996237 -0.101229504
000330 f6 62 d9 3d d5 36 45 3e 5a b0 45 bd 58 d2 02 3d
       0.106145784 0.19259198 -0.048263885 0.03193888
000340 66 f6 05 bd 9a 7b 0a 3d 11 3a 90 3d 6c 5f b1 bd
       -0.032705687 0.033809282 0.07042325 -0.086607784
000350 d1 21 d3 3d 62 11 41 3d fa 0e 6d bd ed 58 00 be
       0.10309184 0.04713572 -0.05787561 -0.12533922
000360 ff 16 c4 3d 1f 2e 0d be 7f a8 4f 3d c4 ab 31 3e
       0.09574699 -0.13787125 0.0506978 0.1735068
000370 06 ad 83 3d 5d 8d b2 bb a7 39 b6 3d 17 86 73 bd
       0.06429486 -0.0054489807 0.08897715 -0.05945405
000380 19 0b 60 3d d1 48 9e bc b6 d9 76 3d a8 c6 02 3e
       0.054698084 -0.019321831 0.06026622 0.12771094
000390 5b 8a 3e 3d fe b6 0e 3c 6a f4 d9 3c e7 53 bd bd
       0.046518665 0.008710621 0.026605804 -0.09244519
0003a0 3b 02 0b 3d f3 2e 9d bb 59 96 a3 bd 91 fb 9c bd
       0.033937674 -0.0047968565 -0.07987661 -0.0766517
0003b0 37 01 a5 3d b9 1b 15 3d 47 c0 99 bc 21 56 87 bd
       0.08056872 0.03640339 -0.018768443 -0.06608225
0003c0 95 32 04 bc b8 87 05 3c 43 af d9 3d 0b 0c 4c 3e
       -0.0080687 0.008150034 0.10629132 0.19926469
0003d0 05 4c 28 3d be e7 a1 bc ef f8 d0 3d 73 de dd 3d
       0.041088123 -0.019763824 0.1020373 0.108334444
0003e0 2e bc 93 bc fb 70 51 3e fa 86 ca bd df b9 6d bd
       -0.018034067 0.20453255 -0.09889026 -0.05803859
0003f0 05 b2 3f 3d f7 89 e1 bd a5 89 f6 bc 74 23 22 be
       0.046800632 -0.11012643 -0.03009493 -0.15833837

lstm.bias_hh_l0 f4 [400]
000000 0c 93 7a bd bd fc b8 3c 2f 6d be 3d 9c 54 b8 3e
       -0.06117539 0.022581453 0.09298169 0.36002052
000010 23 ab 44 3e 4f e0 60 3e 9a 92 48 be 1c a4 e6 3c
       0.19205908 0.21960567 -0.19587174 0.028154425
000020 f9 5f 36 bd 5b 49 09 bd 25 49 79 bd 01 ac 5c 3e
       -0.04452512 -0.033517223 -0.06086077 0.2154999
000030 67 b9 4e be 47 35 77 3c 8e fb 91 bd 15 69 3d 3e
       -0.20187913 0.015088386 -0.071280584 0.18497117
000040 a6 bb 3f bd 77 7d b3 bd 8e a0 e2 3e 37 d9 c5 be
       -0.046809815 -0.08764165 0.44263119 -0.38642284
000050 33 ff ee 3b c1 ff 84 be bf a0 a1 bd e1 e0 d2 bd
       0.0072936057 -0.25976375 -0.07891988 -0.102967985
000060 8f dd f2 bd 5d 87 f3 bd 6a 98 d7 bd 56 1f 94 bd
       -0.11858665 -0.11891053 -0.105271176 -0.07232539
000070 02 6a e8 bd aa 9a 4d 3d 78 51 fb 3b 14 c7 c8 bc
       -0.113483444 0.050196327 0.007669624 -0.02450899
000080 6b ac 45 be e6 af be 3d 4d 0e f4 bd 42 ad f4 bb
       -0.19304053 0.09310894 -0.1191679 -0.007466943
000090 87 1b 87 be be 42 26 be c3 31 76 3e 9f ee 74 3d
       -0.2638819 -0.16236398 0.2404242 0.05979788
0000a0 50 f1 7a bc bc 2f e9 3c 3e 9a c0 3e 0e fb 40 3e
       -0.015316322 0.028465144 0.37617677 0.1884577
0000b0 88 87 06 3d 83 ed 4c 3e 4b d4 e4 3d 26 16 9c 3c
       0.032844096 0.20012479 0.11173304 0.01905353
0000c0 46 d4 ca bd 10 8b ea 3d 2e 5c 93 3c bb 61 ff bd
       -0.09903769 0.11452305 0.01798829 -0.124698125
0000d0 ad 29 b4 3e 14 e2 d1 bd e1 e4 ea bd 10 8b e2 3b
       0.35188046 -0.10248199 -0.114694364 0.00691355
0000e0 5d 55 6b bd 97 1b a1 bd ad b9 8d 3d 6c d6 8c 3d
       -0.057454456 -0.078665905 0.069201805 0.06876835
0000f0 92 11 d8 3c 3e 4e 2b 3e 7c 1a 87 bb 4d 17 32 bc
       0.026375566 0.16729066 -0.00412303 -0.010869813
000100 48 02 ae 3d a8 1e 8b bd 3d f6 3f 3e c3 8c a0 3d
       0.08496529 -0.067929566 0.18746276 0.07839348
000110 09 f3 82 be 36 f9 90 3c fb f9 92 3d af 79 6b 3e
       -0.25576046 0.017696958 0.07176586 0.22995637
000120 23 db 00 bd 89 80 68 3d a0 10 19 3e 37 51 91 bd
       -0.031458985 0.056763206 0.14947748 -0.070955686
000130 61 74 1a 3e 89 aa 82 be 80 55 21 3e 49 83 31 3b
       0.15083458 -0.25520733 0.15755272 0.0027086309
000140 c0 31 0d be 14 01 61 bd e1 7b c9 3d f9 34 13 3e
       -0.1378851 -0.05493267 0.09838081 0.14375676
000150 e2 68 28 3e 06 36 80 3e e9 c3 6f 3d 84 3c 37 bd
       0.1644626 0.25041217 0.058536444 -0.044735447
000160 5a 6f 3b 3e 52 29 93 3d c5 53 3c bd ec a0 ea bb
       0.18304196 0.071856156 -0.045978326 -0.0071602967
000170 ce 97 ae 3d e9 a8 99 bd 60 7d 3a 3d 90 75 8a 3e
       0.08525048 -0.0750292 0.045529723 0.27042818
000180 da 5d be 3b 52 70 13 bd ab 9e 6e bd 2e 3c 5d be
       0.005809528 -0.03599579 -0.058256786 -0.21604988
000190 5b f0 9f bd f5 31 c1 bd 92 55 26 3c 6a 82 bc bd
       -0.07809516 -0.09433357 0.0101522375 -0.09204562
0001a0 2e 3c 16 be fe f6 4e be c0 8b bf bd 4a eb 7a 3e
       -0.14671394 -0.20211408 -0.09352827 0.24503818
0001b0 b8 35 45 be ad 9d 6d be 2d ba 10 3d 2f f5 3d be
       -0.19258773 -0.2320468 0.0353338 -0.18550561
0001c0 d9 fb b1 be 5d 20 97 bd b3 e9 ee bb 17 d2 b4 be
       -0.34762457 -0.0737922 -0.0072910427 -0.35316536
0001d0 ea 5f ec bd 7e 59 96 bd f5 bd 25 be 56 3e d1 be
       -0.11541732 -0.07341288 -0.16185744 -0.4086787
0001e0 c8 40 a1 be 32 a8 3b 3d b2 98 a9 3d 1e 95 25 be
       -0.31494737 0.0458147 0.082810774 -0.16170165
0001f0 5a 79 98 bd 14 84 78 be 6b fb c3 bb 49 34 00 3e
       -0.07445021 -0.24269134 -0.005980899 0.12519945
000200 f8 8e 21 3d c5 5c ff bd 85 09 1b be 96 98 87 3d
       0.039442986 -0.12468866 -0.1514035 0.066209
000210 63 81 65 be 61 7a 1c be 81 f9 0a 3e 27 27 bf bb
       -0.22412638 -0.15281059 0.1357174 -0.0058335247
000220 04 70 e7 3a b2 61 90 3a 7b 10 aa be 7e 9b 71 bd
       0.0017657285 0.0011015444 -0.332157 -0.05898618
000230 6d 5b c6 be df e0 1f 3e cb 1c 54 be 6d 43 8f be
       -0.38741627 0.15613125 -0.20714109 -0.2798113
000240 7f 72 93 3d 57 29 ff 3d fd 00 83 be 66 2e 92 be
       0.07199573 0.12459057 -0.25586691 -0.28551024
000250 d3 41 77 be 05 9b 86 3c 90 fe 1d 3b 2f d5 ed bd
       -0.24146204 0.016431341 0.002410803 -0.11612927
000260 d6 f7 ff bc bf 7c bc be 1f 28 44 bd 96 5c 16 be
       -0.031246107 -0.36813924 -0.047889825 -0.14683756
000270 00 36 b7 3d e2 04 c0 be f2 50 cd bd b2 06 28 be
       0.089458466 -0.37503725 -0.10025205 -0.16408804
000280 9f 67 f4 bc 06 ab a5 bd 38 3d e7 bd b3 39 a0 bd
       -0.029834567 -0.08089261 -0.112909734 -0.07823505
000290 bd 2c c7 3b 9b d0 5b 3d 26 91 97 be 89 dc 79 be
       0.0060783313 0.05366574 -0.29602927 -0.24400534
0002a0 69 d3 af be e4 b1 73 bd d0 ab 41 bd 3d b6 f1 bd
       -0.3434098 -0.05949582 -0.047282994 -0.11802337
0002b0 b7 ee 82 be d0 fb 9c 3d 78 0e 20 bd 31 88 43 bd
       -0.2557275 0.07665217 -0.0390763 -0.047737304
0002c0 66 a1 28 bd 4e 7f b0 bd 44 d1 94 3e 52 4d 88 3d
       -0.041169547 -0.086180314 0.29065907 0.06655373
0002d0 16 8c 4d bd d7 55 18 be 73 08 83 be 8b 0a 89 bd
       -0.050182424 -0.14876495 -0.25592384 -0.06691464
0002e0 57 0c 4f be 3a 73 ef 3d 65 27 07 be d6 b4 f9 3c
       -0.20219551 0.116918996 -0.13198622 0.030481737
0002f0 86 ab 28 bd 87 dc 65 be 34 31 d2 3c 31 1a 8c be
       -0.041179202 -0.22447406 0.025658228 -0.27363732
000300 3b 51 0a 3e c9 bd 8e be c0 cc a0 bc 3e 2b 7f be
       0.1350755 -0.2787917 -0.019628882 -0.2491884
000310 a0 79 50 be 4e 83 0d be 56 52 33 bd 95 84 b5 3d
       -0.20358896 -0.1381962 -0.043779694 0.08863179
000320 46 dc 57 3d 50 33 ae bd 09 98 88 3d b5 7a 21 be
       0.052700303 -0.08505881 0.066696234 -0.15769465
000330 a4 96 13 bd ef 6b 31 3e 51 b4 2e 3b 6d ef 1d 3e
       -0.036032334 0.1732633 0.002665777 0.15423365
000340 63 ac 97 3d 00 ee ad 3d c2 8c d2 3d 3e cc 0a bd
       0.07405927 0.084926605 0.10280754 -0.033886187
000350 56 93 3d bc 39 3a 99 3d 3f 4e 1e bd 19 e8 81 bd
       -0.011570772 0.07481808 -0.03864884 -0.06343097
000360 bc 18 13 3d 03 ac bc bd 1b 04 bc bd 28 12 3e 3c
       0.03591226 -0.09212496 -0.091804706 0.0116010085
000370 ac 9a c3 3c 67 de 1a bc bb 53 56 bd 11 ed ab bc
       0.023877464 -0.009452439 -0.052325945 -0.020987066
000380 95 1d 83 bd 9b b5 ee 3d 93 e2 1b 3d d4 c0 b1 3d
       -0.06402127 0.11655732 0.038057875 0.08679357
000390 a8 d1 80 3d 16 43 75 3d c4 f0 93 bd ab e7 07 be
       0.06289989 0.05987843 -0.07223657 -0.13271968
0003a0 36 07 24 3d ec b8 83 bc 24 2a 40 bc e5 ad 0b bd
       0.04004594 -0.016079389 -0.011728797 -0.034101386
0003b0 fb 6c 9d 3d 3f 48 f5 3b b2 26 fa bc b9 84 c6 3d
       0.07686802 0.007485419 -0.03053603 0.096932836
0003c0 76 e5 de 3d 7d e3 a0 bd 59 08 4d 3e 37 f3 33 3e
       0.1088361 -0.0785589 0.20022716 0.17573248
0003d0 24 fa ef 3d 5b f6 57 3d 05 a0 e8 3d b4 b9 03 3e
       0.117176324 0.052725177 0.11358646 0.12863809
0003e0 9d fd ad 3d 86 97 f9 3d 6b 0e ff bd 0f 48 bb bd
       0.084956385 0.12187104 -0.12453922 -0.091446035
0003f0 c2 1d e3 bd 24 0c 6c 3d e8 9b 8e bc 69 62 82 bd
       -0.1108966 0.057628766 -0.017408326 -0.063664265

lstm.weight_ih_l1 f4 [400, 100]
000000 cc 73 f9 bd bb b5 cf bd 53 a3 8c 3e 4c b4 22 be
       -0.121802896 -0.10142084 0.27468356 -0.1588909
000010 18 42 98 be bb 96 a3 3e 51 46 49 3d b8 4d 1e 3e
       -0.29737926 0.31950936 0.049139325 0.15459335
000020 30 ec fa bc b6 c0 32 be eb 01 b1 bc d5 6a 16 be
       -0.030630201 -0.17456326 -0.02160736 -0.1468919
000030 82 53 3d 3e 49 36 00 bd 86 8d e6 bd 56 4f a6 bd
       0.18488887 -0.03130177 -0.11257462 -0.08120601
000040 b1 75 fc 3d a9 76 84 3d 78 72 ac 3e 6b 7f b3 3d
       0.12327135 0.06467945 0.33681083 0.087645374
000050 e9 54 2a be ca 83 d4 bd dd 59 85 3d 12 71 0b 3d
       -0.16633953 -0.10376699 0.06511281 0.03404338
000060 04 0f 4f 3b 6e fa 0b bf a7 d5 0c 3e ea 20 84 bd
       0.0031594643 -0.54679 0.13753377 -0.0645159
000070 da 1f b6 bd 0c 1a d7 3e 13 71 6e be 76 57 5e 3c
       -0.08892794 0.4201206 -0.23285322 0.013570657
000080 ca 50 2d 3b f1 32 89 be 6c 4c 85 3b 2d b2 d5 3b
       0.002644586 -0.26796678 0.004067948 0.0065214843
000090 55 e6 ae bd 2f a7 b4 be 5e 33 91 be 5c f0 40 bd
       -0.08540026 -0.352838 -0.28359503 -0.047104225
0000a0 fe e2 ff bc a7 a7 4b 3e 1a 08 06 bd b7 80 5f 3e
       -0.031236168 0.19888173 -0.03272257 0.21826445
0000b0 a6 66 b3 bd 01 21 6f 3e ab 4c 15 3e 50 e7 c1 3e
       -0.08759813 0.23352434 0.14580028 0.3787179
0000c0 1e 91 0a be 9b c9 aa be 23 cf 3e be 5e 00 2f be
       -0.1353192 -0.33356938 -0.18633704 -0.17089984
0000d0 7f d2 31 3d bd 0c 05 bf f8 95 0a be 3c 29 03 bf
       0.043413635 -0.5197256 -0.13533771 -0.51234794
0000e0 80 ea b9 bd c5 0a 3b 3e 23 24 19 3e 50 92 6a be
       -0.090779305 0.18265827 0.14955191 -0.22907376
0000f0 84 0b 6b 3e 43 e9 a4 3d 73 cd ad 3c b3 78 66 bd
       0.22953612 0.08052304 0.02121613 -0.05626745
000100 46 46 8a bd d9 60 46 be 32 e2 14 3d a7 76 d2 3d
       -0.06751685 -0.19372882 0.03634853 0.102765374
000110 3e 11 3d bd d0 57 db 3e 4e 83 ab 3e 13 75 b5 3d
       -0.04615902 0.42840433 0.33498615 0.08860221
000120 25 02 ea 3c f1 9f 49 3e 5f 29 5f bc b0 9e e8 bd
       0.028565476 0.19689919 -0.0136207035 -0.11358392
000130 63 2a 80 be 3a b9 3e 3d 43 38 e7 3d cf df 5d 3e
       -0.25032339 0.046563365 0.11290028 0.21667407
000140 c7 10 88 be 8e a0 1e 3e 1b 0e e3 bd 5a 4d fc 3c
       -0.265753 0.15490934 -0.11086675 0.030798603
000150 12 9a 0a be 41 a2 cc bd 47 61 48 3e 5e 43 22 be
       -0.13535336 -0.09991885 0.19568358 -0.15846011
000160 e0 4b 68 bd e1 d5 0f be a1 85 89 be e5 8e 82 be
       -0.056712985 -0.14046432 -0.26859763 -0.25499645
000170 73 1c 2f 3d ed a0 90 3e 24 69 38 3e b6 db 2b bd
       0.04275174 0.28247777 0.18008858 -0.04195758
000180 41 e7 90 3e 0e 39 25 3e 51 32 aa be 5f a5 c9 bc
       0.28301433 0.16135046 -0.33241513 -0.024614988
000190 ac 60 50 bd 39 5f c0 bd 90 33 19 3d 5b 78 7b be
       -0.050873443 -0.09393162 0.03740269 -0.2455763
0001a0 ef 79 ba 3d 0a f7 2a 3d e5 de 86 3c 24 e8 18 bc
       0.09105288 0.0417395 0.016463706 -0.00933269
0001b0 13 14 33 3e 6b 39 20 be 9f 32 51 be 0d f3 a4 be
       0.17488126 -0.15646903 -0.20429467 -0.32216683
0001c0 d0 ce 20 bd a2 b1 82 3d 29 a6 5f 3d e9 99 6b bd
       -0.03925973 0.06381537 0.054601822 -0.057519827
0001d0 dc 4e a1 3d cf bb 52 be c1 9c bb 3d 13 2e 5f 3e
       0.07876369 -0.20579456 0.09160758 0.2179492
0001e0 fd 73 e6 bd 46 0c a9 be 03 30 2f bd 6e 48 17 3e
       -0.11252592 -0.33017176 -0.042770397 0.14773723
0001f0 57 eb ed bd b5 66 07 be 16 58 a7 bd 49 82 57 be
       -0.11617153 -0.13222773 -0.08171098 -0.21045794
000200 6b a7 23 be 10 a9 cf 3e 47 fc 27 3d a3 db e3 bd
       -0.15981834 0.40558672 0.041012075 -0.11125877
000210 07 ad 22 3e 79 a6 c5 bc 71 bd fa 3d c5 4a 99 bd
       0.15886317 -0.024127232 0.12243164 -0.07484964
000220 40 d3 98 3c d1 f0 82 bc 62 2b 94 be 01 ca b8 bb
       0.01865542 -0.01598397 -0.28939348 -0.005639315
000230 fb 10 a9 bd 2a 56 3b 3e 70 49 05 bd 6f 67 d1 3c
       -0.08255192 0.18294588 -0.03254074 0.025562016
000240 ca 3d 46 3d a9 2d b6 bd 26 3c df 3d fe 13 45 3e
       0.04839877 -0.08895428 0.10900144 0.19245908
000250 ac 60 54 bd ad 6d 1d be 23 40 06 bd 2f 99 ba bd
       -0.051850006 -0.15373869 -0.03277601 -0.09111249
000260 9b 5b e5 bd 9b 86 bf be 5a 28 61 3b 53 93 32 be
       -0.11199113 -0.37407383 0.0034356327 -0.17439012
000270 3b 7d 97 3d ed 85 06 bd 0f 54 70 3d 13 e2 41 be
       0.07396933 -0.032842565 0.058673915 -0.18933897
000280 89 f8 e4 3d 91 e8 53 3d 71 d1 00 3e b2 78 4d be
       0.11180217 0.051735464 0.12579896 -0.20065573
000290 64 ca d1 3d 30 ac 7c be 6e 6d 9d 3d cc db 40 3d
       0.10243681 -0.2467506 0.07686888 0.047084615
0002a0 00 a9 81 be 83 e8 56 3e c1 68 8c 3e 1f 92 b0 bd
       -0.2532425 0.20987134 0.2742367 -0.086216204
0002b0 85 24 38 3e b7 ee 1d bd a5 07 43 bd df 35 5d be
       0.17982681 -0.038557734 -0.047614712 -0.21602581
0002c0 19 2b aa bd 4b 4f 56 3e 77 97 1e 3b 8a 59 6e bb
       -0.083090015 0.20928685 0.0024199167 -0.0036369287
0002d0 19 c4 77 be 6c 0a 9f 3e 40 ed e3 bd be bf f8 bd
       -0.24195899 0.3106264 -0.11129236 -0.12145947
0002e0 9a 64 30 3e 11 be a0 3d 8e 57 62 bd 5c 3b 01 be
       0.17225876 0.07848752 -0.05525928 -0.126203
0002f0 db a9 6d bd 4e 7d 4d be d4 51 43 bd 43 93 87 bd
       -0.058023315 -0.20067331 -0.04768546 -0.06619885
000300 b7 fb 51 bd d3 89 59 3e ff c0 6a 3e b0 41 ea bc
       -0.051265445 0.21243982 0.22925185 -0.028595775
000310 9a 8b 2c 3d 25 11 2b be 1f 29 55 3c c3 1f 7d 3d
       0.042125322 -0.16705759 0.013010292 0.06179787
000320 73 4b 8a 3d 18 56 5d be 54 a3 32 be 4c a2 5f 3e
       0.06752672 -0.21614873 -0.17445117 0.21839255
000330 b0 f8 89 3e 9b 43 93 3d e3 80 a9 bd a9 fb 6e 3d
       0.26947546 0.07190629 -0.08276536 0.05834547
000340 eb ac c4 3d 38 b6 0c 3e 3e 97 30 3e 89 d5 8e 3d
       0.09603294 0.13741386 0.17245194 0.06974322
000350 2e a1 96 be c7 6d 65 3d cf 44 c2 bd 32 f9 58 3e
       -0.29419845 0.056012895 -0.094857804 0.2118881
000360 6a a5 c3 3c f6 c0 78 be a2 b5 92 3b 89 ba 7f bd
       0.023882587 -0.24292359 0.0044772187 -0.062433753
000370 3f 03 54 bd 78 c2 00 3f 18 6b 0b 3e 4b 90 9e bd
       -0.05176091 0.50296736 0.13615072 -0.077423654
000380 76 3b 8e 3e 68 e3 a1 3e bb 1f 75 bb 68 d5 5c bd
       0.2777974 0.3161881 -0.0037402946 -0.053914458
000390 54 08 a5 3e 2f a4 87 be 49 1d 9b 3e e0 d2 3f be
       0.32232916 -0.2649245 0.3029578 -0.18732786
0003a0 04 f4 77 3e 2d c8 f4 be 6e 63 36 be f4 ca 37 3e
       0.24214178 -0.47808972 -0.17811367 0.17948514
0003b0 ee 2f 2e 3d 39 76 d7 3e 51 50 8a 3e 90 a4 82 be
       0.042526178 0.42082384 0.27014402 -0.25516176
0003c0 6d 89 a9 bd 98 e9 26 be 6d 55 8a bc f8 2d 44 3e
       -0.08278165 -0.16300046 -0.016886437 0.1915816
0003d0 e2 6e 3f 3e 53 b5 35 be a3 e8 75 3d bc 7d 63 bd
       0.18694642 -0.17744951 0.060036313 -0.05553983
0003e0 7d 6b ac be c1 96 0b 3e fd a9 51 3d 98 91 9c 3e
       -0.33675757 0.13631727 0.051187504 0.3057983
0003f0 e4 e7 af 3e 08 58 0d be ac af b5 be c6 ef 70 bb
       0.34356606 -0.13803113 -0.3548559 -0.003676401

lstm.weight_hh_l1 f4 [400, 100]
000000 bd 07 47 3c 2b ad 2b bd 1e a7 8a bd 03 0e 9b bd
       0.012147841 -0.041913193 -0.06770156 -0.07571032
000010 23 85 7a 3d 45 16 27 bd 82 32 6e be 89 e6 7f 3c
       0.061162125 -0.040792722 -0.23261455 0.015618929
000020 9e 68 1a 3d 8b 5a 22 3e 05 04 36 3d d4 71 6a bd
       0.037697427 0.15854852 0.044437427 -0.05723746
000030 79 4d 9a bd fc 2e 95 bd dd ce a6 bd ff 22 43 3d
       -0.07534308 -0.07284352 -0.08144925 0.047640797
000040 8f 4d 89 3d fb 0d 12 3e cd fe e9 bd 11 dc 64 3c
       0.06704246 0.14263146 -0.114255525 0.013968484
000050 7e 8b 20 3d dc 58 a2 bd 9a ff a2 3d 2e b8 e3 3b
       0.03919553 -0.07927105 0.079589084 0.006949446
000060 f0 5b 49 be 7c ca f3 bd bc f4 0d 3d 3f 7a 5e 3d
       -0.19663978 -0.11903855 0.034657225 0.0543158
000070 89 ea dd bd a6 01 64 bd d0 e9 5d bd 82 6d db 3d
       -0.1083575 -0.055665635 -0.05417806 0.10714246
000080 c4 2d ea 3b 3f 7c 3e 3e a5 81 13 bd de 46 0e 3e
       0.007146569 0.18602084 -0.03601231 0.13894221
000090 ef b4 d0 3d bb 1e c9 3c 8b 31 54 bb 74 63 b8 3a
       0.1019076 0.024550786 -0.0032378163 0.0014067725
0000a0 93 f9 41 3d 6f 85 cd 3d af 55 7d bd 96 43 a5 bd
       0.047357153 0.10035216 -0.061849292 -0.080695316
0000b0 8f 81 29 3d f4 78 3e bd bb 11 50 3d 2e 77 84 3d
       0.041383322 -0.04650207 0.05079816 0.06468044
0000c0 8c 49 1a 3d 0d 14 af 3c 8f e9 e3 bd a2 00 10 3d
       0.037667796 0.021371866 -0.11128532 0.035156853
0000d0 23 b1 4f 3e d5 68 1d 3d a3 99 72 3d c1 24 03 be
       0.20282416 0.038430054 0.05922855 -0.12806989
0000e0 30 7d 4b ba 66 4d 15 bd e2 ae e5 3d ba 47 02 bc
       -0.000776249 -0.036450766 0.11214997 -0.007951671
0000f0 56 ab 33 be c7 29 01 be 7e 49 86 3b 0b 16 a1 3c
       -0.17545828 -0.12613593 0.0040981164 0.019663831
000100 18 62 02 be ba 85 ea 3c f5 f1 25 3e eb 22 cd 3b
       -0.12732732 0.028628219 0.1620558 0.006260266
000110 ef f7 02 3b 54 95 de be e0 f7 11 be 5b bc 95 bd
       0.0019984206 -0.43473303 -0.14254713 -0.073113166
000120 55 ed 87 bd 1a ca 89 3d 91 18 b8 3d a5 5b 36 bd
       -0.06637064 0.06728001 0.08989061 -0.044520993
000130 4b bc af 3c 42 6c 08 3c 08 41 70 3d 29 16 40 bd
       0.02145209 0.008326592 0.05865577 -0.046896134
000140 ae 5a 66 3c 5a 2d 2b 3b ea 15 3b 3d 10 31 5a bd
       0.014059706 0.002611956 0.045675196 -0.053269446
000150 1b d8 d5 bd 25 22 c0 3d d4 94 19 3e a8 f9 ab 3d
       -0.104416095 0.093815126 0.1499818 0.083972275
000160 02 49 6f bd 6c ed 1a 3e 77 13 ad 3c 31 fc e7 bd
       -0.058419235 0.15129632 0.021127446 -0.113273986
000170 72 0f 11 bd c1 78 ab bd ee e5 3a 3d 84 bd e8 bb
       -0.03541512 -0.08372641 0.045629434 -0.00710267
000180 dd d6 b9 bd 54 3d c5 3d 70 92 0c 3d 52 2a 4f bd
       -0.09074185 0.09630838 0.03431934 -0.05057747
000190 47 37 0f 3d 3c 4d e2 3d df 56 3d 3e c5 67 de 3a
       0.034964826 0.110498875 0.1849017 0.0016968182
0001a0 92 f6 00 be 46 96 13 3d ca 6f db 3d 2b 59 90 3e
       -0.12594059 0.036031984 0.107146814 0.2819303
0001b0 f6 60 ef 3a f0 6b 00 bd ae e3 ca 3d 54 57 20 bc
       0.001826315 -0.031352937 0.09906708 -0.009786446
0001c0 5d 24 32 bd 42 48 22 bc 51 5e be bd 65 2a b7 3d
       -0.04349171 -0.009904923 -0.09295333 0.08943633
0001d0 4e c9 66 bd 71 3e 92 bd 54 b9 9e 3b 13 97 21 3c
       -0.056344323 -0.07140816 0.00484387 0.009862679
0001e0 2e 2e 03 be 47 c6 23 be 95 e9 32 3c 5c 86 c2 3c
       -0.12810585 -0.15993606 0.010919948 0.023745708
0001f0 a5 d3 c0 bd fa ff 7d be 3c 80 d2 3c e7 04 74 3c
       -0.09415368 -0.24804679 0.025695913 0.014893747
000200 ff c3 6d 3d 13 ce b0 3d 56 10 cf 3c fc 69 00 be
       0.058048245 0.086330555 0.025276344 -0.1254043
000210 04 22 71 be 92 af 1b 3e 79 a9 88 3c 53 08 10 bc
       -0.23548132 0.15203694 0.016682373 -0.008791047
000220 cb 42 1b 3d 2e 1d e3 3c 0f 96 3d 3d 07 79 ca bd
       0.037905496 0.027723875 0.046285685 -0.098863654
000230 d7 cf 6a bc ee 4d ae 3c 99 2a 70 3d 8c b7 9c 3d
       -0.014331779 0.021277394 0.058634374 0.07652196
000240 63 da ea bd b4 8a ed bd 03 f8 a1 3d ca 34 12 be
       -0.11467435 -0.11598721 0.079086326 -0.1427795
000250 30 07 4f bd 17 88 05 be 70 79 89 3d 20 fb 30 bd
       -0.050543964 -0.13040195 0.067126155 -0.04320824
000260 9c 8f 71 3e 41 84 0f be 99 6e 1b 3e 7b 52 ba 3d
       0.23589939 -0.14015295 0.15178908 0.09097763
000270 52 71 82 bd e1 9b 0d 3e 90 46 91 bd ed ea 55 3d
       -0.063692704 0.13828994 -0.07093537 0.052225996
000280 15 98 0f bd 61 46 f9 3d f1 67 ea 3d f7 34 b9 bb
       -0.035057146 0.12171627 0.114456065 -0.005652066
000290 7a 8f e0 bc d5 29 6d bd 43 17 dc bd 86 35 94 3c
       -0.027412165 -0.057901222 -0.10746624 0.018091928
0002a0 c1 39 0d be 21 d2 e3 bd ad d7 3d 3d 2a 07 33 be
       -0.13791563 -0.11124063 0.046348263 -0.17483202
0002b0 14 fb 1f bd 2c 0a 2c be 0f d5 b0 3d 05 d9 9e bd
       -0.039057806 -0.16800755 0.08634388 -0.07756237
0002c0 b6 f3 9c bd 5b fa 8f bd 3c ff 86 3d e0 d1 9d bd
       -0.07663672 -0.070301734 0.06591651 -0.07706046
0002d0 cf f9 83 bd 22 7a 80 3d 27 84 bc 3c 88 29 92 3d
       -0.064441316 0.06273295 0.023012234 0.07136828
0002e0 3b 56 67 3c e3 95 85 3d a0 36 63 3e ad ae e5 bc
       0.01411968 0.06522729 0.22188807 -0.028037393
0002f0 27 f4 49 bd f3 fa f4 bd 30 05 be 3d aa 17 8a bd
       -0.049305107 -0.11961927 0.09278333 -0.06742795
000300 28 a6 45 3e fb f1 3f bd aa a0 30 3d ea b1 02 bd
       0.19301665 -0.04686163 0.04312197 -0.031907953
000310 65 2a 66 bc 9f de 8a be 69 2e 8f bd 1d 92 92 bd
       -0.014048194 -0.2712297 -0.06991274 -0.07156775
000320 e5 47 8b 3d f2 f8 9c bd 57 96 07 3e 7f 87 17 3e
       0.06800822 -0.0766467 0.13240944 0.14797781
000330 77 0e 7c be 6b ab 0a be dc cf c7 3d 32 94 88 3e
       -0.24614893 -0.13541953 0.09756443 0.26675564
000340 d4 1f 9f bc 23 a2 ab bd 66 4b 8a bd f0 bb c1 bd
       -0.019424357 -0.083805345 -0.06752662 -0.09459674
000350 29 71 b7 be 98 20 6d 3e 52 2d 33 3e eb 8a 05 be
       -0.35828522 0.23156965 0.17497757 -0.13041274
000360 2c d0 c0 3c cb 40 fc 3d f9 73 1e 3e d6 7a 21 3d
       0.023536764 0.12317046 0.15473928 0.039423786
000370 d1 55 12 3c e9 ba d0 3e d0 81 62 bc f4 80 7c ba
       0.008931593 0.407676 -0.013824895 -0.00096322526
000380 d3 57 22 3c e0 4c 82 be 49 2a 8f 3c 5d d6 0b be
       0.009908634 -0.25449276 0.017476218 -0.13655992
000390 bd bf 66 3e 8d a7 34 3d 67 64 9f 3d c8 bb a3 3d
       0.2253408 0.0441051 0.07782822 0.07994801
0003a0 8c f2 85 bd 94 8a a4 3d e2 20 94 3e b7 a1 43 bd
       -0.06540403 0.08034244 0.28931338 -0.047761645
0003b0 33 e8 00 bb 52 bb 8c 3d a2 cc a0 3a e0 6f 08 be
       -0.0019669652 0.06871666 0.0012268017 -0.13323927
0003c0 09 41 ed bb 7a ba 94 bd 8f 3f 3d 3e 32 bd f9 3d
       -0.007240419 -0.0726213 0.18481277 0.12194289
0003d0 fe f9 83 3d cb fd fd 3c d7 3e bb bd 42 f0 8e bd
       0.064441666 0.031004807 -0.09142845 -0.06979419
0003e0 40 fd d9 be 5e a1 b5 bd 6b f6 36 bd bb 14 c8 bd
       -0.42576027 -0.08868669 -0.044668596 -0.09769579
0003f0 0b 62 63 bd 43 5d 80 3d f9 a7 9c bd 79 d7 8f 3c
       -0.055513423 0.06267788 -0.07649226 0.0175588
