models/GeneratedData/scc2034_kilifi_all_contacts_within_households/state_dict.pt (torch_old, 507424 bytes, 10 tensors)

embedding.weight f4 [76, 10]
00000000: daca cabe cc96 adbe a559 b03f a91b 29bf
00000010: 1b50 7abf 8c3c 8b3f 8f29 973f 1313 cdbf
00000020: 85be 72bf 4a2f fd3b 343a debf fffe 453f
00000030: c5e2 94bd ac13 36bf 0072 8a3f 48d5 c9bf
00000040: 72d4 18bf 68ab a7bc 9c04 3e40 b741 993e
00000050: 106f 1a3e e869 cbbe d60a da3f 1b33 38c0
00000060: dc70 45bd 6368 39bf c879 44bf 430b debe
00000070: e91e 893f 550d 0340 0f9a d2bf 9e18 ee3f
00000080: 7aa2 51be d36a af3f a30c b53e 7e58 2fbf
00000090: 8eed 68bf c4df 873e 89b6 223e ceb6 1440
000000a0: 3a6e 11bf 3d19 943e 310a 8dbe 32ea 1d3e
000000b0: 36d3 d03c d93a aebf ea62 c63f 0456 da3f
000000c0: 4c33 913d 0bb6 923f 12ed 9b3e c63e e73f
000000d0: e845 963f 7fe0 c9bf ce87 0bbf 6df7 613c
000000e0: ae61 4d3e 3161 d13f 8a9e 993f e59a 0f3f
000000f0: bac8 babf 38b7 2f3b 1135 3d3f 370b 81bf
00000100: 7801 933e 542e bd3f 918b 48be db2d 0abf
00000110: 2dfb 0740 1d31 cbbe 01e0 bebe 8eee 75bd
00000120: 6a7d 37bf 27b1 55be 3455 8dbf f91e a4be
00000130: 3e82 edbe 9331 973f 3988 8d3f 0042 f13e
00000140: 644d 5ac0 e611 883f b563 86bf 7fcc 7f3d
00000150: 742b e1bf 25c7 143d 8027 3d3f f496 afbe
00000160: 6ca0 593f 7f9a 973d 7414 edbc 69b2 373f
00000170: 8e18 743f dbe1 7cbf 1f6f a63f d2f7 dbbe
00000180: c053 c03f 2758 e9be 6177 523f 20c7 fd3f
00000190: ba92 01c0 7502 dc3f 31ba 03bf eb32 a9bf
000001a0: 66d5 41be 05bc 413e 6433 2dbf 983e 2a3f
000001b0: 53d5 93be a6cd 3b3e 04a0 543f b96b 133f
000001c0: 5e37 813e 91cf 613f f6fb 023f dd27 0e40
000001d0: e280 9c3e 2101 203f fd2b 37bf 732a 0f40
000001e0: 0c12 72bf 4f2b 463e 3c75 7a3f dffc a43f
000001f0: 5c01 87bf dfc4 b63f e367 aabf f025 2940
00000200: c804 543f c836 3c3f 95b7 24bf 56c2 903e
00000210: e89e 253f b6ba 95bf 1f3b d3bf 4eda 41bf
00000220: f471 afbf f889 fd3e cdac 0a40 e5ed 453f
00000230: 696c d4be 0e4d 82bf 6cbd 0bc0 54c6 94be
00000240: afb7 81be 3489 35be a9c0 c8bd 1058 1440
00000250: 99fe a03f 9f30 67bf a54c c7bf 7c63 8bbf
00000260: 27b1 0640 601f b73f 4cbb d33e 75d9 a73f
00000270: 1887 51bf 1737 92be b317 8dbe a7b2 c03f
00000280: c0ab 19c0 aa52 703f 751d 383e ea3b 763f
00000290: 50fb f4bd 651f 9f3f 7fe8 843f 7b91 aa3f
000002a0: 976f ea3d c4bc 07bf 25dd 05bf b370 75be
000002b0: 0615 a73f ccbd 9e3f 1963 413f efc9 213f
000002c0: 4f82 22bf 4d09 8d3f 01ab 10bf 5976 473e
000002d0: 51e7 b73e 8620 873f 2ff5 b33e ad79 d83f
000002e0: 2c91 4dbf b8af dbbf ca1d 43bf 1299 cbbe
000002f0: 180c 2abf ae46 2a3f 3f0e d4bf f3c3 a33f
00000300: 5f2f 983e f01f 063d 3073 10bf b00e c1bf
00000310: 24b9 b5bd 2e0d 1c3f 6b74 abbf 92ef 2ac0
00000320: e3c7 533f 3fee 2bc0 51f2 85bf aae9 26be
00000330: e1b3 ebbd a95b d83f 2518 d23f 1dc0 febf
00000340: 90a7 85bf fcc4 ed3d 5786 be3f d92e 5e3f
00000350: 78f4 d9be ca85 473f c16d 7ebf cdd6 f2bf
00000360: c8bf 493f 0c60 ebbd d055 10bf 4c48 88be
00000370: d59b dabe 5e82 cd3f 1eed 10bf 0081 883f
00000380: cb5c 6dbe 9318 09c0 ae3f 0bbf 95d3 2ac0
00000390: ed8d 7fbf 74aa d53e ad77 fabe 2cc3 dbbf
000003a0: da0f 8c3f ae9f c83f 770b aabf 3bab 01bf
000003b0: dc8e 193f a8b9 92bf 0b54 24bf 8e10 f03f
000003c0: 1b60 b23e ed57 34bf 28b6 a23e a637 2840
000003d0: 0184 093f 8d81 9d3f 9f7b 903f f9e7 943b
000003e0: 1a7e 2fc0 aa8e 37bf 90ac bbbf 16c4 993f
000003f0: abe7 2cbf 86de 333f 5451 d03e a403 90bf
-0.39607888 -0.3390411 1.3777357 -0.6605783 -0.9777848 1.0877852 1.1809558 -1.6021446
-0.9482196 0.0077265846 -1.7361512 0.7734222 -0.07269815 -0.71123767 1.081604 -1.5768213
-0.59699166 -0.020467475 2.9690313 0.2993295 0.1508143 -0.39729238 1.7034557 -2.8781192
-0.048203334 -0.72424906 -0.76748323 -0.43367967 1.0712558 2.0476887 -1.6453265 1.8601263
-0.20472136 1.3704475 0.35361204 -0.68494403 -0.9098748 0.26537907 0.15889944 2.3236575
-0.5680882 0.28925505 -0.27546838 0.1542137 0.025491338 -1.3611709 1.5498936 1.70575
0.07089862 1.1461805 0.30454308 1.8066032 1.1740084 -1.5771636 -0.54504097 0.013791901
0.20056793 1.6357785 1.2001507 0.56095725 -1.4592507 0.0026812088 0.739091 -1.0081547
0.28712058 1.4779763 -0.1958449 -0.5397622 2.1247056 -0.39685908 -0.37280276 -0.060041957
-0.7167574 -0.2086836 -1.1041627 -0.3205488 -0.4638843 1.1812004 1.1057197 0.47120667
-3.4109735 1.0630462 -1.0499178 0.062450882 -1.7591386 0.03632273 0.738884 -0.34294856
0.8501041 0.07402515 -0.028940417 0.7175661 0.9534997 -0.9878213 1.3002661 -0.4296251
1.5025558 -0.45575067 0.8221341 1.9826393 -2.0245805 1.718825 -0.5145598 -1.3218664
-0.18929061 0.1891938 -0.6765654 0.6650176 -0.2887369 0.18340167 0.83056664 0.57586247
0.25237554 0.88207346 0.5116571 2.221183 0.3056708 0.6250172 -0.71551496 2.236966
-0.9455879 0.19352458 0.97835135 1.288967 -1.054729 1.427883 -1.3312954 2.6429405
0.82819796 0.7352109 -0.64342624 0.28273267 0.64695597 -1.1697605 -1.6502417 -0.7572373
-1.3706651 0.49519324 2.166797 0.77316123 -0.4148896 -1.0179765 -2.1834364 -0.29057562
-0.25335452 -0.1772812 -0.09802372 2.317875 1.2577697 -0.90308565 -1.5570265 -1.0889735
2.1045625 1.430645 0.41353834 1.3113238 -0.8184676 -0.28557655 -0.27557144 1.505452
-2.4011078 0.93876135 0.17979987 0.9618517 -0.119619966 1.2431456 1.0383452 1.3325647
0.11447065 -0.5302241 -0.52290565 -0.23968773 1.3053291 1.2401671 0.75541836 0.6319875
-0.63480085 1.1018463 -0.5651093 0.1947874 0.35918668 1.05568 0.35147998 1.6912133
-0.8029964 -1.7163 -0.7621733 -0.3976522 -0.66424704 0.665141 -1.6566848 1.2794174
0.2972364 0.0327453 -0.5642576 -1.5082607 -0.088732034 0.6095761 -1.3394903 -2.6708722
0.8272688 -2.6864164 -1.0464574 -0.16300073 -0.115089186 1.6902972 1.6413618 -1.9902378
-1.0441761 0.116098374 1.4884747 0.86790234 -0.42569327 0.7793852 -0.9938622 -1.8971802
0.7880826 -0.11492929 -0.5638094 -0.26617658 -0.42697015 1.605541 -0.5661181 1.0664368
-0.23179929 -2.142125 -0.5439404 -2.669164 -0.99825937 0.41731608 -0.4891943 -1.7168937
1.0942338 1.567373 -1.3284749 -0.506519 0.5998361 -1.1462908 -0.6419074 1.8755052
0.34838948 -0.70446664 0.317796 2.6283965 0.53717047 1.2305161 1.1287726 0.004544255
-2.7420716 -0.71702063 -1.4662037 1.2012966 -0.67541 0.7026142 0.40687048 -1.1251111

lstm.weight_ih_l0 f4 [400, 10]
00000000: fb27 72be 88cb 813c d58f 9cbc a628 173e
00000010: a2b5 a1bd aba9 573e 3fc5 f2ba e54f 733e
00000020: fa5e 48be e7b8 b0be e7b4 11bf 0434 81be
00000030: cd84 293f 343b 0f3e ed87 fcbc 2919 263f
00000040: 8e06 8b3d d0af ffbe d89b 9b3e 8ff2 7e3d
00000050: b168 dd3e 35e0 96bd da8c 3d3e 8a33 163e
00000060: 4063 5c3e 17bb 0c3e 6e6a 043e a80e 40be
00000070: f56d 42bf bbfa b1be f0ef 62bf 9c88 08bf
00000080: 02f9 a4ba 82a9 96bd 8fcd 83be 8611 dd3e
00000090: 156a 333f 4424 203e 9f02 f43d a132 a83e
000000a0: 0ec3 fc3b 36f4 d03e 1464 edbe 9653 913d
000000b0: 625e 42bc efb6 3dbe 9e22 1c3d 5638 89bc
000000c0: 33f7 3dbe 0303 c33d 0cfc 633d af8f 64be
000000d0: 5059 c83e dde9 eb3c 8c09 823e 48c4 8a3e
000000e0: a128 8bbe c0f2 52be b51d e1bd 317c 663f
000000f0: c6e3 40be cac4 91be 10b2 9c3e 4d76 e33d
00000100: acc2 46bd e80d 0b3c d959 bfbe 1d15 ddbd
00000110: 347f 8f3c 87f8 a1bd 2fcc 5c3d 2666 593c
00000120: 946d 913d fc26 5d3e 6903 343e 0334 293f
00000130: bc56 01be 06f6 a3be e0d2 483e df70 403f
00000140: e896 26bc 5d59 94bb a075 cd3c 5160 6cbc
00000150: 7775 8f3d dcef 23be d32a 093e acc7 f0be
00000160: c688 17be 6fc4 2f3d 4b20 91be 5c49 b03d
00000170: ec83 f23e 6ee0 d53d 3024 903c 19bb f13d
00000180: 9faa 993e 7fbe 5dbe 20c8 3d3f e447 513e
00000190: b78b 403d 8a54 02bf fb70 d7bc cf9d 66be
000001a0: 0470 25be f9ed acbe 09c6 2c3e 35d6 88be
000001b0: 1fb1 87bd 0476 c0be ddbc 323e 0559 c73d
000001c0: 5aa7 c53e 2350 df3d c21b 1b3e 740b f53d
000001d0: a8b7 88be 3053 2cbe 11b0 063f f105 a73e
000001e0: dfbc efbe c924 0b3e dd8f ba3c 635c b4bd
000001f0: 5f55 5dba 11e2 273d 9d46 2d3e 77d4 f1bd
00000200: d5cd b3be 9512 14be 12da e7bd 9e5b 483c
00000210: 477e cabe ebd2 a13d fc93 6cbd fe71 d4bd
00000220: 6399 2bbd 26f4 e63e 2ab3 dbbe dc31 c0be
00000230: a15c b73d dac3 1e3f 64f9 25be 3495 3cbc
00000240: f437 a2bd 36f8 91bd df4a 8a3e 3c10 87be
00000250: 6f33 15bf e363 95bd 3954 7e3d e927 9e3d
00000260: 8449 5ebd 68fe 0dbe ae22 4f3c 1bdb 3ebe
00000270: 4370 7c3e 497a eb3d 36fe 173d 796a 013e
00000280: 14c0 c6bd 6126 a83e 3529 edbe 9fcf d23e
00000290: 66b9 523e 19b9 ebbe c506 3e3f fb14 50be
000002a0: 0240 1c3e deba 943c 4f1b 733e 42bf dcbe
000002b0: f2d9 16bf 3a5e be3d e9b7 403e 7d07 9c3e
000002c0: 101b d63e ce3c 0d3f f0c5 833e a88b 673e
000002d0: ee46 82be e152 aebc 3b84 bbbd ba25 94be
000002e0: f7db a63e ee2b 00be bc50 b63b e65e 3b3e
000002f0: 1bcd 0d3f 5081 003f c544 13be fa90 5b3e
00000300: 90f4 203f a9e9 56bd ceb3 0a3f 380e 413e
00000310: 7cdb 80be 56fc 8a3e 8c0a 873e f4ec 9f3c
00000320: f5ec 9fbe 6f55 cc3d 0707 92be 1a3d 283e
00000330: ac95 523d e577 693e 5a47 aa3e a964 703e
00000340: 0fc7 00be 8ba7 1c3d 222b 8ebe da16 80bd
00000350: 6352 01be 96b6 28bd 676e 103d 5c68 043f
00000360: 4227 023f a1d4 923d 2daf 203e c875 1a3e
00000370: de34 0a3f 2b61 e2bd 9d09 ffbd a10b 993e
00000380: 853e ff3d f928 0a3f 29b4 233e 217e c4be
00000390: 6ed8 d23c eb88 ebbd 2611 883e f572 d23e
000003a0: 139f c43e e5a5 a7be dcae 51be d7ab 17bf
000003b0: 4912 0fbf ed17 0dbe f65b 3ebc 82bf 4bbf
000003c0: c064 dabd 7df1 f5bd 1df5 0e3e 4663 c53e
000003d0: ed3c 033f cffb a9bd 38b4 07bf 53da 2dbf
000003e0: 04ad b3bd b003 523f e1b1 b83c 300d 40be
000003f0: 9b40 36be 2285 b13d 5daf 18bf d741 67be
-0.23648064 0.015844122 -0.019111553 0.147616 -0.07895972 0.21060817 -0.0018521919 0.23760946
-0.1956748 -0.3451607 -0.5691666 -0.25234997 0.6621826 0.13987428 -0.030826533 0.6488214
0.067883596 -0.49938822 0.30392337 0.06224304 0.43243936 -0.07366983 0.18510762 0.14668098
0.21522236 0.13743244 0.12931225 -0.18755591 -0.7594903 -0.34761605 -0.88647366 -0.5333345
-0.0012586417 -0.0735655 -0.25742766 0.43177432 0.70083743 0.15638834 0.119145624 0.32851127
0.007713682 0.40811318 -0.46365416 0.07096021 -0.011863323 -0.18526815 0.03811895 -0.016750496
-0.1855133 0.09522059 0.055660293 -0.22320436 0.3913064 0.028798038 0.2539791 0.27102876
-0.27179435 -0.20600414 -0.10991994 0.9003325 -0.18836889 -0.2847045 0.306046 0.111065485
-0.048525497 0.008487202 -0.37373236 -0.10795043 0.01751671 -0.07908731 0.053905662 0.013268983
0.071009785 0.21596903 0.17579426 0.6609499 -0.12630743 -0.32023638 0.19611692 0.7517223
-0.010167815 -0.0045272545 0.025080502 -0.0144272605 0.070048265 -0.16009468 0.13395242 -0.47027338
-0.14798269 0.042911943 -0.2834495 0.08607742 0.47366273 0.10443197 0.01759538 0.11803264
0.30012986 -0.216547 0.7413349 0.2043758 0.047008242 -0.50910246 -0.02629899 -0.22521137
-0.16156012 -0.3377531 0.1687242 -0.26725927 -0.0662558 -0.3759004 0.17454858 0.09733776
0.38604242 0.10903957 0.15147308 0.11965075 -0.2670262 -0.16828609 0.52612406 0.3262172
-0.46823785 0.13588251 0.022773677 -0.08806684 -0.0008443202 0.040987078 0.16921468 -0.118081026
-0.35117975 -0.14460213 -0.113208905 0.0122288745 -0.39549467 0.079015575 -0.057758316 -0.10373305
-0.041894328 0.45108145 -0.4291013 -0.3753804 0.089532144 0.62017596 -0.16208416 -0.011510182
-0.079208285 -0.071274206 0.27010247 -0.26379573 -0.58281606 -0.072944425 0.06209204 0.07722456
-0.05426933 -0.1386658 0.012642546 -0.1863827 0.246522 0.114979334 0.03710767 0.12638272
-0.09704605 0.3284178 -0.463205 0.41174027 0.20578536 -0.46039656 0.7422908 -0.20320503
0.15258792 0.018155511 0.23740886 -0.43114668 -0.5892631 0.09295316 0.18820156 0.30474463
0.41817522 0.55170906 0.25736952 0.22611868 -0.2544474 -0.021279754 -0.0915608 -0.28935033
0.32589695 -0.12516758 0.0055638235 0.1829792 0.5539109 0.50197315 -0.14381702 0.21442023
0.6287317 -0.05246893 0.5418061 0.1885308 -0.25167453 0.27145642 0.26375234 0.019522168
-0.3123547 0.09977233 -0.28520986 0.16429558 0.05141227 0.22799642 0.33257562 0.23475899
-0.12575935 0.03824572 -0.27767283 -0.062543586 -0.12629084 -0.041189753 0.035261538 0.5172174
0.5084115 0.07169462 0.15691824 0.15083992 0.5398692 -0.110536896 -0.124530055 0.29891685
0.124630965 0.5396877 0.15986694 -0.3837748 0.025737967 -0.115007244 0.26575583 0.4110333
0.38402614 -0.32743755 -0.2047686 -0.5924658 -0.55887276 -0.13778658 -0.011618605 -0.7958909
-0.10663748 -0.12008951 0.13960691 0.38552302 0.5126484 -0.08299982 -0.53009367 -0.6791126
-0.087732345 0.82036877 0.022545757 -0.1875503 -0.17798083 0.08667971 -0.59642583 -0.2258371

lstm.weight_hh_l0 f4 [400, 100]
00000000: 27fa ecbe a44e fc3d a805 863e 6235 883d
00000010: c568 c23d c2f2 113f 9718 9c3d 953d 68bd
00000020: 563b e0be 3c04 f9be a76e c0be 6cf9 043e
00000030: 294d a83d adda 1a3e a047 88be 7232 b43e
00000040: b63f 1cbf 2ff9 333c 1221 f7be a1cc d9be
00000050: b255 81be c684 253d 08b9 debc 0274 d43d
00000060: 8d35 b43e edfc 903c 1a1c 393d a399 ccbe
00000070: 6b4c 79be 3934 87be 5cf4 8a3e 060d 3dbd
00000080: 82f6 b9bd 5c1c d8bd e8d1 423e 861f e1bd
00000090: 3fc9 8b3e 70f3 583d b268 ee3e ac97 3abe
000000a0: cf5a f7be 0a0c dcbd a1bf a6be de6b d0bd
000000b0: 60c8 d43e 32ad 49bd a03e 9bbd 9de6 883e
000000c0: 2f20 4dbe 36ef c83e 4fa2 70be e013 e4bd
000000d0: 739f 903e b065 e8bc 5bdf 173f 6aed f5be
000000e0: a9fb 633d ebe2 19bf 95ad 083f fbbe 543e
000000f0: 52f2 06be 7873 3b3e 1541 74bd f737 4bbe
00000100: e33c a53d 2189 d73d 998d c63d b20d 773e
00000110: cc49 113f 9faf 7ebd e349 d4bd 0d9f 3ebc
00000120: 0001 02bf 391e 663c 6829 1a3e c4a9 11be
00000130: b2d6 8abe a678 36be a871 3ebf 8ff5 dcbd
00000140: 714b c93d f3aa 763d 826f 5ebc cf4d 03bf
00000150: 303f 96be 89ad e73d 5ff1 0d3f 2d40 323d
00000160: 6ce5 42be 6669 28be 6448 a53d 5aa6 ec3e
00000170: f6fe e63c 3a23 cfbe 93dd 763e 6111 213e
00000180: 6e45 c8be 7a63 eb3d 809b d6be 7401 a6be
00000190: 09d8 173c e130 843e aac3 ba3d 86a6 c93e
000001a0: 5ce0 213e 1716 0e3f 3b82 1abc 29e5 10be
000001b0: 7b54 bb3e 0e4a c5bd 004f 173f 7058 433e
000001c0: a2cd 2b3e a585 4d3f 9b4f 41be 506e 243e
000001d0: b2ba cc3d 3a9c 2d3f 6151 20bf dd4b 17be
000001e0: ff8d b23e 25cb 4f3e 63bb 183e a64f cdbd
000001f0: e899 d03e fc73 1bbe 589a 11be 0337 9ebe
00000200: e7c6 96be 3640 00be 90d9 04bf ff56 3dbf
00000210: 0598 58be 2a64 653e cf82 f03b 2ee7 6e3e
00000220: 8abb b03e 772d d63d baff 063e ea22 aabd
00000230: 5fb5 733e cec9 cabd 7d9e b2bc 1ed0 82be
00000240: 65d8 413e a02c 46be 9721 dfbd d8a4 68be
00000250: dfcb babe ba1e 41be 898c 993e ec5d 963c
00000260: c25b 1a3d a91b 52be 7532 7f3c 8486 a73d
00000270: 7744 7f3d c47e 5b3e f00f 493d cf01 75be
00000280: 7995 97be cb06 0c3f 8e49 af3d 851b c93e
00000290: 96c7 7abe 320b cbbe 60e8 843e d964 563e
000002a0: a0b6 ebbd d1c1 6ebe 592e 3abf 2e49 353e
000002b0: 200a 533e 6440 69bd 5fce dd3d ecf6 863c
000002c0: 4297 39be 79e7 3e3e f054 15bf 0768 cb3d
000002d0: 4228 f4be bda6 693e e88d 1d3f 79a7 2cbe
000002e0: c475 853b 93de 93bd 039b c53d b200 913e
000002f0: ade6 f3be 76e9 d5bd e07f 25be fef6 0fbe
00000300: 181c 67be eccf 64bd 95c0 97be 9a7f cf3e
00000310: 90ad 2ebf 1ab1 e23e 5eaf b3bd 650e e5bd
00000320: 03a1 73be 7556 15bd 667e b73e b312 d63d
00000330: 8440 f43d f018 d53e 22cb acbe 3dea c53e
00000340: bb50 86be 70e8 1bbf e235 dc3d e584 07bf
00000350: e458 cdbe 8f75 bfbe eb0b 363c d49e c13d
00000360: 74cb a8be 82e6 b63d 50a8 86be e0e0 79be
00000370: a85f 243e a0f3 27be edde 923e 3a86 173e
00000380: 6311 c9bc 5596 c63d c389 d0be bbaf d33e
00000390: c138 5f3c 66ad 563d 4109 2bbe 14cd fb3e
000003a0: 0689 cebe 1bdd d8bc daa2 5d3e 1723 913e
000003b0: 15b1 c7be e3bc 07bf b019 e5be 4c1c 953d
000003c0: 9dd3 483c 54a5 77bc e436 cfbe f922 40be
000003d0: 3c30 d0be bef7 603e e3a9 bdbc 0cfb 63bf
000003e0: f98d e63d 00ff 52be 5e40 e6be 82a7 513d
000003f0: e7b5 103f dab0 a33e 7413 623d 0688 d33e
-0.462846 0.12319687 0.2617619 0.06650807 0.094926395 0.57011044 0.07621878 -0.056699354
-0.4379527 -0.48636043 -0.3758442 0.12985772 0.08217842 0.1512248 -0.26617146 0.35194737
-0.61034715 0.010984703 -0.48267418 -0.42538932 -0.25260693 0.040409826 -0.02718784 0.10373689
0.35197106 0.01769873 0.045192815 -0.39960966 -0.24345557 -0.2640703 0.27139556 -0.046155
-0.09080221 -0.10552284 0.19025385 -0.10992341 0.27301976 0.052966535 0.4656425 -0.1822192
-0.4831147 -0.10744484 -0.32568076 -0.10176824 0.41559124 -0.049237438 -0.07580304 0.26738444
-0.20031808 0.39245003 -0.23499416 -0.11136603 0.2824665 -0.0283688 0.5932519 -0.48032695
0.055659924 -0.60111874 0.53389865 0.20775978 -0.13178375 0.18305767 -0.05963238 -0.19845568
0.08068254 0.10524202 0.09694976 0.24126318 0.5675323 -0.062179204 -0.10365655 -0.0116346
-0.50782776 0.014045292 0.15054858 -0.14224917 -0.27116925 -0.17819461 -0.74392176 -0.10789024
0.098288424 0.060221624 -0.01357639 -0.512906 -0.29345083 0.11312396 0.5544643 0.043518234
-0.1903283 -0.16446456 0.08070448 0.46220666 0.028197747 -0.40456563 0.24107961 0.15729286
-0.3911547 0.11493583 -0.41915512 -0.32422984 0.009267815 0.25818542 0.09119351 0.3938486
0.15808243 0.55502456 -0.009430463 -0.14149918 0.3658789 -0.096332654 0.5910492 0.19076705
0.16777661 0.8028205 -0.18878023 0.16057706 0.09996547 0.6781651 -0.62624174 -0.14775033
0.3487396 0.20292337 0.14915232 -0.10024957 0.4074242 -0.15180963 -0.14219034 -0.30901346
-0.29448625 -0.12524495 -0.51894474 -0.7396087 -0.21151741 0.22401491 0.0073398123 0.23330376
0.3451808 0.104578905 0.1318349 -0.083074406 0.23799656 -0.099017724 -0.021804089 -0.25549406
0.18930204 -0.1935296 -0.10895079 -0.22719133 -0.36483666 -0.18859378 0.29990032 0.018355332
0.037685163 -0.20518364 0.015575995 0.08179954 0.062321153 0.21435076 0.049087465 -0.23926471
-0.29606226 0.54697865 0.08558951 0.39278808 -0.24490198 -0.3965698 0.25958538 0.20936908
-0.11509442 -0.23316123 -0.7272697 0.17703697 0.20609331 -0.056946173 0.10830378 0.016475163
-0.18124107 0.18642987 -0.5833273 0.09931951 -0.47686964 0.22817512 0.61544657 -0.16860761
0.0040728766 -0.07220187 0.09648707 0.28320843 -0.4763693 -0.1044492 -0.16162062 -0.14059064
-0.2256931 -0.055862352 -0.29639116 0.4052704 -0.68233585 0.44275743 -0.08773683 -0.11184386
-0.2379189 -0.036459405 0.35838622 0.10452785 0.11926368 0.41620588 -0.33748728 0.38655272
-0.26233467 -0.60901546 0.10752465 -0.52937156 -0.4010688 -0.37394378 0.01111124 0.09454122
-0.32967722 0.089306846 -0.26300287 -0.24402189 0.16052115 -0.1640153 0.28685704 0.14797297
-0.024544423 0.09696642 -0.40730104 0.4134501 0.013624371 0.05241146 -0.16702749 0.491799
-0.40338916 -0.026472619 0.21644154 0.28347084 -0.3900229 -0.53022593 -0.4474616 0.07280788
0.012257484 -0.015115101 -0.40471566 -0.18763341 -0.406618 0.21969506 -0.023152297 -0.8905494
0.11257548 -0.20605087 -0.44970983 0.05118514 0.5652756 0.31970865 0.055194333 0.41314715

lstm.bias_ih_l0 f4 [400]
00000000: bfa6 9fbc f3d2 03be ef2a 723e 944a 4f3b
00000010: 79b5 35bd 1a75 19be a348 ebbd 3d6c 113c
00000020: a259 52bd 1123 953d be10 a73d 4ba1 49bd
00000030: 45f3 9ebd f65e 1cbd f4de bf3a 5a64 843d
00000040: 3fbe e33d f082 6cbc c336 13be 4f73 05be
00000050: 63bb 8ebd 3919 5dbe f462 9cbe da99 84bd
00000060: e162 203d 08e5 563d e9bb febc 6d20 fcbd
00000070: 8a57 14be f693 e33d 6f69 bfbd ace1 303e
00000080: a073 5bbc 735d c53c 5d6f ffbd ce80 22bd
00000090: e24b 00bd c169 8d3e fa8d 0cbd 8cf0 2bbd
000000a0: ab54 b8bd 8783 79be 4bad 8a3c ce77 40bd
000000b0: e229 f93d 588b 81bd 2669 42be bfc3 aabd
000000c0: 77eb b7bc 680b 8ebd 166b cd3c 0a39 57be
000000d0: b855 1fbe d6ca 24bd 508e 22bd c706 c4bd
000000e0: f235 d8bc d965 5fbe ad4e 993d 8a2c 11be
000000f0: 47d3 813e 3329 fbbd a124 5bbe 1d37 b43e
00000100: 84b5 203d 3833 5a3c 6e14 06bd 6e03 7ebc
00000110: 4b07 13bc 472a f2bd 5121 553d 6825 583e
00000120: 2b5b 2bbd f973 c63c dbf7 08be 2291 05be
00000130: 82c2 f5bd 5a40 87bd 5139 863d 6f01 15be
00000140: f9e6 24be 5480 72be f8e0 253e b97c 05bd
00000150: 70be 203e ad28 a4bc 7af5 6dbd e453 babd
00000160: 0671 1abe 25be 02be 2292 4c3d 2ffd 44be
00000170: 9821 0c3d a439 d8bd 74c0 e23c 28fb c13d
00000180: a73a fd3c 0148 4fbd 0b1e a7bd 9bc5 b03d
00000190: 145d 3dbd 584d a1be d436 86be 1a74 2ebe
000001a0: e11d ccbd d474 7fbe 3ed7 87be 5af5 263d
000001b0: b9bd 15be 512a 95be e994 b73d e152 2cbe
000001c0: 92a8 32be d1f1 4fbe 4745 23be 6642 89be
000001d0: 738a aabe e0eb 5fbe 1f6e 14be 7bf2 e53c
000001e0: 204e e1be c21b 8cbe ca25 d8bd a9f9 14be
000001f0: 1b45 adbe be0e ad3e 9669 a2bc 4659 2cbe
00000200: a561 cd3d 585d dfbd 8adb 27be 6515 543d
00000210: def2 87be e745 97be b367 49bd 10b9 ebbd
00000220: ff59 10be c4ec 39bd a180 43bd 5bcf 6bbb
00000230: 8b51 78be fc0e 6cbe 95c3 02be d89b adbd
00000240: 3584 89be a14a 5dbe 118c 81be ee35 6abe
00000250: 37d2 92bd 8f1b 9ebe ab0b 91be 132a 5abe
00000260: 53dd 98be 8a73 20be a701 2fbd 9261 c0be
00000270: 37c6 58be c0ea a1bd fe55 b63c 56ac ccbe
00000280: d672 c5be 4044 70be 19a5 f0bd c6ae efbd
00000290: 77e6 7ebe a208 9f3d 3783 20be add6 a8be
000002a0: ae27 b0bd ceaa 753d 6df0 5e3d 9891 de3c
000002b0: ae23 79bd cef1 6c3d 80c6 62be 48d1 6abe
000002c0: 61a6 28be 5fb6 3fbe c2d1 3bbe 9c11 4cbe
000002d0: f577 bdbe 10e2 6fbe 21cb 8dbe 9e69 aebe
000002e0: dc70 b8be 5834 d33c d3cd 02be a23a e8bd
000002f0: c48e 8f3b de0b c0be 70f5 3fbe e71f 24be
00000300: 21a2 cebe 7c25 d4bd 6ccf 373d e224 b9bd
00000310: 25a1 163e 75bb d5bd 94a8 69be 7563 67be
00000320: b62b 97bd ff59 da3c 01e8 aa3d 7698 11be
00000330: 40c8 acba 822e c63d 353d 443d 6c67 02be
00000340: 3f4d 52ba d582 3a3e 47b7 3c3e dcdc 6bbd
00000350: 2a29 003b 13f4 a53c 6eed c9bd d295 703d
00000360: 4d70 55bd c0f5 97b8 55bd 783d dfef 733a
00000370: 1d9b ca3d eb49 203b 11dd 0fbb 20c3 ddbc
00000380: 61d0 e83d 0c56 3abe 84be bebd 0a7b f4bd
00000390: 6c8c 833d 3578 2abd 527a 873d 26b8 89be
000003a0: 965e 003e 5ba1 12bd 848b bf3d d17c abbd
000003b0: ceca 2bbe 95de 513e eaf0 4ebd 347a 563d
000003c0: 910d 6ebc 7c03 723d 0c71 1c3e 1f6b b43d
000003d0: 8522 0b3d ab3f 42bc 70f9 48bd f3b7 f7bc
000003e0: e320 263d cc95 c63d bdf7 9a3d af96 db3d
000003f0: e8d8 073d 9a90 bfbc 5007 db3d 4c56 d33b
-0.01948869 -0.1287344 0.2364919 0.0031630145 -0.04436252 -0.14986077 -0.11488464 0.008875904
-0.05135501 0.07282079 0.0815749 -0.049226087 -0.07761244 -0.0381765 0.0014638589 0.06464453
0.11120271 -0.014435515 -0.14376359 -0.13032268 -0.06969335 -0.21591653 -0.30544245 -0.06474657
0.0391568 0.052464515 -0.031095462 -0.12310872 -0.14486519 0.11112206 -0.09346282 0.17273587
-0.013394266 0.024092412 -0.12472413 -0.03967362 -0.031322367 0.27619746 -0.034315087 -0.04197745
-0.09000524 -0.2436658 0.016928336 -0.046989255 0.12166192 -0.06325406 -0.18985423 -0.08338117
-0.022451146 -0.06935769 0.025075477 -0.21017852 -0.15560043 -0.040232502 -0.0396865 -0.09571605
-0.02639291 -0.21816196 0.07485709 -0.14177147 0.25356504 -0.122637175 -0.21400692 0.35198298
0.039235607 0.013317876 -0.032734327 -0.015503747 -0.008973907 -0.1182447 0.052033726 0.2110802
-0.04183499 0.024225222 -0.133758 -0.13043645 -0.1199999 -0.06604071 0.06553901 -0.14551328
-0.16103734 -0.23681766 0.161991 -0.032589648 0.15697646 -0.020038927 -0.058095433 -0.09098032
-0.15082178 -0.12767847 0.04994405 -0.19237207 0.034211725 -0.10557869 0.02767966 0.094717324
0.030911757 -0.050605778 -0.08160027 0.0863144 -0.046231344 -0.3150432 -0.26213706 -0.17036477
-0.099666364 -0.2494691 -0.26531404 0.04076133 -0.14623155 -0.29133847 0.08963949 -0.16828491
-0.17447117 -0.2030709 -0.15944396 -0.2680847 -0.33308753 -0.21867323 -0.14495133 0.028069725
-0.44004917 -0.27364928 -0.10554083 -0.14548363 -0.33841786 0.3380031 -0.019825738 -0.1683093
0.1002839 -0.10906476 -0.16392341 0.051778216 -0.2655248 -0.2954552 -0.04917116 -0.11509907
-0.14096831 -0.045391813 -0.047730092 -0.0035981748 -0.24249856 -0.23052591 -0.12769921 -0.084769905
-0.26858678 -0.216105 -0.25302175 -0.22872135 -0.071690015 -0.308804 -0.28329214 -0.21305113
-0.29856357 -0.15669075 -0.042726185 -0.3757444 -0.21169363 -0.07906103 0.022257801 -0.39975232
-0.38564175 -0.23463535 -0.1175024 -0.11703257 -0.24892603 0.077653185 -0.15675054 -0.32976285
-0.08601318 0.059977345 0.054428507 0.027169034 -0.060825042 0.05784779 -0.22146034 -0.22931397
-0.16469719 -0.18721913 -0.18341735 -0.19928592 -0.37005582 -0.2342608 -0.27694038 -0.34064955
-0.36023605 0.025781795 -0.12773828 -0.11339308 0.0043810327 -0.37509054 -0.1874597 -0.16027795
-0.4035807 -0.10358712 0.044875547 -0.09040238 0.1470991 -0.10436145 -0.22818214 -0.22596534
-0.07381384 0.026654242 0.083450325 -0.14218315 -0.0013182238 0.096768394 0.047909934 -0.12734765
-0.0008022375 0.18213971 0.1842929 -0.057583675 0.0019555786 0.020257985 -0.09859739 0.05873663
-0.05210905 -7.2460156e-05 0.060727436 0.0009305458 0.09892867 0.002445812 -0.0021951834 -0.027070582
0.1136787 -0.18196887 -0.09313682 -0.1193753 0.06423268 -0.041618545 0.066151276 -0.26898307
0.12536082 -0.03579841 0.09352782 -0.08373416 -0.16776583 0.20495065 -0.050522722 0.052362636
-0.014529602 0.059085354 0.15277499 0.08809494 0.033968467 -0.011856 -0.049066007 -0.030239081
0.040558707 0.0969654 0.075667836 0.107221 0.033165842 -0.023384381 0.10694754 0.0064494964

lstm.bias_hh_l0 f4 [400]
00000000: 1090 143d 50da c1bd 2f20 3d3e 65ae 86bc
00000010: b1a6 20be 216f d2bd a71a a3bd 6d4f 80bd
00000020: e263 15be 9ea2 873d 19f3 ae3d 04c5 60bd
00000030: 8e50 b3bc cb4c 93bc afe9 823b e888 083e
00000040: 8c00 5d3d 19c0 aa3d 6b36 abbd d5b1 0ebe
00000050: 07f2 31bd d98f 44be aa6e 46be 0d20 3ebe
00000060: 10eb 1d3e a3a4 353d 81e3 cfbd 16af e0bd
00000070: ebe3 86bd 41ea f13c 6a4d 86bd 43ab 893d
00000080: 6ac7 c73c ff18 ddbd 6511 2fbe f01d c3bd
00000090: bcf1 a1bb f4e2 673e 4b7c 6a3c 7f41 b13d
000000a0: 36b8 1e3d cdbb 5fbe 65d5 86bc 6019 efbd
000000b0: 5004 0e3e 137f 5abd 86f0 1dbe 24a3 0ebe
000000c0: 247e e0bd 7342 bcbc de19 c43c 81e6 6ebe
000000d0: 2380 a0be 406d 2abd 881d f1bd caa5 86bd
000000e0: 9960 93bc 3644 6cbd baab 7ebd e510 1ebe
000000f0: 20cf 613e f97c 29be 696b 93bd 0c61 c83e
00000100: b07b 943d c7c5 8e3d 986d a73d 0f73 dd3d
00000110: a7a2 1a3b 8c40 153d 05b5 353d e7a3 2a3e
00000120: 2154 34be ac66 80bd 9ee7 d7bc 466d 45be
00000130: d28b 98bd 7023 b4bd 41ea 61bc e1c8 ddbd
00000140: 5595 10be bf2d eabd 4ffa ad3e f191 7bbd
00000150: f664 6b3d d995 02be 4146 05be 86e2 3f3c
00000160: e9ae dcbd 983f 40be 1063 f93a 9167 21be
00000170: 443b b83d 4e55 50bc 2890 c8bd 4be8 153e
00000180: 8cfc aabc 58aa 37bd 6c2d 10bd 89b2 013e
00000190: 5bf1 e6bd a1b1 3abe 7f77 8abe b817 93be
000001a0: dae5 6ebe 1434 0ebe 0504 b3bd aacc d73a
000001b0: 5eef e5bd f764 9dbe e76c 313e 926e 4cbe
000001c0: 7438 76be ecb5 2cbd 4c50 04be f90b 40be
000001d0: 28d7 9dbe e80f 82be 25fb 0ebe d9ab 7d3d
000001e0: 2eba debe 20db bdbe 3096 b0bd 4955 57be
000001f0: fff3 a4be b092 aa3e 6c93 2a3e 20ea 1fbe
00000200: 86fb 553c d395 cdbd 201b 26be 78d3 ef3c
00000210: 39bd 78be 02cd 2bbe 7ad8 2f3d d4e5 62be
00000220: 7023 1fbe 1517 6abe ca1b 7f3c 3692 9ebd
00000230: 2848 c0be 6665 07be 3626 6fbe 62a7 4ebd
00000240: d6d5 9ebe 0faa d4bd 9333 9ebe 0d64 80be
00000250: 9aec e0bb 19bd c1be bab5 80be 95e6 05be
00000260: a43f 62be cb4e 89bd 8fc2 3fbe e965 a2be
00000270: ea3c 69be e6e9 9cbd 4da3 cebc 9acb 8bbe
00000280: e2fd a8be da53 2ebe 4a03 053d d819 3dbe
00000290: 4a8f b6bd e88f bf3d 4f68 40be 2d4a 6cbe
000002a0: 2dee 15be 9ea8 fb3b 1b28 a5bc 5bd0 1d3e
000002b0: a835 5cbb 5de6 d1bb 2a42 f0bd 6d39 7fbd
000002c0: 80c9 85be 3134 2cbe 8904 c9bd 9fdc 3fbe
000002d0: 3ab6 abbe 344b 4ebe 5b9b 24be d884 84be
000002e0: f6a1 6cbe df20 89bd fd29 61be 8147 28bc
000002f0: 73cd acbc 87d3 3ebe 5aff 3ebe a9f3 cbbd
00000300: f166 98be bafe 3fbb ad17 fe3c 5ba5 08bd
00000310: 45b3 0c3e 4d3e 5fbe b92a 73be 10e9 49be
00000320: ed66 22bc 4e95 cfbd 8ad9 66bd aaa7 1abd
00000330: 8998 c3bd 129e 383d dfb7 bfbc bb74 f1bd
00000340: c2bc 38bd cb9a 393e a504 473e b216 cd3d
00000350: b963 95bb e9d5 1bbd 8556 69bd f1f4 79bd
00000360: beba 35be 5692 e53c 3a92 aabd f157 52bd
00000370: 5e5d 983c d9f9 c73d 8387 40bc 2cff 7d3d
00000380: 3ee4 1e3e 31e2 56be 4111 1fbd 6d38 32bc
00000390: 2544 253d 38f9 4abd 05b2 c63d 4738 63be
000003a0: 8706 483e 64fb 563d 2e56 9f3c 9028 12bd
000003b0: 9087 f8bc c144 583e f788 cabd 130c 603d
000003c0: 4385 953b f239 213d 8c16 bf3d e91a 01bd
000003d0: 1af0 723c 9934 eebb c472 dabd c355 e7bc
000003e0: 060e 803d 178b 0bbd 2be0 aa3d bdbc f23d
000003f0: d74c b73d d543 cf3d eaf0 0b3d 7c22 7c3d
0.0362702 -0.09465468 0.18469308 -0.01644058 -0.15688588 -0.102751024 -0.07964068 -0.06265149
-0.14588884 0.06622814 0.08542461 -0.05487539 -0.021888997 -0.017980954 0.0039951424 0.13333476
0.0539556 0.08337421 -0.08359989 -0.13935025 -0.043443706 -0.19195499 -0.19378152 -0.18566914
0.154217 0.044346463 -0.10150815 -0.10970895 -0.06586441 0.029530646 -0.06557734 0.06722119
0.02438708 -0.10795783 -0.17096479 -0.095271945 -0.004942147 0.2264517 0.01431186 0.086550705
0.038749896 -0.21848984 -0.016459176 -0.11674762 0.13868833 -0.053343844 -0.15423784 -0.1392942
-0.109615594 -0.022980904 0.023938116 -0.23330118 -0.3134776 -0.041608095 -0.11773211 -0.065745905
-0.017990397 -0.05768224 -0.06217549 -0.15436132 0.22051668 -0.1655158 -0.07198221 0.3913654
0.07250154 0.06971317 0.081752 0.10812961 0.0023595484 0.03643851 0.044362087 0.16664086
-0.17610218 -0.06269583 -0.02635556 -0.19279966 -0.074485436 -0.08795822 -0.013788761 -0.1082933
-0.14119466 -0.114345066 0.33980033 -0.061418477 0.05746933 -0.12752475 -0.13015081 0.011711722
-0.10775549 -0.18774259 0.0019026715 -0.15762164 0.08995679 -0.012715651 -0.097931206 0.14639394
-0.020872377 -0.044840187 -0.035199568 0.12665762 -0.11276504 -0.18231823 -0.27044293 -0.28729033
-0.23329869 -0.13887054 -0.08741001 0.0016464193 -0.11227296 -0.30741093 0.17326699 -0.19964054
-0.24044973 -0.04216568 -0.12921256 -0.18754567 -0.30828214 -0.2540276 -0.13962992 0.061931465
-0.4350142 -0.37081242 -0.08622396 -0.21028627 -0.32217404 0.3331504 0.166578 -0.15616655
0.013060456 -0.10038342 -0.16221285 0.02927564 -0.24290933 -0.16777423 0.042931058 -0.22157985
-0.15540862 -0.22860368 0.01557059 -0.07742731 -0.3755505 -0.13222274 -0.2335442 -0.050452597
-0.3102252 -0.103839986 -0.30898723 -0.25076333 -0.0068641426 -0.37839583 -0.25138646 -0.13076241
-0.2209459 -0.06704482 -0.18726562 -0.31718376 -0.22777143 -0.076618 -0.025224352 -0.27303773
-0.33006197 -0.17024174 0.03247384 -0.1846689 -0.08914049 0.0935362 -0.1878979 -0.23075171
-0.14641638 0.007680013 -0.020160725 0.15411513 -0.0033601318 -0.0064056353 -0.1173137 -0.062310625
-0.26130295 -0.16816784 -0.09815318 -0.18736504 -0.33537465 -0.20145875 -0.16074888 -0.25882602
-0.23108658 -0.06695723 -0.21988674 -0.010270954 -0.02109406 -0.18635379 -0.18652096 -0.09958584
-0.29766038 -0.0029296116 0.031017149 -0.03336082 0.13740261 -0.2180111 -0.23746766 -0.19717813
-0.009912235 -0.101358995 -0.056359805 -0.037757553 -0.09550578 0.045072623 -0.023403106 -0.11789843
-0.04510189 0.18125455 0.19435365 0.100140944 -0.004559007 -0.038045797 -0.056967277 -0.06102461
-0.17747018 0.02802388 -0.08328672 -0.0513534 0.018599208 0.097644515 -0.0117510585 0.06201093
0.15516755 -0.20984723 -0.038834814 -0.010877711 0.04034819 -0.04955408 0.09701923 -0.22189437
0.1953374 0.05248584 0.019450273 -0.035683215 -0.030338079 0.21119978 -0.09889405 0.054699015
0.004563005 0.0393619 0.09330472 -0.031519804 0.0148277525 -0.0072694537 -0.10666421 -0.028239137
0.06252675 -0.034068193 0.08343538 0.11852405 0.08950203 0.1012036 0.0341653 0.061556324

lstm.weight_ih_l1 f4 [400, 100]
00000000: e7ef 3bbe d53e a53e 8931 0fbe 6543 203e
00000010: 107b 773e 7f4d 7e3c f4c4 7e3e 6c49 20be
00000020: e486 753d c485 3b3e 6e5f 2c3e 68d7 45bd
00000030: fd6a 83be 465e 3b3e a1db 313d 7ba9 dfbd
00000040: 5bbb 183e 2a1b 7bbe a618 313c 642e 12bf
00000050: c615 7a3e 028f c2be 76fd 23bd ed69 a9bc
00000060: c97b 403e ced7 e63c 8ae1 febd f411 40bd
00000070: 49f1 ebbd f0e6 9cbd 790b f2bd b70e 98be
00000080: f733 3d3d 065b 0c3d c698 973e 7456 3bbd
00000090: 5e6b ba3d cbaa 86bd 65b6 b1bd d453 043e
000000a0: 3f09 bdba c2a5 0bbf 60ef a1bd 9c35 323e
000000b0: 9286 35be 4e83 bf3d 27ea 3a3e 5680 483e
000000c0: b077 1d3d 384b 4b3d f3d9 bebe 37a1 68be
000000d0: 4e87 8fbd 8fc0 73be 8428 c0bd b023 bbbe
000000e0: 360e 003c a292 9d3e 9740 883e 8f89 22be
000000f0: 3de7 593d 2064 c33e 3db1 d0be dbb7 68be
00000100: 1162 873e 1587 d1be 3437 a7be 8ec6 71bd
00000110: f5e0 d23c 531d 18be b6cf 8ebe 106b 5abd
00000120: 6af7 943e 92a1 b03e 0bf5 6bbd 2d0a c7be
00000130: 9ca2 a0be b4aa f83d 6d38 fd3e 2d29 423e
00000140: 3d1b a1bd b160 84be ca8d 853c 79dc 1abd
00000150: 0046 15be 4f5e 24be 3f61 693d f12a 393e
00000160: 019e 98be 13db 00be bae2 a0be 9b07 38be
00000170: 588a 2abe 2daa 9fbe 9dba 83bd 0819 4f3e
00000180: b909 fdbd 7de2 eb3e 39fb 923d 58ea b7bd
00000190: c3ed 2b3e 55f6 153c 3262 383f 2ca4 8cbe
000001a0: 8d46 873d b772 dabe afaf ddbe 2bce 2e3d
000001b0: a334 92be f9e6 a93e 0162 da3e 16eb fc39
000001c0: 9e50 993e e9f6 81be 5f7f b23d 2730 973d
000001d0: 4183 533e 3693 b0be 70c4 953e bf45 cbbe
000001e0: 16de 593d 554b cdbc 99e1 85be daea cfbd
000001f0: fa58 493e dc98 2a3e 1be4 20be 89fc 903e
00000200: fb25 9abe f4c8 8d3e c39f a43e 8fe4 2cbc
00000210: 02a3 79be ce50 a93d 0d32 5d3d 7045 b3be
00000220: a60d 5fbe f8e3 7b3c 257e 4ebe e94a 983e
00000230: c9e6 353e 8548 20be d51c 5a3e b0d8 423e
00000240: 2b12 25be 6eed 16bc 70ee b73e c692 51be
00000250: 04f3 05be 2032 073f 7426 a0be efac 373c
00000260: 098b 8dbe c54c f0bd 1cbc 0f3e c65d ed3e
00000270: cb67 2c3e 7fe6 b93d ec8b b63e f8e3 80ba
00000280: c194 e23c db38 93bd fb68 323d ab89 36be
00000290: 3a4f 0e3e 7d3e 14bd d02a 9a3d 2088 333f
000002a0: c25d d83e 9eb9 433e f7de 173e 4868 b9bd
000002b0: a522 80be 00b8 b73e 564c 61bd 4753 c33e
000002c0: 8248 90bd a804 81bd 06af 29be e926 513e
000002d0: 665f 0f3f d286 b2bd 6fa0 69be c761 05be
000002e0: 475c 3d3f 3b45 b13e ee30 2b3c ab77 e2bd
000002f0: d991 143d db21 c3bc 41b7 113f cd23 253e
00000300: 2bc9 67be 9f28 9ebd 7887 4d3d 3051 acbe
00000310: bc55 20be 9b36 e4be 53db 94bd a7d1 263c
00000320: 1cd4 8d3e 61b8 933e d0ea 763f 26a5 c1be
00000330: 73f8 603b bb94 7c3e e66d d7be ef63 283d
00000340: 1f49 f83e 52e2 8f3e 496c f13e cd86 9abe
00000350: c4a2 95bb d6ae a63e d74b b6bd 0a4b 74be
00000360: f5ee 7c3b e280 2e3e 256b 803d 6f2a bdbe
00000370: 727d f53d e38f 86bd 4538 723e b126 903e
00000380: d832 303e 510e 353e 54de 79be 7792 c23e
00000390: 86eb 84be 69df 993e 74b4 413c f0cf 0ebe
000003a0: 2b2d bbbd 7a84 033e e4a3 473c aeeb 92bd
000003b0: 1aac 3dbd 7d83 0cbd 5199 b53d e239 25bf
000003c0: b955 5d3e 9817 21be e01b 37bc 6a27 24be
000003d0: f7a2 82bb a79d 23be 9eb3 223f e5eb 003e
000003e0: e7a9 be3a bbb0 523f 581b 6abd 18d9 393e
000003f0: 7de0 05bf 7287 55be 8613 92bd c488 923e
-0.18353234 0.322745 -0.1398374 0.15650709 0.24168038 0.015521406 0.24879819 -0.15653008
0.059943095 0.18312746 0.16833279 -0.04830113 -0.25667563 0.18297681 0.043422345 -0.10920998
0.1491522 -0.24522081 0.010809099 -0.57102036 0.24422368 -0.3799973 -0.04003664 -0.020680392
0.1879722 0.028179076 -0.12445362 -0.04689212 -0.11520631 -0.07661235 -0.118185945 -0.29698727
0.046192136 0.034266494 0.29608744 -0.045736745 0.0910251 -0.06575545 -0.08677367 0.12922603
-0.0014422311 -0.545498 -0.07906985 0.17403263 -0.17727116 0.09351216 0.18253385 0.19580206
0.03844422 0.04963228 -0.37275657 -0.22717749 -0.07008229 -0.23803924 -0.09382728 -0.36550665
0.007815888 0.30775934 0.26611778 -0.15872787 0.05319904 0.38162327 -0.40760222 -0.22726385
0.26442006 -0.40923372 -0.32659304 -0.059027247 0.025742033 -0.14854936 -0.27892846 -0.05332476
0.29095012 0.34498268 -0.057606738 -0.3887495 -0.3137406 0.12141934 0.49457112 0.1896102
-0.078665234 -0.2585502 0.016302962 -0.037807915 -0.14577484 -0.16051601 0.056977507 0.18082787
-0.29808047 -0.1258357 -0.3142298 -0.17971651 -0.16654336 -0.3118452 -0.06432078 0.20224392
-0.1235537 0.46071234 0.07176823 -0.089802444 0.16789918 0.009152968 0.72024834 -0.27469003
0.06605253 -0.42665645 -0.43298098 0.042677086 -0.28555784 0.3318403 0.42652896 0.00048240338
0.2994432 -0.2538369 0.087157 0.07382231 0.20655538 -0.34487313 0.29251432 -0.3970165
0.053190313 -0.025060335 -0.2614868 -0.10152216 0.19662848 0.16659874 -0.15712015 0.2831767
-0.30107102 0.27692378 0.3215314 -0.0105525395 -0.24378589 0.082673654 0.05400281 -0.35013914
-0.2178255 0.015374176 -0.20165308 0.29744652 0.17763819 -0.15652664 0.21300061 0.19027972
-0.16120212 -0.009211881 0.359241 -0.20466146 -0.13080984 0.5281086 -0.31279337 0.011210664
-0.27645138 -0.117333926 0.14036602 0.46360606 0.16836469 0.09077167 0.35653627 -0.0009833565
0.027658822 -0.07188579 0.04355715 -0.17825954 0.1389741 -0.036192406 0.07527697 0.70129585
0.42259032 0.19113776 0.14831148 -0.09053093 -0.25026432 0.35882568 -0.05500444 0.38149473
-0.0704508 -0.06299716 -0.16570672 0.20425 0.5600494 -0.08717121 -0.22815107 -0.1302558
0.7396893 0.3462313 0.010448677 -0.11057981 0.036271904 -0.023819854 0.5692025 0.16126938
-0.22635333 -0.077225916 0.05017802 -0.3365569 -0.15657705 -0.4457291 -0.07268395 0.010181821
0.2770089 0.28851607 0.96452045 -0.3782131 0.0034327775 0.24666111 -0.42076033 0.04111093
0.48493287 0.28102356 0.47152928 -0.3018097 -0.0045665223 0.32555264 -0.08901184 -0.2385675
0.0038594578 0.17041352 0.06270436 -0.36946437 0.119868174 -0.06570413 0.23654278 0.2815452
0.17206895 0.17681243 -0.24401218 0.3800237 -0.2596094 0.3005326 0.0118228085 -0.1394651
-0.091394745 0.12843505 0.012185071 -0.071738586 -0.046306707 -0.034305084 0.088671334 -0.6454145
0.21614732 -0.15731657 -0.0111760795 -0.1603066 -0.003986712 -0.15978108 0.63555324 0.12589987
0.0014546484 0.8230092 -0.057154983 0.18149221 -0.52295667 -0.2085245 -0.0713263 0.2861997

lstm.weight_hh_l1 f4 [400, 100]
00000000: 9e2a 8dbd 0366 973d e43b 33be 4156 9fbd
00000010: 17fa 07be 2ade f8bd 8dcf 33be 22cb d8bd
00000020: 5fa4 ff3d 94b5 f1bd 9b2b d13d 78a4 f13d
00000030: 93c0 31be 9a6f 29be 1e4c 89bd a55e 383e
00000040: c16b 943e cd40 113d 05a4 033e 5bdc 333d
00000050: e7d1 443d 741c eabd 04c4 e5bc 0d34 34be
00000060: 9c83 1dbe ecd7 843e 4dec 5fbd ba0a e73c
00000070: 0ef6 a8bd 4bba b63d d72f 94bd f0c5 b9bd
00000080: b88a 2e3e 69f5 313a 9188 5e3c c2ca bbbd
00000090: 585c 8ebc 1749 8abd e907 053e 34d1 b03d
000000a0: 8f12 3ebc ccec a83c aaf7 53be dbb3 043e
000000b0: c1b1 f3bd 7241 003d f133 c73d b946 723e
000000c0: 1831 0ebe 8f69 3ebd 6bff 35be 1eb0 50be
000000d0: bd50 5e3d 85a5 00bd c729 d8bc 09f1 563e
000000e0: cb0e e3bc 4a83 6dbe 8216 e7bd f981 8b3d
000000f0: b45c e5bd beb0 61bd d150 b73c 4df3 633c
00000100: 228b a63d 57cd d63c 9d5a 1d3d 1da2 fdbd
00000110: 66ab a63d 47ea 98bc a379 1b3e 4a55 ae3d
00000120: bab1 043e 7649 723b 1489 89ba 79b2 60bd
00000130: 483d a7bc a145 b4bd b994 7fbe f075 ee3d
00000140: 2967 f13d 092d c83d 7fbf af3d dc88 a5bd
00000150: 0ba5 74be 55f1 71be a24e ec3d 6765 a9bd
00000160: 3387 643e fb9e ae3d b36f 36bb 7742 673d
00000170: 61c5 55be 1529 f5bd 50bb 5d3d 5440 523e
00000180: 29e4 03be e13e 73be a78d 2fbe 471d 293c
00000190: 4189 05be 5432 bebe 8264 fc3d 279b bb3c
000001a0: 6881 c3bd 20bb 5dbe 9d69 b03d 3669 9a3c
000001b0: fcfe 2a3d 1f5c b7bd bc0b 5cbc 1208 d63e
000001c0: 0de9 c93d 0fed 1b3e 52b7 c83e ad4b 8fbd
000001d0: bf50 443d 5718 ac3d 1851 3ebe 62ba c8bd
000001e0: 9f1c 003e 2d35 8f3d fe55 f33d 8897 0fbe
000001f0: 225a 7abd 611c 30be 5a2c 633d 820b 8a3d
00000200: 7a7a a7bd a61f 60bd 2fcb 3bbe 6528 03be
00000210: 4b7c 083e 86bd 563d 8150 233e 5b72 e83d
00000220: 9451 de3c 2715 7abe 5799 103d 5d14 e93d
00000230: 44a7 7b3e 6566 3b3d 57a1 a9bd 4875 89bd
00000240: 8537 1ebd fed7 99be b5ae 41be d617 24bd
00000250: 0a96 b53b 223d 93b9 1625 04bc ae5a 4cbd
00000260: ad34 083e 0558 923d 189c ea3d 224a 9abe
00000270: 9bb3 0e3b 2d07 0a3e 7648 49be 68b9 e53c
00000280: 8262 9c3d e6bf 08be d140 7bbd 6104 a2bc
00000290: e1af ef3d 859c 013e b955 86bc 7756 cfbc
000002a0: 5edd 203e 4391 5fbe cd70 b5ba 4484 2bbd
000002b0: 4edb ec3c 2717 eebd 3ec6 c33c 444e 863d
000002c0: 8943 94bd d7c4 453e c86b 3fbe fbb5 983d
000002d0: 03c0 103d 5e1b ff3c fab1 8cbe c66c 923e
000002e0: 7f04 86be d1d4 a33d 964b 363e 9b0b 69be
000002f0: cf1f 193e 0e01 0fbe be15 3d3e 084e c53c
00000300: 1629 03bc 4902 703e 9a6c 003f 9c98 0a3e
00000310: d2f3 d13c 94e0 703d 4fcb 16bd f2db 4fbd
00000320: 44c8 d5bd f5c4 f1be 1ec2 2b3e 26ff 29be
00000330: 2a9f 8ebe 8ae1 80bd d35f be3e 554e f2bd
00000340: 4aca 7d3e 2427 5a3c 9bf7 8fbd a8e3 8f3e
00000350: 2522 44be 1e15 553e e7ae d1bd 40db 0e3e
00000360: 8e6a fd3c 5a0b 733d d471 543c 55da babd
00000370: 1f87 9f3e bfdc 393e 692c 953b 5cca 3dbe
00000380: 3a8d 32be a444 093e 4aea 093e 944a 9dbb
00000390: 2733 5abe c4dc db3d 071b a9be 616b c3be
000003a0: 5e85 383e dce2 713e 8e54 36bd 6e08 2dbc
000003b0: abdd 3dbe 8cdb bf3c 4f69 0cbd 1636 c5bd
000003c0: 4927 eebd 72d7 d5bc 6304 4f3e 9888 50be
000003d0: af6d e7bc f121 173e 483a 67bd 3208 813c
000003e0: 882e 8abc a67e 85bd 008a 273e fc1d bcbc
000003f0: fbb0 cd3d db0e 2d3d 69db 2e3e 03f0 4c3d
-0.06892894 0.07392504 -0.17503315 -0.077801235 -0.13278995 -0.121517494 -0.17559643 -0.105856195
0.12482523 -0.118022114 0.10213395 0.11798948 -0.17358617 -0.16546479 -0.06703971 0.18004854
0.2898846 0.03546219 0.12855537 0.04391132 0.04805174 -0.11431208 -0.02804757 -0.17597981
-0.15382236 0.25945985 -0.054668713 0.028203357 -0.08250056 0.08922251 -0.07235687 -0.09070957
0.17045105 0.0006788583 0.013582365 -0.09169532 -0.017378017 -0.06752222 0.12991299 0.08633652
-0.011601104 0.020620726 -0.20699945 0.12959234 -0.11899138 0.031312414 0.09726704 0.23659791
-0.13885915 -0.046487387 -0.17773215 -0.20379683 0.054276217 -0.03140785 -0.026387108 0.20990385
-0.027717015 -0.23194614 -0.1128359 0.068119 -0.11199322 -0.055100195 0.022377403 0.013912988
0.08132006 0.02622096 0.038416494 -0.12384436 0.081381604 -0.0186664 0.1518312 0.08512361
0.12958422 0.0036970056 -0.0010493123 -0.054857705 -0.020414963 -0.08802343 -0.24959077 0.116435885
0.11787254 0.09774215 0.08581447 -0.080827445 -0.23891084 -0.23627217 0.115384355 -0.08271294
0.223172 0.08526417 -0.0027837574 0.05645987 -0.20876075 -0.119707264 0.054133713 0.20532352
-0.12880005 -0.23754455 -0.1714388 0.010321922 -0.1304064 -0.37147772 0.12323858 0.02290113
-0.09546167 -0.21653414 0.08613894 0.018848997 0.04174708 -0.089531176 -0.013430532 0.41803032
0.09858904 0.1522715 0.39202362 -0.06996856 0.047928568 0.0840308 -0.18585622 -0.09801175
0.12510918 0.06992564 0.11881636 -0.14022648 -0.061121114 -0.17198326 0.05546222 0.06740476
-0.081776574 -0.054717682 -0.18339227 -0.12808378 0.13328664 0.052426837 0.15948679 0.113499366
0.027138509 -0.24422131 0.035302486 0.11380837 0.24575526 0.045751948 -0.08282726 -0.06711823
-0.038627166 -0.300476 -0.18914302 -0.040061794 0.0055415677 -0.00028083572 -0.008065483 -0.049891166
0.13301344 0.07145695 0.11455554 -0.30134684 0.0021774534 0.134793 -0.19656548 0.02804251
0.076359764 -0.13354453 -0.06134111 -0.019777479 0.11703468 0.12657364 -0.016398298 -0.025309784
0.15709445 -0.21832757 -0.0013842821 -0.041874185 0.028913166 -0.1162551 0.02389824 0.06557897
-0.07239444 0.1931337 -0.18693459 0.07456585 0.035339367 0.03114098 -0.27479535 0.28598613
-0.26175305 0.07999576 0.17802271 -0.22758333 0.1495354 -0.13965246 0.18465325 0.02408506
-0.008005401 0.23438372 0.5016571 0.13534778 0.025628958 0.058807924 -0.036814984 -0.050746866
-0.10438588 -0.4722058 0.16773269 -0.16601238 -0.27855808 -0.06293018 0.37182483 -0.11831347
0.24784198 0.013314996 -0.07029649 0.28103375 -0.1915365 0.20808837 -0.10238438 0.13950825
0.030934598 0.059336998 0.012966592 -0.09123675 0.31157777 0.18150614 0.0045524132 -0.18534225
-0.17436686 0.1340509 0.1346828 -0.00480015 -0.21308576 0.10735467 -0.33028433 -0.3816786
0.18019626 0.23621696 -0.04451423 -0.010561092 -0.18541591 0.023420118 -0.034280118 -0.09629457
-0.11628587 -0.026103709 0.20216517 -0.20364606 -0.028250543 0.14759041 -0.056452066 0.015750978
-0.016867891 -0.06518297 0.16361237 -0.022963516 0.10043522 0.042250495 0.17075886 0.05003358

lstm.bias_ih_l1 f4 [400]
00000000: 6894 193e 4aad a63d 585c 42bd 7359 ac3e
00000010: b98c a63e de3a 093d b57d 7ebd 6419 853c
00000020: e091 56be 5d50 fbbc bbd9 5f3e 0a42 313d
00000030: 4bfb b53e 1280 ae3c bfa2 8a3d d10a c63c
00000040: e8f8 133e 77b2 b9bc 3418 1b3e 1908 2d3d
00000050: f7d9 2c3e 78de d73d 0715 43bd 9173 74bd
00000060: 44e4 1a3e 6b1f 463d 42b4 ddbd 5ba6 853e
00000070: 1cdc cf3d 311e 99bc 17b2 20be 937d 3dbe
00000080: a163 d73d bbc0 7abd 54b1 093e 1006 363d
00000090: ce5a 5d3e 0aad 843e 2723 20be afda f7bd
000000a0: acb3 1a3e 8506 a23d 30b6 653e 4620 10bd
000000b0: e256 333e 2024 813e 568d 553c e6c0 46bd
000000c0: 0915 04be ad0e 5a3e ccc3 b53d e770 edbd
000000d0: c422 fc3d 70ea cfbc 6d6a 26bd b2ac 11be
000000e0: 444e 81bb e367 afbd 3a30 d03a ab77 423e
000000f0: 54bd 8c3e 75a6 9abc caad 17bd 1886 d73e
00000100: 666e 00be 0638 b63e 49ea bcbd cdac c23d
00000110: 4a8c 2fbe 150d c23d 4402 983e 7eb8 0c3e
00000120: cecf 7b3d 3b55 373c 595a 5cbe 8a26 b63d
00000130: 0ddb 413e 6357 213e 3a64 83bd 995d 63be
00000140: da17 8f3d 9d87 43bd 79f2 50bb 269d a83e
00000150: d4ac 373d bd05 4d3e e4c4 22bb 233d aeba
00000160: 696a 453e 6536 d23d 952c c03d dfe8 1b3d
00000170: 3765 493c 43e9 efbc 7365 883d 1ecd 493f
00000180: 7e6a 72be c714 6a3e d42d 2f3e 9466 f73d
00000190: ff7b 873e 3882 14bd d53e 2cbc c05f 1f3e
000001a0: 9c67 f7bc 2aa0 4bbe 1192 9a3d fdf1 5ebe
000001b0: 51d1 41be 5be6 11bd 2245 0c3e 225e 4a3d
000001c0: cada e03d 766d 003c f5e4 053e bf62 4a3d
000001d0: 1370 633d d1d3 223e 135a edbc d114 563e
000001e0: b67b 2c3e d6be 913e 5480 bcbd e284 b9be
000001f0: d723 bc3d d2ec 813d b241 6cbd 9aab 0e3e
00000200: 7d63 613e 725e 86bc c347 4c3c 5038 03be
00000210: de15 e13d c43a b03d abf1 7b3c 03e2 c2bd
00000220: 8483 893d 547d 1d3d 4577 c13d 42d3 cebd
00000230: ba80 a93d 6371 1abd b2c3 b1bc f7c2 353e
00000240: 2bca f23d 782a 473d 89dc 52bc 3463 7c3b
00000250: a5d9 2dbd 2eb2 e33d 4836 cebd 0aea 92bd
00000260: df73 1b3d 93be 1ebe ad59 e03c 47ad 89be
00000270: 7dca 553e 86e8 a0be 43de b03d cee2 803e
00000280: fbf5 443d 301b 3fbe 492d 753d fb4a 673e
00000290: cfa2 0dbe a3dd 433e dce3 e5bb 0b5d 68bd
000002a0: 9dd7 c23d d6f0 5f3e 7c94 d2bd a1a2 333e
000002b0: ade6 273e 4dd7 623e 7038 983d ecbc 83be
000002c0: 2a00 2abd 716e 0d3c 3839 03bd 8866 7ebd
000002d0: e086 a23d 1c6e 50be 27bf 00be f4ba f9bc
000002e0: 4e83 36be 022a 23bd 9662 11bd aa27 ecbd
000002f0: 8bae 393e db61 563d 3912 d3bd 52a9 5d3e
00000300: 8a53 50be 4d0d 6cbe 45c6 a33b 3e94 b93e
00000310: 7dd7 1cbd 48b4 35bd 0e2a 8bbc 5c09 bb3d
00000320: 6d78 8c3e 58c1 ffbd 7237 8c3c 49d2 003f
00000330: bbfd 173f 417e 94bd b036 73be 9bc5 7f3d
00000340: f007 66bd 05a1 c5bd 8f71 b0be 5a92 2dbe
00000350: e801 903e 0ae0 303e 8b01 3cbd ddd5 35bd
00000360: da66 c1be d2ad 55be f768 8bbe a16f 293d
00000370: 8e97 75be 1bc6 b2bc 9a92 53bd 13d3 ebbd
00000380: b60b 33bd b9c5 7dbe e456 24ba 67f6 98be
00000390: 475a 8f3e a665 ad3d 573c 073e 5d26 aabd
000003a0: 250d 22be 354c 103d 5ad2 43bc 87c4 523d
000003b0: 890d 11bc acbf b1be c81f 50bd 6b81 993e
000003c0: 620c 2e3e 5656 083e 9e5b be3d 0e3f 25be
000003d0: 9200 bd3e 9c75 fdbd cdf2 9f3c c223 d83d
000003e0: 3344 1e3d 6ba9 813e 48d6 2e3e 73ad 14be
000003f0: a78e 71be 69e8 923d cb51 78bd 85f3 5d3d
0.14998019 0.08138521 -0.047451347 0.33661994 0.32529238 0.033503406 -0.062131602 0.016247459
-0.20954084 -0.030677969 0.21860401 0.04327587 0.35543284 0.021301303 0.067693226 0.02417508
0.14450419 -0.022668106 0.15145952 0.04224405 0.16880022 0.105404794 -0.047627475 -0.059680525
0.15126139 0.048369806 -0.10825397 0.26103482 0.101494044 -0.018691154 -0.15692936 -0.18504934
0.105170496 -0.06121896 0.13446552 0.044439375 0.2161667 0.25913268 -0.1563841 -0.121022575
0.15107602 0.079114 0.2243278 -0.03518703 0.17513612 0.25222874 0.013034185 -0.048523806
-0.1289865 0.21294661 0.08875236 -0.115938 0.123113185 -0.025380343 -0.04062884 -0.14226034
-0.0039460976 -0.08564737 0.0015883513 0.18990962 0.27488196 -0.018878201 -0.037030973 0.42094493
-0.12542114 0.35589617 -0.09224374 0.095056154 -0.1714336 0.094751514 0.2968923 0.13742253
0.061477475 0.011189754 -0.2151884 0.088940695 0.18931217 0.15755992 -0.06415601 -0.22203673
0.06986971 -0.047736753 -0.0031882806 0.32932395 0.044842556 0.2002172 -0.0024836594 -0.0013293367
0.19278874 0.10264281 0.09383503 0.03806388 0.012292198 -0.029286033 0.06659975 0.7882861
-0.23673436 0.22859488 0.17107326 0.12080112 0.2646179 -0.036257 -0.010513027 0.1556387
-0.030200772 -0.19885316 0.07547391 -0.21771999 -0.18927504 -0.035620075 0.13698247 0.04940618
0.10979231 0.0078385975 0.13075621 0.049410578 0.055526804 0.15901114 -0.028973615 0.20906378
0.16844067 0.2846591 -0.09204164 -0.36234194 0.091865234 0.06343998 -0.05767984 0.13932648
0.22010608 -0.016402457 0.012468281 -0.1281445 0.10990499 0.08604959 0.015377442 -0.095157646
0.06714538 0.0384496 0.09446577 -0.10098888 0.08276506 -0.03770579 -0.02169976 0.17750154
0.11854967 0.048624486 -0.0128699625 0.0038511278 -0.04244389 0.111179695 -0.10068947 -0.07173546
0.0379523 -0.15502386 0.02738651 -0.26890013 0.20878024 -0.314274 0.08636143 0.25173038
0.048086148 -0.18662715 0.05985764 0.22587197 -0.13831638 0.19127516 -0.0070156883 -0.056729358
0.09513781 0.21869215 -0.102822274 0.17542507 0.1639659 0.22152443 0.074326396 -0.25730073
-0.041504063 0.008632288 -0.03203699 -0.0621095 0.079358816 -0.20354503 -0.12572919 -0.030484654
-0.17823526 -0.039834984 -0.03549441 -0.11531003 0.18132989 0.052339416 -0.1030621 0.21646622
-0.20344368 -0.23051949 0.004998001 0.36245912 -0.038291443 -0.044361383 -0.016987827 0.091326445
0.27435628 -0.12488049 0.017116282 0.5032087 0.59371537 -0.072506435 -0.2375133 0.06244431
-0.056159914 -0.09649853 -0.34461638 -0.1695036 0.28126454 0.17272964 -0.04589991 -0.04439341
-0.37773782 -0.20867088 -0.2722852 0.041366223 -0.23983595 -0.02182298 -0.051653482 -0.115148686
-0.04371234 -0.24782456 -0.0006269051 -0.2987549 0.27998564 0.084666535 0.13206612 -0.083080985
-0.15825327 0.035228927 -0.011952007 0.051456954 -0.008853325 -0.34716547 -0.05081156 0.2998155
0.16996911 0.13314185 0.09294818 -0.16137335 0.36914498 -0.12375948 0.019524956 0.10553695
0.03863926 0.25324568 0.1707393 -0.1451929 -0.23589574 0.07173235 -0.06062488 0.054187316
