models/rand/random_bench_10-Jun-2020_06-00-28/22/state_dict.pt (torch_old, 555148 bytes, 6 tensors)

embedding.weight f4 [6, 10]
00000000: 7dfe b73f 80ba 1a3e 2dab a3bf 97d2 c8bf
00000010: f350 ed3f 9b49 393f c720 25c0 46bd 42bf
00000020: c257 73bf 7465 a83e 2e95 813f f401 12bf
00000030: 74ff e3bf b19f 95bf 9e37 24be 2146 14c0
00000040: e787 443f fb24 123f c508 0abf 8568 413f
00000050: 487c 6e39 f6e2 5bc0 de96 09c0 103c 94bf
00000060: 01ff 59be f369 8a3f c19d 36bf 5f78 38bf
00000070: 519b 24bf 5cc2 d53e bef9 1dbe 52ea 88bf
00000080: b317 15be c854 d63f 0125 e1bf c1a9 db3e
00000090: edc2 413e 5cfe c8bf f18b adbe 3258 d7bf
000000a0: 8d60 ac3f 6e6f 7f3e 8925 36bf 40f3 ff3f
000000b0: 4e44 993f fb32 25be d05c 05c0 a755 b93e
000000c0: 262f ad3f 72ba 83bf b824 81bf 578e 0c3e
000000d0: e8a2 2b40 885f d93f b6c5 3ebf 1c08 94bd
000000e0: 273f a0bf 38bb 763f 077c f2bf f80c 813f
1.4374539 0.15110207 -1.2786614 -1.5689267 1.8540329 0.7237794 -2.5801256 -0.7607006
-0.9505578 0.32889903 1.0123651 -0.5703423 -1.7812333 -1.1689359 -0.16036841 -2.3167803
0.7676987 0.5708768 -0.5391963 0.7555011 0.00022743747 -3.4357276 -2.1498332 -1.158083
-0.21288683 1.0813583 -0.71334463 -0.7205867 -0.64299494 0.41749847 -0.154273 -1.0696509
-0.14559822 1.6744623 -1.7589418 0.4290295 0.18922015 -1.5702624 -0.3389583 -1.682379
1.3466965 0.24944851 -0.71151024 1.9996109 1.197397 -0.16132729 -2.0837898 0.3619816
1.3530014 -1.0291274 -1.0089331 0.13726173 2.681818 1.6982279 -0.7452043 -0.07228109
-1.2519273 0.96379423 -1.89441 1.0082083

lstm.weight_ih_l0 f4 [720, 10]
00000000: ae88 b33d 7c14 e5be 8596 5dbe f663 8dbd
00000010: ef45 213b 8d8c 07bd db8b 9cbe ab99 da3d
00000020: 854b 17be f8c9 1e3e 5843 e73c 143b 8a3d
00000030: 4041 213e 33ee e0bd 8f61 393e 04a1 5ebd
00000040: 2c4c 99be 3d5a fb3e 56aa b1bd 3ad6 d03e
00000050: 713a f03e b17e 3f3d 73f6 bdbe 6e74 bbbd
00000060: db5e 043f 031a 9cbe e248 6ebe d16b 723e
00000070: d38d 6f3e 14e3 9abd 70ee 573e 36a2 083d
00000080: 2fb0 57be e78b 26bd a4d7 db3e f1a0 42be
00000090: 213d 1abd 695f a13e a14f 803e f1e0 563d
000000a0: a139 763e e72d 3abc 306d 353c 8aad cc3e
000000b0: 143d 27be 458f 1ebe 4f11 1bbe d625 4cbd
000000c0: 08ad 56bb ee64 7cbe 156b 833e 0246 fe3d
000000d0: 7c07 873c 4b22 993d 1629 b43e 3a7c 90bb
000000e0: 9ded 80be 82ad 8c3e 19fc 823e 1c4e 31bd
000000f0: 0968 273e e0da 51bd b466 52bd 40a1 89bc
00000100: 41c5 be3c 4596 78be 639e bebd 2d77 063e
00000110: 756f 67be 6f39 ff3d 8a5b eb3e bb5b 0dbf
00000120: 6d76 0bbf 125d e7be da90 483e 0427 e9be
00000130: d835 c93c 5336 01bd 2346 713d cc92 373e
00000140: cab0 7d3e 67ef 1fbe 418d 74be 4f23 a0be
00000150: acd3 c83e f10f 123e 7a0e 7fbd 890c 3fbc
00000160: 1bb2 1c3e f253 0d3e 7f9f 373f 0438 bd3d
00000170: 83af 03bf b803 adbe fe87 653f a8ca aabe
00000180: 7317 86be add6 f43e e8d0 c63e 3431 2d3e
00000190: d78e 6a3d 5627 1abe c1c1 2cbe 9592 31bf
000001a0: f0b3 1b3d 8cc4 0abe 00ca ef3e cb0e 09be
000001b0: d5e9 e4bd 55e9 9f3e 1e94 41be 6efa cabd
000001c0: 0188 e83d 50d4 b43e 0521 56be 1349 f53e
000001d0: 6298 84be 3d5a 91be 0105 6d3c e9e7 b5be
000001e0: f211 a5bd 2dde 22be d599 5cbe 6ddb babe
000001f0: c718 a1bd 0216 6bbe c541 b33e d958 3c3e
00000200: b5e4 94be 4340 a93e 3b39 e63e 1272 ac3e
00000210: b9a9 6cbe c454 a0be 6a2f 003f e8ac 66bf
00000220: 5732 04bd 9e4d 503f f8b5 c93d 2a84 fe3e
00000230: dd85 cc3d 742c a3bd ab04 2dbe 5ad8 dc3d
00000240: 096c 973d 067d 1fbd 05af 2abe b7f4 6b3c
00000250: a57c 00ba e670 3c3d 3882 c33e 1392 0fbd
00000260: 91bd 92be a018 093c 532b 3a3c 1eee 39bd
00000270: dc46 ad3d 0a4c 8ebe 6eb4 aa3e 29d0 9ebe
00000280: 19bb c4be e08c 40be 5685 0e3e 609f 01bd
00000290: 2e11 d1be 777e 343e cc3d 383e 6885 f3bd
000002a0: 3b6c b2be 918a 60bc 7484 183f 71b5 243d
000002b0: 2fb2 08bf 92ab 00bf bf63 3f3f 88e5 c4be
000002c0: 9b3e c5bd 6884 f93e b10c b53e cab5 cc3e
000002d0: d939 543f 4b04 8b3e 7f56 17be d2f8 bf3e
000002e0: cb51 223e 41cf 16bf 84b3 cbbd 54b7 c0bd
000002f0: 26a4 563e bd2e 02bf 2fd5 e73e e240 083e
00000300: 08ad cdbd 17a1 b93e c9cf 9bbc 8293 4bbe
00000310: b21a 84be 6ae9 98bd e935 893d 293a abbe
00000320: 3571 f73e 2d6f 4d3e 8d66 1dbe 8370 d13d
00000330: 6fe5 b53e 7818 5bbe cd6b 1cbe 5b30 a33e
00000340: 5af1 3d3e a90f 953b 24cb 3f3e 9307 303f
00000350: baa9 4f3e b589 3abd 00c5 d73e b7e8 24bf
00000360: aea1 5bbe 5a7d 753f 01a6 bc3c 099c 063f
00000370: 5cf0 f43b d2b6 7abe 73ed 3bbe ce70 b5be
00000380: 71ad 143e 2b2b a7be d7c0 ecbd 5c90 b23e
00000390: bd69 7bbe 7d47 053f dc1d 443b 43c9 00bd
000003a0: 7384 7ebc d594 38be 7f89 fabc 645e 30bd
000003b0: 138b 753e c490 03be 1119 16bd 0ca0 7f3d
000003c0: df97 603e c2e7 093e c668 74bb 4b89 a23e
000003d0: ba9e c23e 5f79 ea3d 76c7 edbe de4e 2c3e
000003e0: 4622 213e 54e4 62be c71c 9abe 31d5 3dbc
000003f0: 8465 003e 4ac2 233e 2385 e6be 5c98 cb3e
0.08766304 -0.4474219 -0.2163945 -0.06903832 0.0024608334 -0.033093024 -0.3057545 0.10673841
-0.14774902 0.15506732 0.028230354 0.067495495 0.15747547 -0.10982933 0.18103622 -0.054352775
-0.29940927 0.49092284 -0.08675067 0.40788442 0.46919587 0.04675168 -0.37102088 -0.091530666
0.5170724 -0.30488595 -0.2326999 0.23673941 0.23393945 -0.07562843 0.2108705 0.03335782
-0.21063302 -0.040660765 0.42937958 -0.19006707 -0.037655953 0.31518105 0.25060752 0.052460615
0.24045421 -0.011363483 0.011073396 0.3997615 -0.16331893 -0.1548434 -0.15143321 -0.04984077
-0.0032756943 -0.24647877 0.25667635 0.12415697 0.016483061 0.07477244 0.35187596 -0.00440934
-0.25181285 0.27476126 0.2558296 -0.04328738 0.1634828 -0.051234126 -0.051367477 -0.016800523
0.023287417 -0.24276073 -0.093075536 0.131314 -0.22601111 0.124621265 0.45968276 -0.55218095
-0.5447758 -0.45188195 0.19586506 -0.4553758 0.024561808 -0.03154595 0.05890478 0.17927092
0.24774471 -0.15618668 -0.23882009 -0.31276938 0.39223993 0.14263894 -0.062269665 -0.011660703
0.15302317 0.13801554 0.71727747 0.092392 -0.51439685 -0.337919 0.8966063 -0.3335774
-0.26189765 0.47820035 0.38831258 0.16913301 0.05726513 -0.15054068 -0.16870786 -0.6936429
0.0380134 -0.13551539 0.468338 -0.1338455 -0.111774124 0.31232706 -0.18904158 -0.09911047
0.11354066 0.35318232 -0.20911033 0.47907314 -0.2589751 -0.2838916 0.014466525 -0.35528496
-0.080600634 -0.15905066 -0.21543057 -0.36495534 -0.07866054 -0.22957614 0.35011116 0.18393268
-0.2908074 0.3305684 0.44965538 0.3368078 -0.23111619 -0.3131467 0.5007235 -0.90107584
-0.03227457 0.81368434 0.09849161 0.49710208 0.0998647 -0.07967463 -0.16896312 0.10783453
0.07393653 -0.03893759 -0.16668327 0.014401606 -0.0004901386 0.046006106 0.38185287 -0.035051417
-0.28660253 0.008367687 0.011362868 -0.045393102 0.08460781 -0.27792388 0.33340782 -0.3101819
-0.38423994 -0.1880374 0.13918051 -0.031646132 -0.4083342 0.17626368 0.17992324 -0.118906796
-0.34848198 -0.013704912 0.5957711 0.0402121 -0.53396887 -0.50261796 0.74761575 -0.38456368
-0.09631082 0.4873383 0.35361245 0.39982444 0.8290077 0.27151713 -0.1477909 0.37494522
0.15851514 -0.58909994 -0.09946349 -0.09409967 0.20961055 -0.50852567 0.45279834 0.13306001
-0.10042769 0.36255714 -0.019019978 -0.19880489 -0.25801617 -0.07466395 0.06699736 -0.3344281
0.48328558 0.20061941 -0.15371151 0.10226538 0.35526606 -0.21396053 -0.15275498 0.3187283
0.185491 0.004548986 0.18729836 0.6876156 0.2027959 -0.045541484 0.42142487 -0.64417595
-0.21448395 0.95894396 0.023028376 0.5258184 0.007474942 -0.24483803 -0.18352298 -0.35437626
0.14519288 -0.32650122 -0.11560219 0.34875762 -0.24552055 0.5206221 0.0029925024 -0.031441938
-0.015534508 -0.18025525 -0.030583141 -0.043058768 0.23978834 -0.12848192 -0.036645 0.062408492
0.21932934 0.13467315 -0.0037293895 0.3174537 0.38011724 0.11448931 -0.4644124 0.1682696
0.1573573 -0.22157413 -0.3010008 -0.011586473 0.12538725 0.15992084 -0.4502345 0.39764678

lstm.weight_hh_l0 f4 [720, 180]
00000000: b46d 803e f2bd a7bd 2dd5 2dbe a81c c63d
00000010: 1414 133e f5c9 5a3e 6a56 343e 0c54 e73e
00000020: 1227 513d f650 ea3d 40ea 85bc 1830 003e
00000030: f875 123e 884a 23be c969 8f3d 1a6f 203e
00000040: ec8d 62be e120 c7bd da35 923d d813 ec3c
00000050: 8751 97bc 56a8 c2bd 07c6 a9bd 28aa 2e3e
00000060: c4fd 6b3d 9f6f b5bd 486b 473d 2a10 c2be
00000070: f7a7 aabe 63de 0bbe 1a08 7e3e d3be 0dbe
00000080: 228e c0be ff61 b53d efdf 7fbd f8a8 9bbe
00000090: f5fb 82be fa49 9dbe 71e7 cabd 02ca 22be
000000a0: a96f 9dbd 98d1 3a3e 2df7 ab3c 5ebb 49bd
000000b0: 3f67 e0bd 8235 0c3e 1f14 ba3d 293a 2c3e
000000c0: b125 6ebe ac48 443e 208c 94be 62c2 223c
000000d0: 5466 acbd 1e8c e83d 27be 40be 193e 313e
000000e0: 487b a53e 36c6 b43e f18f c93e 196c 073e
000000f0: 6216 803e de7f 8fbd cac8 9d3d b7a3 323d
00000100: e8d9 5b3e 7b95 593e b02c a73c e309 0f3e
00000110: 0ca5 d0bd bd92 5b3e b2bb 073e e59b dc3d
00000120: 5e83 a83e afab aebd 4331 4abe 7d25 8bbe
00000130: 0518 a53e 38f6 c5be 45e5 1ebf d622 82bd
00000140: 18a3 bf3b 8762 c0be 8c7c 24be 52d5 04be
00000150: 9b52 093e 1235 77be ccf8 d6bd 3043 f3bd
00000160: f540 a2be 42cd 273e 8ac7 c23d 150f efbd
00000170: 31ad 49be 7cad f3bd 0841 cf3d 74d5 5dbe
00000180: d31d 00bb 676d 4a3e 1816 1ebe 029b 9a3c
00000190: 9d2a dcbd 5fc8 17be bd29 84bd 711b 07be
000001a0: 9602 df3e 0373 acbe ade5 68be acf7 a1be
000001b0: 8dba 14be 19b0 b83e a09e d5bd 8695 86be
000001c0: 1d3b b3be a4f8 9fbd 7e92 853d 9ed3 913e
000001d0: 4ac8 af3e 3d26 c13e 7d72 b2bd 359e 873e
000001e0: 777e 323e 0262 6d3d 8b39 823e 30e4 693e
000001f0: ec1f 843e 5def 333e 0521 64be 1d25 b03e
00000200: 70c1 7cbe e6e4 af3e 5f7b 823e 685c 05be
00000210: 672f 1a3e 5d06 b8bd e50b 9cbe c201 1d3e
00000220: 4833 31be 2227 393e 6bcd c43e a516 cd3e
00000230: d07a 8abd a6ab ec3d e2c0 88bc 400c 51be
00000240: 9d07 f23e 71bf 28be 36aa 943d 1a53 733e
00000250: bf06 a0bd 2e88 5b3e 9c0b 7bbe 835e f0bd
00000260: f1b4 35be 23ef 0abe 2935 ef3b 5f53 b5be
00000270: c3dd 54be 2680 8abe c964 a13d 7cd3 113e
00000280: 45b7 733c bba4 d9bc cc3a c1be 101f 70be
00000290: 2515 bd3e ca85 793d 21e8 14be 60aa 91bd
000002a0: 2054 8ebe 325e dabd 04b4 92bd 2e47 533e
000002b0: 94ab 0bbe a002 adbe 6c44 b63d 3213 8e3e
000002c0: 7722 073e 8cc6 903e 93c1 bdbd c907 c53e
000002d0: 3d16 673e 4444 4f3e 2fdd 4d3d 0ea9 62be
000002e0: 85c6 203b 30ec c5bc 9c82 c9bd 883e 493c
000002f0: 2cb4 c23d 3fb7 5bbe 0a95 85be 0956 703e
00000300: 9332 30be e871 8d3d 56a3 fb3d 1fab 393e
00000310: 845d 3dbb 4d0e 463d 1944 003e 00cd 6dbe
00000320: ccdc ebbd 98fa 44bd 2efe 3b3e 9bf7 58be
00000330: e90c a8bd c420 56be 8723 bc3e dc04 ef3c
00000340: c18b 1a3e eaaf e2bd f18c 503e a33f c6bc
00000350: bfd3 94be 8ff4 823d 4338 883d ef8e 403e
00000360: accf 4c3e c03c b3bc 4507 a3bd 0fb2 c83d
00000370: 276b 4d3e c554 c9bd 3742 673e 14b3 f7bd
00000380: 9fcf 82be 7a6f c1be 06cb 2d3e bd30 c7bb
00000390: d711 763e 7f01 e1bc f001 45be af35 403d
000003a0: 92f5 ecbd fe32 9abd 2dfa e0bb e5ed 1fbe
000003b0: a699 7a3d 127c 33be e2e7 953e efdc 08bd
000003c0: 032f ccbd 9592 593e 56ee 09be aa9f afbd
000003d0: d218 573e 5f23 25be 447b 953e 4e77 1cbe
000003e0: a821 c6be 24eb 03be bc13 9ebe 8f38 4d3d
000003f0: e65c 3a3e 0b43 563e bc3e ea3d be68 9c3c
0.25083697 -0.08190526 -0.16975851 0.096734345 0.14363128 0.21366103 0.1761109 0.4518131
0.05106265 0.11441223 -0.01634705 0.12518346 0.14302814 -0.159464 0.07002599 0.15667382
-0.22124451 -0.09723068 0.071391776 0.028818056 -0.018471492 -0.09504764 -0.08289724 0.17057097
0.057615057 -0.08859181 0.048686296 -0.37902957 -0.33331272 -0.13659053 0.24807778 -0.13842325
-0.3760844 0.08856582 -0.06246942 -0.3040235 -0.25582853 -0.30720502 -0.09907425 -0.15897372
-0.07687313 0.18244016 0.020991886 -0.049250953 -0.10957193 0.13692287 0.09085869 0.16819061
-0.23256566 0.19168347 -0.29013157 0.00993404 -0.08417955 0.1135485 -0.18822537 0.17308845
0.3232062 0.35307473 0.3936763 0.1322483 0.25017077 -0.070068106 0.07704313 0.043613162
0.21469843 0.21248429 0.02040705 0.13968615 -0.1018773 0.21442695 0.13255194 0.10771922
0.32912725 -0.0852884 -0.19745354 -0.2717704 0.32244888 -0.38664412 -0.6206859 -0.06354301
0.0058482997 -0.3757517 -0.16063136 -0.12972 0.13410418 -0.24141338 -0.10496673 -0.118780494
-0.31690183 0.16386893 0.09510715 -0.116727985 -0.19694974 -0.11898324 0.101198256 -0.21663457
-0.0019549027 0.19768296 -0.15438116 0.018872742 -0.10750315 -0.1482253 -0.064532734 -0.13194062
0.4355666 -0.33681497 -0.22743864 -0.3163427 -0.14524288 0.36071852 -0.10430646 -0.26285952
-0.35006037 -0.07811096 0.06522082 0.28481764 0.34332496 0.37724486 -0.08713243 0.2648789
0.17431055 0.057954796 0.25434527 0.22840953 0.25805604 0.17571779 -0.22278221 0.34403315
-0.24683166 0.34354323 0.2548475 -0.13023531 0.15057145 -0.08985589 -0.30477825 0.15332702
-0.17304718 0.18081334 0.3843797 0.4005634 -0.06761706 0.11556177 -0.016693536 -0.20414829
0.47271433 -0.16479279 0.07259028 0.2376217 -0.07813787 0.21438667 -0.24516147 -0.11736777
-0.17744805 -0.13567786 0.0073000384 -0.3541517 -0.2078772 -0.27050894 0.07880551 0.14240831
0.014875238 -0.026567807 -0.3774017 -0.2344935 0.36930194 0.060918607 -0.14541675 -0.071125746
-0.27798557 -0.106624976 -0.071632415 0.20632622 -0.1363967 -0.33791065 0.08899769 0.2774902
0.13196741 0.2827648 -0.09265437 0.38482502 0.22567077 0.20240885 0.050259765 -0.22134802
0.002453239 -0.024160475 -0.09839365 0.012282975 0.09507021 -0.21456622 -0.2609027 0.2347032
-0.17206793 0.069064915 0.12287013 0.18131684 -0.002889485 0.048353482 0.12525977 -0.23222733
-0.11516723 -0.048090547 0.1835868 -0.21188204 -0.082055874 -0.20910937 0.36745855 0.029177122
0.15092374 -0.11068709 0.20366265 -0.024200266 -0.290678 0.06394302 0.06651356 0.18804525
0.20001096 -0.021879554 -0.07960371 0.09799587 0.20060407 -0.09830622 0.22583853 -0.12094703
-0.25549027 -0.37780362 0.16971979 -0.006078808 0.24030243 -0.027466534 -0.1923902 0.046926197
-0.11570276 -0.07529257 -0.006865761 -0.15618093 0.061181687 -0.17527798 0.29278475 -0.033413824
-0.09969904 0.21247323 -0.13469824 -0.085753754 0.21005562 -0.16126774 0.29195607 -0.15279886
-0.38697553 -0.12882668 -0.3087443 0.050102767 0.181995 0.20924012 0.11437747 0.019092914

lstm.bias_ih_l0 f4 [720]
00000000: 4797 5b3e efb5 873d 40cc b23d 2bfc 20be
00000010: ddea 913e afeb 00bd 5611 c63d a13c 563e
00000020: c5ed 56bd acf5 653d f20e 2bbb 3acf 093e
00000030: 2779 803d 5d8c fbbc ded4 ac3d 8769 923c
00000040: b946 ba3d 96f7 48bc 630b 783e 0b85 6f3e
00000050: b472 b73d a08c dfbb c3a4 2c3e 1fd6 02be
00000060: 5d3b 063d 776d f5bd 8d2b c0bd 4a5c 333e
00000070: 39af 14be 53c3 073e 52c5 dbbd 1139 b1bc
00000080: 9db8 893e 2e01 053e 72c4 13bd c855 53bc
00000090: de17 82be 6faa 80bc 0e35 0ebd 6f1f 2e3c
000000a0: 7968 203e 2da6 1d3f 4e7f 80bd 0157 b93d
000000b0: d7df bebd 5cd0 5fbe 6861 81be 0276 a33e
000000c0: bbe4 56bd 3287 bcbc 2b2f 2cbe 9c16 13bd
000000d0: 1f77 ea3d 1757 b73d bea9 82bd 21f6 c8bd
000000e0: aff0 8ebc 09c9 65bd b976 c3bc 5b2a 583e
000000f0: bde7 823d b5b8 7e3d 2131 9e3e 1a4e b43d
00000100: e494 9039 4e8f 4cbb 305d b73d 56cf 0f3e
00000110: d654 10be e476 70bd ccfb f3bd 41f0 c6bd
00000120: 70d7 b53e eb76 783c 067a 283d d5d2 a0bd
00000130: efcb b03d e803 bdbd 73c1 b73e 2599 413e
00000140: 8773 af3d 027d 2fbb 39ef 253c c976 413d
00000150: 74da 5f3e f8b0 ddbd 81d9 003e bcda 4bbe
00000160: 50c7 183e a94f dd3e 0b79 f23d 224d 1a3e
00000170: e896 2d3e e557 bd3c cfe4 a23d e4e3 293e
00000180: ebbb 283e 146b d53d 272d 833e e499 35bd
00000190: b993 76bd 1aae 8e3d 1417 eebd 2a3d 323b
000001a0: 00eb 9b3e 83d4 0cbb 626e 383e 1a0a 8a3e
000001b0: a586 a33d dfa8 debd 0720 823d eefa dd3d
000001c0: eab3 08be 4b6f 203f f5f3 0fbd c0a9 2f3d
000001d0: 01e8 39be f645 893b 3638 16be 18f5 c9bd
000001e0: 04f6 31bc a1ec 09be 0d31 90bd d6b1 613d
000001f0: 01fd 373d e65d 32be ddcf 99bc ed82 343b
00000200: ce55 56be 59a1 373e 5692 febc f349 c83d
00000210: 33ba 9a3a bb4c 58be fe6b 993d 83bf d43d
00000220: 4285 0d3e 0ce9 413e d3ec 28bc eb5a 6cbe
00000230: 04e0 6bbd 4644 7cbe 76f8 03bd e07a 5b3e
00000240: 2274 8e3e f589 f73d 47cb 61bc 59f9 073e
00000250: 10bc babc d06c 1fbe 8ffa 923c 212c 0d3f
00000260: 0269 ab3d 6994 aebd ec3e cdbd 4c38 813e
00000270: aa8f f7bc 4186 483c 5641 4f3e 693b ad3d
00000280: 83df e5bd c9cd 813d 6630 303d 6aa9 803e
00000290: 74a1 213d c271 283e ef9f dd3b 53b7 733e
000002a0: 1da4 313e e1d8 1e3e cd89 44be 6d89 7cbd
000002b0: fcc1 55be f8c8 813c 1257 7dbd 41c8 8f3e
000002c0: dbe3 9b3c 30c3 ed3d a2f9 d2bd 5d50 8d3e
000002d0: 7e11 93be d6e8 0ebe 1c2c dabd 7b4e 87be
000002e0: 2f55 063d 1be2 23be 869b 9abd d761 55bd
000002f0: 8c63 59be 8a22 0abe b9b7 ab3c 117e 42be
00000300: 99f5 e9bd 2ce0 9abd c1ef 0abe 8686 22be
00000310: d67d 49be 7435 1bbe 16be a8bc a2c7 2c3c
00000320: 696e 2bbe dfa2 cabd a1a6 87be 9ca0 d2bd
00000330: e337 abbd 1f6e 86be 7558 ff3c 4f6c 1dbe
00000340: 9942 36be 5ee2 14be c172 4dbd 76a4 55be
00000350: 9844 03be 5e35 41bd 5a45 91be 0f46 36be
00000360: 849a cebd ee6d 4fbd ccab 54be d0ef 20be
00000370: ffa0 e23c 52eb 063e e7be 95be 31b3 c2bd
00000380: 0612 75bd 5bdf 83be 4778 8fbd 3a62 abbd
00000390: a479 6ebe 1590 21be c81a 36be 92c1 e5bd
000003a0: 5ab2 1c3d e5ae 2abe d0f3 d8bd b1b2 35be
000003b0: 82af 51be da42 12be 26a1 cfbd 2afb db3d
000003c0: 85a3 44bd 13c7 3ebe f2ee 99bc e45a 95bd
000003d0: 6f50 7fbe c0fa 07be 8f9d 45be 084d d0bd
000003e0: 9d7f d3bd 42d1 58be f889 ddbd 633a e9bd
000003f0: 08e5 433e cfdd 93be ca2b 83be dd05 a1bc
0.21444426 0.06626498 0.08730364 -0.15721194 0.284995 -0.031474765 0.09671275 0.20921566
-0.05247285 0.056142494 -0.0026101437 0.13457957 0.06273108 -0.030706579 0.08439039 0.017872585
0.090955205 -0.01226606 0.24223094 0.23390596 0.08957425 -0.0068221837 0.16859727 -0.12776993
0.032771457 -0.119837694 -0.09383307 0.17515674 -0.14519967 0.13258104 -0.10730995 -0.021633657
0.2689866 0.12988731 -0.036076017 -0.01289887 -0.25408834 -0.01570627 -0.034718566 0.010627612
0.15664853 0.6158169 -0.062742814 0.09049798 -0.09320038 -0.21856827 -0.25269628 0.3192597
-0.052464228 -0.023013685 -0.16814868 -0.035910234 0.11448502 0.08952158 -0.06380032 -0.0981257
-0.017448751 -0.056099925 -0.023860322 0.21109907 0.06391857 0.06218787 0.30896857 0.08803959
0.00027576752 -0.0031213346 0.08953321 0.14043936 -0.14094862 -0.058707133 -0.11913261 -0.097137935
0.35515928 0.015165071 0.041131996 -0.07852713 0.08632647 -0.09229261 0.35889778 0.18906076
0.08566957 -0.0026777391 0.010127836 0.047232423 0.21860677 -0.1082477 0.12582971 -0.1990766
0.14919782 0.43224838 0.11839493 0.15068486 0.16952097 0.0231132 0.07953798 0.1659084
0.16477935 0.10420814 0.25620386 -0.044336215 -0.060199473 0.06966801 -0.116254956 0.00271971
0.30452728 -0.0021488972 0.18010858 0.26960832 0.07984666 -0.10872053 0.06353765 0.10838877
-0.13349882 0.6266982 -0.035144765 0.042886496 -0.18154909 0.004189248 -0.1466988 -0.09861201
-0.010861877 -0.13469173 -0.07040606 0.05510124 0.044919018 -0.17418632 -0.018775875 0.0027543858
-0.2093117 0.17932643 -0.031075638 0.0977973 0.0011804759 -0.2112302 0.07491301 0.103880905
0.13820365 0.18936557 -0.01031037 -0.23081557 -0.057586685 -0.24635419 -0.032219373 0.21433592
0.27822977 0.1208686 -0.013781375 0.13278712 -0.022794753 -0.15568852 0.017941741 0.5514546
0.08369638 -0.08524401 -0.10021767 0.25238264 -0.030219872 0.01223904 0.20239767 0.08458597
-0.11224272 0.063380785 0.043014906 0.25129253 0.039460614 0.16449645 0.0067634503 0.23800401
0.1734776 0.1551242 -0.19193192 -0.061654497 -0.2087478 0.0158429 -0.061850615 0.2808247
0.019029548 0.11609495 -0.1030152 0.27600375 -0.28724283 -0.13956007 -0.106529444 -0.26427063
0.03279608 -0.16004221 -0.07549195 -0.05209526 -0.2122938 -0.13489738 0.02096163 -0.18993403
-0.11423797 -0.07562289 -0.13568021 -0.15871629 -0.19676909 -0.1515711 -0.020598453 0.010545643
-0.16741337 -0.098943464 -0.26494315 -0.1028454 -0.08360269 -0.2625589 0.03117011 -0.15373348
-0.17798842 -0.14539477 -0.050158266 -0.20863518 -0.12819135 -0.047170036 -0.28373224 -0.17800163
-0.10088065 -0.050641946 -0.2076866 -0.15716481 0.02766466 0.13175705 -0.2924721 -0.09506834
-0.05983164 -0.25756344 -0.07005363 -0.083683446 -0.2328859 -0.15777619 -0.17783654 -0.11218561
0.038256027 -0.1666828 -0.105933785 -0.17743947 -0.20477107 -0.14283314 -0.101381585 0.10741265
-0.048007507 -0.18630628 -0.018790696 -0.07292727 -0.24933027 -0.13279247 -0.19298385 -0.101709425
-0.10327075 -0.21173576 -0.10817331 -0.113880895 0.19130337 -0.28880164 -0.25619346 -0.019656116

lstm.bias_hh_l0 f4 [720]
00000000: 826d 893e 97fd f53c 5ae2 ae3d 7f02 09be
00000010: f577 b73e 17b3 a0bb 84d6 033e 4335 9f3e
00000020: 7dc1 f5bd 4d04 4c3d 6cbb 8ebb 29c5 9a3d
00000030: d865 d43d f653 a0bc e99b 0e3e 7ebd 78bc
00000040: 98e4 883d 0d0f 6dbd 89d6 ad3e dbba 963e
00000050: bb26 3c3d 18dc 71ba 5861 823e fb74 a5bd
00000060: 9277 9f3d 9bee 4d3a 495c a3bd 6d7b 503e
00000070: aef3 2bbe 1354 573e 5354 f5bd ec55 babc
00000080: 9038 6a3e c4a5 ae3d 692d 493c 1319 32bc
00000090: aa7b 34be 0fb9 f8bc 4ae9 973d 57de 753d
000000a0: 4853 eb3d 192e 0f3f 95ab 9e3d d813 bc3d
000000b0: f978 a5bd 2fec 0ebe f5f3 1fbe d9ec 833e
000000c0: c0d7 8fbc 766c b23d 0a6f 72be 9f2a 0b3d
000000d0: d3b3 273e ace6 033d 0908 b1bd dff9 97bd
000000e0: 0108 0abd a49b 58bd 4cd3 33bd d803 5b3e
000000f0: 0f73 d03d e8dd ad3d f801 bb3e 3243 093e
00000100: c29a 1fbb f125 12bd 4513 293d 11b7 e43c
00000110: 3095 e4bc 916a 0ebe 4857 f5bc 92ec d0bc
00000120: 26b6 d23e 5977 a0bd 6367 ce3d 4116 723c
00000130: 0f37 403e cdbf 87bc a324 6c3e e187 d93d
00000140: 48df f53c b06d 81bd c104 083d 4905 bcba
00000150: 23b3 023e ddf2 9abd c1a0 823d 7ed3 2dbe
00000160: 5eb4 313e de71 063f 4b66 0b3e cec6 133e
00000170: 120b f53d 4995 783d 7449 f63d 1313 c43d
00000180: 4fbc c13d 771a c1bc c02e b13e e123 9f3d
00000190: 9ee9 ecbd 676e 35bc 97f1 133b 7ba8 24bd
000001a0: 8f78 9c3e f31a be3d 7b53 ef3d 4f74 853e
000001b0: a4b7 873d 5a73 0bbd 6d48 ca3d 2141 1e3e
000001c0: 41e7 a3bd 2c03 023f d3cf c23c ae0c 443d
000001d0: 0954 34be b50f 3abc 195d c2bd b054 efbd
000001e0: ccd2 7abd e8a7 dfbd 0142 2dbd b9b0 00bd
000001f0: 2be0 b33b 6f67 abbd 706a 80bd 4527 683d
00000200: 1b49 41be 6482 913e 7a83 da3d 4a4f 103d
00000210: 9b98 133d 5efa 0abe 5de0 7e3c 876c 50ba
00000220: 61a5 603e 60b3 3e3e 0dfb d63c fbf3 1cbe
00000230: c462 07be 1af5 0abe 4bae 9ebd 9780 813e
00000240: 21b0 873e 3de8 733d 3449 843b 9432 e93d
00000250: a0c6 95bd ebdb e7bd 0f95 013d 679a 0c3f
00000260: 63c5 cd3d d069 0abe d93a f3bd 5cde 633e
00000270: 8e23 21bd e70c 80bc 7e5f af3d 3190 32bd
00000280: c1f4 81bd c2d6 0f3e d6ca d6bc 2b30 733e
00000290: 8096 833d d1d8 513e 7b37 7d3d d7f9 583e
000002a0: d4ea 033e 4daf 4c3d 39cf 14be d6e1 cbbd
000002b0: 06b1 14be d6f5 4d3d b398 77bc 51dd 993e
000002c0: 0ec6 443d 5e6d 733d 5a05 2bbe a704 a43e
000002d0: 253c 29be c9a0 4fbe 0153 42be ddcb 1abe
000002e0: b2f9 9cbd c5a7 40be d914 35be 5b92 2fbe
000002f0: 78ff 58be d9a8 00be 42a0 d53c 7133 a6bd
00000300: ab30 cabd 47eb 0dbd 2770 1bbe df4f e3bd
00000310: c5c8 80be 0737 bdbd fb1f bdbd fd37 01bd
00000320: 3eed 40be 70ac fcbd 477b 89be 5176 5d3c
00000330: a483 2b3b 5f6d 42be e042 913c 2969 88bd
00000340: 012b 66be 427a 30be 46e8 9a3c dc15 40be
00000350: 9960 57bb 467b 5fbc b21a 44be 64e7 1abe
00000360: 845d eebd 71b6 d3bd 8931 09be 4b93 f5bd
00000370: e10f 483d af14 693e 8e54 91be 7791 b1bd
00000380: 9f82 1ebe 31b1 86be 6794 373d 05bf 42bd
00000390: 23a5 33be 8157 96bd ceaf 13be f1bf dfbd
000003a0: 3600 8d3d 0ab3 e2bd 2748 0ebd 74fb 0fbe
000003b0: d4d3 4abe 057c 66be e9d8 fbbd da3f ac3d
000003c0: e39a c9bd ba26 80be 6128 38bd df1a fabd
000003d0: 91ec 7dbe 7751 e3bd 3745 80be 734f f2bd
000003e0: 827c 86bd 9c6c 65be 1127 5dbe 4439 5fbe
000003f0: 7219 483e e66f 49be b834 74be 2bd1 40bd
0.2684136 0.030028148 0.08539267 -0.13379858 0.35833707 -0.0049041617 0.128748 0.31095323
-0.119997956 0.04980879 -0.0043558385 0.075571366 0.10370988 -0.019571286 0.13926663 -0.015181897
0.06684226 -0.05787568 0.3395274 0.29439434 0.045935374 -0.0009226217 0.25464892 -0.08078953
0.07786478 0.00078556844 -0.07976586 0.20359583 -0.16792175 0.21028166 -0.11978974 -0.022746049
0.2287314 0.08527711 0.012278893 -0.010870236 -0.17625299 -0.03036168 0.07417543 0.060026493
0.11490494 0.55929714 0.077475704 0.091834724 -0.08079714 -0.13957284 -0.15620406 0.25766638
-0.017558932 0.087120935 -0.2367517 0.033976194 0.16377191 0.032202408 -0.08644111 -0.07420706
-0.03369904 -0.052882805 -0.04390268 0.21388185 0.10178196 0.08489591 0.3652494 0.13404539
-0.0024353717 -0.035680715 0.041278142 0.027919324 -0.02790317 -0.1390784 -0.029948846 -0.02550343
0.41154593 -0.07835264 0.10078313 0.014775814 0.18771003 -0.01657095 0.23060851 0.1062162
0.030013695 -0.06319749 0.03320766 -0.0014344837 0.12763648 -0.07565854 0.063783176 -0.16975209
0.17353961 0.525175 0.1361324 0.14431307 0.11965002 0.060689244 0.12025729 0.095739506
0.09459745 -0.02357219 0.3460598 0.07770515 -0.115679964 -0.011073685 0.0022574419 -0.040199738
0.3056073 0.09282484 0.116858445 0.260653 0.066268235 -0.034045555 0.09877095 0.15454532
-0.080030926 0.5078609 0.023780739 0.047863655 -0.17610182 -0.011356284 -0.09490413 -0.11686075
-0.061236188 -0.109206975 -0.042299274 -0.031418536 0.0054893694 -0.08369338 -0.06270301 0.056678075
-0.18875544 0.28419793 0.106696084 0.035231866 0.036034208 -0.1357207 0.015556422 -0.0007950742
0.21938087 0.18623114 0.026242757 -0.15327446 -0.1322127 -0.13570061 -0.077480875 0.2529342
0.26501563 0.05954765 0.004037047 0.113866 -0.07313275 -0.11321243 0.031636294 0.549231
0.10047414 -0.13516927 -0.11876459 0.22252792 -0.03934055 -0.015631152 0.085631356 -0.043594543
-0.06345511 0.14046767 -0.026219767 0.23748843 0.0642519 0.20492865 0.06182049 0.21189056
0.12882549 0.049971867 -0.14532174 -0.09955184 -0.14520654 0.050283276 -0.01511209 0.30051664
0.048040442 0.059430473 -0.1670126 0.320348 -0.1652685 -0.20276178 -0.18976976 -0.1511683
-0.07664813 -0.18813999 -0.17683734 -0.17145674 -0.21191204 -0.1256441 0.026077393 -0.081152804
-0.09872564 -0.034648206 -0.15179501 -0.110992186 -0.25153175 -0.09239011 -0.092346154 -0.031547535
-0.188405 -0.12337577 -0.26851866 0.013516978 0.0026170993 -0.18987034 0.017732084 -0.06660683
-0.22477342 -0.17234138 0.018909585 -0.18758339 -0.0032863973 -0.0136402305 -0.19150808 -0.15127331
-0.116389304 -0.10337532 -0.13397802 -0.119909845 0.04884327 0.22761796 -0.28384823 -0.08670323
-0.15479515 -0.2630706 0.044819262 -0.04754545 -0.17543463 -0.07340909 -0.14422533 -0.10925282
0.06884806 -0.11069305 -0.03473678 -0.14060766 -0.19807369 -0.22508247 -0.12297232 0.08410616
-0.098439954 -0.25029546 -0.044960383 -0.122121565 -0.24797274 -0.110995226 -0.25052807 -0.1183156
-0.06566717 -0.22404712 -0.21596934 -0.21799189 0.19540957 -0.19671592 -0.23848236 -0.047074478

fc.weight f4 [1, 180]
00000000: 589d d03e bc65 c4be 3d57 42be 2d0e bfbe
00000010: 0459 a6bd 1bd0 eb3e fef2 ad3e 7279 0e3f
00000020: 72f6 05bf 86f0 6cbf de79 453f de20 8f3e
00000030: 5e7e 603f 720f 62be 9d6f b5bd be8f d2be
00000040: d947 86be 1d30 21be 025b 183f 1039 01bf
00000050: d10b f13e 27bd 07bd ddda 22bf af3e a93d
00000060: d5ab f83e ebc1 9fbe ea0c 263a b6b7 02bf
00000070: fcbf 13bf 8036 ae3e 720a 323f 9014 643d
00000080: 18cf 72bf 917d 13be 9adf 4abe 88c8 adbe
00000090: 17a7 79be f5d7 0e3c a3e5 c7be 3bbe 84bd
000000a0: e9b8 6c3e 0c79 a63e 7a48 68be 5db3 11bd
000000b0: 08af 093f d879 653f 27de b2be 4e93 79bd
000000c0: d0d3 96bd 8b43 a93e 77f7 01be 148f c3bc
000000d0: f23b 40bf 71f3 813e d70e fbbd 0402 af3d
000000e0: 3134 f33e c733 263f c291 0d3f 374e 903e
000000f0: a883 e73e 9abe 5ebd 00ac 963e 4978 a9bd
00000100: 108a 21bf d093 413e 4b95 29be 253f 4c3d
00000110: 7cc6 47bf a30f ac3e a937 443e 5708 b5bd
00000120: 2f95 2cbd e0d6 9bbe df2e 17bf db8d 05bb
00000130: dfdc 313f c905 09bf 7413 84bf d06f fcbe
00000140: 3f6f 113e 7fe0 11bf 83c2 0dbf a46d d3be
00000150: f447 0c3f 576e 9abe 05e9 c0be 51ee b7be
00000160: 84c2 1cbf 1483 e23e c239 3e3e 4c92 e3bd
00000170: 7949 67be 9ab5 93bd 937d 093f 4324 9e3e
00000180: 29ea bf3e 822c d2bd 7d9a b5be 4302 9bbe
00000190: d396 78be 00df 41be d7b5 073e 0b91 4d3e
000001a0: 77dd da3e ba3c 3fbe 9f99 ddbe 4572 2dbe
000001b0: 9e98 823e 4ff2 d63e 9ae3 d5be f9a3 17be
000001c0: e281 7dbe fcbf 93be 2d1f 433e 096a 1a3f
000001d0: 15be e93b 70d3 983e c4a7 273f 8e31 0c3f
000001e0: eb92 803e f453 063e 5ab2 053f 08f5 9abd
000001f0: baaa 833e 64df 473e 1157 b0be 3997 123f
00000200: b500 94be 4658 0c3f ec59 fd3e 3279 49bf
00000210: 8f6b 433f 4280 b7be 03e0 f5be 3e89 e43e
00000220: 388c ddbe 38b7 943e 6793 b63c 20fd f63e
00000230: a90f 82bd 1396 133f 6acc b4be 7beb b7be
00000240: 7228 123f b676 eabd 6c49 1b3d b0bf 4b3f
00000250: 33c0 9ebe 8acc 3c3f fca8 e7be f74b 8cbe
00000260: 78c1 cabc b3bd 76be 02ad 0c3e 558f 1cbf
00000270: c6a6 40be 4599 c2be c6fa b83e f030 4f3c
00000280: a70e 39be db64 d1be 9e21 cbbe b9dc 25bf
00000290: 6228 483f 66b8 923e 34c2 94be 1e3a 12ba
000002a0: 7d02 2f3e 3798 c4be 6440 9c3e 7559 e53e
000002b0: 3a68 8b3e 3aef cfbe aecf 083f 5bb7 9abe
000002c0: fac6 81be 22b2 d53e c028 4f3e a815 9b3f
0.40745044 -0.38358867 -0.18978591 -0.37315503 -0.08122447 0.4605721 0.3397445 0.5565406
-0.5232917 -0.9255451 0.7713908 0.27954763 0.8769282 -0.22076204 -0.08859179 -0.41125292
-0.2622669 -0.1574101 0.59513867 -0.50477695 0.47079328 -0.033139374 -0.6361521 0.08263909
0.48568597 -0.31202635 0.0006334322 -0.5106157 -0.5771482 0.34025955 0.6954719 0.055683672
-0.9484725 -0.14403369 -0.1981186 -0.33942056 -0.24380146 0.00871848 -0.39042386 -0.06481596
0.23117413 0.32514226 -0.22683898 -0.035571445 0.537827 0.89639044 -0.34935114 -0.060931496
-0.07364619 0.33059344 -0.12692057 -0.023871936 -0.7509147 0.25381044 -0.1225869 0.08545306
0.47500756 0.64922756 0.55300534 0.28184673 0.45217633 -0.05438099 0.294281 -0.08274896
-0.6310129 0.18904042 -0.16560857 0.049864907 -0.7803724 0.3360568 0.19161858 -0.08839481
-0.04213446 -0.30437374 -0.59055895 -0.0020378742 0.6947765 -0.5352445 -1.0318437 -0.49304056
0.14202593 -0.5698318 -0.55374926 -0.41294587 0.5479729 -0.30162308 -0.3767778 -0.35924008
-0.6123431 0.4424063 0.1857672 -0.11111888 -0.22586621 -0.07212372 0.53707236 0.3088704
0.37483338 -0.102623954 -0.35469428 -0.30275163 -0.24276285 -0.18932724 0.1325296 0.20074861
0.4274709 -0.18675509 -0.43281266 -0.16938122 0.25507063 0.41981742 -0.4177521 -0.14808644
-0.24756578 -0.2885741 0.19054861 0.60318047 0.0071332552 0.29848814 0.65490365 0.54763114
0.2511209 0.13117963 0.5222527 -0.07566267 0.25716192 0.1951881 -0.34441426 0.57262
-0.2890679 0.54822195 0.49482667 -0.78700554 0.76335996 -0.3584004 -0.4802247 0.44635957
-0.4327104 0.29046035 0.022287084 0.48239994 -0.06350643 0.5765087 -0.35312206 -0.35921845
0.57092965 -0.114484236 0.037911817 0.79589367 -0.3100601 0.737496 -0.45246112 -0.27401707
-0.024750456 -0.24095802 0.13737872 -0.6115621 -0.18813619 -0.3800756 0.36128825 0.012645945
-0.18071996 -0.4089726 -0.39674085 -0.6478992 0.7818662 0.2865631 -0.29054415 -0.0005578118
0.17090793 -0.3839738 0.30517876 0.44794813 0.27227956 -0.40612203 0.53441894 -0.30218014
-0.2534712 0.41737467 0.20230389 1.2115984
